CIFAR-con-da-2/production/production-model.pt (torch, 145696 bytes, 20 tensors)

conv1.weight f4 [8, 3, 3, 3]
000000 68 1c 32 3f 1d cf a9 3f f2 1d b1 bf 07 81 4c 40
       0.69574594 1.3266331 -1.3837264 3.1953752
000010 ab 91 79 40 50 2c 20 3f 0f a4 d4 3f c9 84 bc 3f
       3.8995159 0.62567616 1.6612567 1.4728023
000020 d8 a7 ab bf 99 84 a2 be 72 59 e7 bf 3b d8 a9 bf
       -1.3410597 -0.3174179 -1.8074172 -1.3269113
000030 2b 5b 8d bf cb 7e 1b c0 f5 c4 08 c0 8a 38 b0 bf
       -1.1043447 -2.4296138 -2.1370213 -1.3767254
000040 37 22 43 c0 03 2a 3a bf 06 8e ab 3e 30 5c cb 3e
       -3.0489633 -0.72720355 0.33506793 0.3971877
000050 39 da 43 40 dc 46 29 bf 32 3b 89 bf f8 c7 8e 3f
       3.0601943 -0.6612375 -1.072119 1.1154776
000060 cd 11 08 bf 4c 0f df bf a7 a3 c6 3f df 34 4e 40
       -0.5315216 -1.7426543 1.5518693 3.221977
000070 2f 49 d5 3f 22 09 22 c0 e6 28 62 3f 31 eb 87 40
       1.6662959 -2.5318074 0.88343656 4.24746
000080 cf 01 aa 3e ef 00 2b bf 06 55 95 3f 53 20 91 be
       0.33204505 -0.667983 1.1666572 -0.28344974
000090 11 54 87 bf 8e 8e c1 be 22 3e 0c c0 bc 17 e5 bf
       -1.057253 -0.37804073 -2.1912923 -1.7897868
0000a0 d9 b5 01 40 7b 06 ab 3e 53 d7 e3 bf 17 77 a5 3f
       2.026724 0.33403382 -1.7800087 1.2926968
0000b0 bf d4 a6 3f b0 b4 37 40 c5 ca 6f 40 18 34 e7 3e
       1.3033675 2.8704033 3.746751 0.45156932
0000c0 6d 0b 51 bf ca 36 15 40 6b a8 c5 3d c1 6b 4a c0
       -0.8165806 2.331469 0.09651264 -3.1628268
0000d0 ef 79 b7 be 23 ef 86 bf ce 83 10 bf 0d fd 80 bf
       -0.35835215 -1.0541729 -0.5645112 -1.0077225
0000e0 7e ed 73 3d 85 5a fe be 6e 4a 28 c0 2e 52 95 bf
       0.059552662 -0.49678436 -2.6295428 -1.1665704
0000f0 93 8e 15 bf 82 80 06 c0 4e 43 36 bf 8e 3b 06 c0
       -0.58420676 -2.1015935 -0.7119645 -2.097385
000100 84 d3 8c 3d 2e 21 e6 bf 5c a7 01 bf 52 b3 36 3e
       0.06876281 -1.7978876 -0.50645995 0.17841843
000110 14 34 e9 bc 69 a7 ae bf 82 b1 7d 3b 40 2d 48 bf
       -0.028467216 -1.364484 0.003871054 -0.78194046
000120 e5 be b4 bf a3 da 5a 40 bb 9a d2 3e 3d 82 09 40
       -1.4120756 3.4195945 0.41133675 2.148574
000130 85 8b 86 40 7a d3 96 40 17 fe 6c bf a8 ed 3e 40
       4.204531 4.713315 -0.9257521 2.9832554
000140 5c f4 08 40 86 54 ed bf 8f cf 0d bf 34 27 65 3e
       2.1399145 -1.854142 -0.55394834 0.22378236
000150 7b b1 94 3e 8a 00 74 40 96 60 e0 3c e6 e2 7f 3e
       0.29041657 3.812533 0.027389806 0.24988899
000160 e3 10 bd be 53 b6 14 c0 8d bc e4 bf 06 80 b1 3b
       -0.36926946 -2.3236282 -1.7870041 0.005416873
000170 82 4c 59 3f 9e 53 6d 3f 40 5a 8f 40 ac 31 9e 3e
       0.84882367 0.92705715 4.479767 0.30897272
000180 cc 89 33 3e ef 92 56 bf 2f d9 44 c0 42 b0 d5 bf
       0.17533034 -0.8381795 -3.0757558 -1.6694415
000190 d4 3a 66 bf b8 23 65 3d d9 4c 4c 3f 58 5b 50 40
       -0.89933515 0.055942267 0.7980476 3.2555752
0001a0 c4 ee 16 3f 6e 58 61 3e 41 9f 66 bf 5f 18 db bf
       0.5895808 0.2200639 -0.9008675 -1.7116812
0001b0 95 84 bc 3f 82 eb ef 3f 87 91 67 40 55 21 22 bf
       1.4727961 1.8743746 3.6182573 -0.6333211
0001c0 e9 da 87 be 8d 9c a3 3f 15 e6 5e c0 15 a7 81 c0
       -0.26534203 1.278215 -3.482793 -4.0516458
0001d0 88 ae fb bf 72 30 d0 3e 94 a6 a2 3d 9b 61 62 3e
       -1.9662638 0.4066196 0.079419285 0.22107546
0001e0 63 80 47 be b6 4a e2 3e c1 bd ce 3e bd 63 1b c0
       -0.1948257 0.44197625 0.40379146 -2.4279625
0001f0 a1 da 1b c0 be 6c 2e c0 58 38 b2 3e d7 55 95 bf
       -2.435219 -2.725387 0.34808612 -1.1666821
000200 ad 6f 16 c0 3f de b8 3f 97 c0 f2 3f 39 dc cd 3e
       -2.3505661 1.4442824 1.8965024 0.4020708
000210 d5 df 97 3f 8b f6 02 40 52 e6 10 3e 9e bc 08 3f
       1.1865183 2.0462978 0.1415036 0.53412807
000220 6d 00 16 c0 73 02 db 3f 61 d6 00 40 8c c9 b7 bf
       -2.343776 1.7110122 2.0130847 -1.4358382
000230 b0 43 8f bf b8 47 dc bd 5b 5c cb 3f db 42 b2 bf
       -1.1192532 -0.10755867 1.588756 -1.3926653
000240 7a f5 b5 3f 16 87 41 c0 44 9c a2 3f ac 6b 3c 40
       1.4215539 -3.02387 1.2703938 2.9440718
000250 75 c7 bc bf 32 b3 e1 bf fd f7 5d 3b 53 33 7f 3f
       -1.474837 -1.7632811 0.0033869736 0.9968769
000260 35 f8 0c c0 20 81 a4 3f d7 46 04 c0 01 ba 1c 3f
       -2.2026494 1.2851906 -2.0668237 0.6122132
000270 0c 40 25 40 d6 0d 8d bf 5c 7e e1 bf af e5 a7 3f
       2.582034 -1.1019847 -1.7616687 1.3116969
000280 fe 1e 02 40 ee 64 cb bf c3 55 54 3f 37 c5 f2 bf
       2.0331416 -1.5890176 0.8294336 -1.8966435
000290 05 13 20 3f b6 72 ee bf e0 b4 aa bf c8 fd e5 3f
       0.6252902 -1.8628757 -1.3336449 1.7968073
0002a0 e3 c5 f0 bf 82 9e e3 3f fd c8 39 3f 66 62 87 3f
       -1.881039 1.7782748 0.7257231 1.0576904
0002b0 df 7d c6 bf 64 64 9d 3f 41 ff 17 c0 a8 38 9f be
       -1.5507163 1.2296262 -2.3749545 -0.31097913
0002c0 f9 34 24 40 85 df 3a c0 67 55 9d 3f 41 7e 3f 3f
       2.5657332 -2.9198925 1.2291688 0.74802023
0002d0 c4 3f 0d be 86 0f ad bf f9 40 8f 3f df af 0a c0
       -0.13793856 -1.3520362 1.1191703 -2.1669843
0002e0 2d 1c 0d bc 7c d4 28 40 8a ae 2d c0 0b ce 06 40
       -0.008612675 2.637969 -2.713778 2.1063259
0002f0 ef a6 87 3f a5 89 ea be 34 d8 8b 3f 82 9f 11 c0
       1.0597819 -0.4580814 1.0925355 -2.2753606
000300 e1 e8 93 bf f6 b3 78 3f 7a 0f 36 40 12 1b 52 3f
       -1.1555444 0.971496 2.8446946 0.82072556
000310 0a ba 3d c0 27 18 6c 3e 40 5a 74 be bb 33 e3 3f
       -2.96448 0.23056088 -0.23862553 1.7750162
000320 60 e1 fa bf f3 81 b5 bf c6 d6 f0 3f ae 50 80 40
       -1.9600029 -1.4180282 1.8815544 4.0098486
000330 3d b5 8c 3e 59 76 3b c0 4f fc 81 3e fc 0f ab 3c
       0.27482024 -2.9290984 0.2538781 0.020881645
000340 d2 02 cf 3f 55 25 87 bf be 59 da bf 3c b4 08 3f
       1.6172736 -1.0558268 -1.7058637 0.53400016
000350 b3 98 27 40 a6 db b5 3e 40 0d 56 c0 54 2c 2a bf
       2.618695 0.3551914 -3.3445587 -0.6647389

conv1.bias f4 [8]
000000 34 98 56 be 09 9d 86 be a4 59 b4 be cb 7c 28 3f
       -0.20956498 -0.26291683 -0.3522464 0.6581542
000010 32 0f 24 3f aa f1 1d 3f 3d 58 15 3f f1 f7 04 be
       0.64085686 0.61696875 0.58337766 -0.12985207

batch_norm_conv1.weight f4 [8]
000000 9b 4e 33 40 c2 80 10 40 58 ec ee 3f 84 34 2a 40
       2.8016727 2.2578588 1.8665876 2.6594553
000010 22 f8 11 40 d6 ac 56 40 52 60 66 40 76 e7 1c 40
       2.2807698 3.354299 3.599629 2.4516273

batch_norm_conv1.bias f4 [8]
000000 de f5 82 3e 20 5d 11 3f 2f d9 e3 3e 65 c5 c6 be
       0.25578207 0.5678272 0.44501635 -0.38822475
000010 9d 2e ed 3f ce 2b 86 3f 09 25 8c 3e 42 75 17 be
       1.852985 1.0482118 0.27372006 -0.14790824

batch_norm_conv1.running_mean f4 [8]
000000 f0 35 2a bd d9 eb 85 bf ba 45 f6 bf a9 60 1f 3f
       -0.041555345 -1.04626 -1.9240029 0.62256867
000010 72 34 15 3f c0 ca 1b 3f 6f a9 13 3f 93 9f 9b 3c
       0.5828315 0.60856247 0.5768041 0.01899699

batch_norm_conv1.running_var f4 [8]
000000 54 fb e2 40 b7 e1 f6 41 9e 29 b7 41 b1 2a d3 40
       7.0931797 30.860212 22.89532 6.5989614
000010 b0 ff 60 41 30 94 23 41 b9 7a 6a 41 c8 43 c3 40
       14.062424 10.223679 14.654962 6.102024

conv2.weight f4 [16, 8, 3, 3]
000000 27 17 1e c0 f6 49 87 40 0c b7 c6 3f 78 ce 83 c0
       -2.470163 4.2277784 1.5524611 -4.1189537
000010 42 09 c4 40 fe f1 c7 3f e9 36 6d c0 40 39 3d 40
       6.12613 1.5620725 -3.7064764 2.9566193
000020 77 cf 21 c0 15 e2 92 3f cd 60 01 3f 17 93 5b 3f
       -2.5282876 1.1475245 0.5053833 0.85771316
000030 2f ce 16 bf cb b9 e2 bf 44 c0 42 c0 94 32 8d c0
       -0.5890836 -1.771295 -3.042985 -4.412424
000040 7e 35 84 bf 6c c3 8b be 83 d0 a6 3f e7 55 7a 3f
       -1.0328825 -0.27297533 1.3032383 0.97787327
000050 5c 3e 85 3e 03 4b 03 bf eb 3d 82 3f 0c b4 06 be
       0.2602414 -0.51286334 1.0175146 -0.1315462
000060 9f 48 88 3f 26 5b 9d 3f d3 ef 07 be 4e 92 3b 3d
       1.0647162 1.2293441 -0.1327508 0.045793824
000070 d9 d7 04 bf de 26 b2 bf 51 cc 46 3f 8a 2e 49 3f
       -0.5189186 -1.3918111 0.7765551 0.7858664
000080 4d c7 b4 3f 6c 52 84 3f fc 3d 41 3f e1 12 c0 3d
       1.4123322 1.0337653 0.75485206 0.09378601
000090 00 ae 91 3f 22 4d 35 c0 00 84 53 bf d3 e1 a7 3f
       1.1381226 -2.8328328 -0.8262329 1.3115791
0000a0 0e 36 37 3f 24 28 26 3f 4c e6 0c 3f ac a0 8d 3f
       0.71566856 0.64905 0.55038905 1.1064658
0000b0 f0 1e ca 3f 0b 02 e9 3d bd a9 be bf be 79 05 c0
       1.5790691 0.11377343 -1.489555 -2.0855556
0000c0 e9 52 07 40 cb 55 fb bf 70 a2 26 c0 e9 0f 04 3f
       2.1144354 -1.9635557 -2.6036644 0.51586777
0000d0 c1 d1 2d 3f 34 e0 0c 40 8c 08 91 3f a0 fc fd be
       0.67898184 2.2011843 1.1330733 -0.496068
0000e0 d2 73 fe bf 7e ae 4a 3e a8 41 bc bf 3c 40 4c c0
       -1.9879096 0.19793126 -1.4707537 -3.1914206
0000f0 54 bc 12 3f 96 60 d0 3f 80 59 95 3f e6 e0 91 bd
       0.57318616 1.6279476 1.1667938 -0.07122974
000100 1b 09 48 3f dd b8 be 3f 52 03 b3 bf 94 cd d7 bc
       0.78138894 1.4900166 -1.3985388 -0.026343144
000110 4c 88 9e 3f 78 6c c3 3e 59 fc 8f 3e d1 6e 37 3e
       1.2385345 0.38168693 0.28122213 0.17913367
000120 3a b3 17 bf af 14 c2 c0 13 40 99 c0 e0 4f 90 c0
       -0.59257853 -6.065025 -4.7890716 -4.5097504
000130 2d e9 b6 c0 77 dc df bf e4 0c 75 3f 5d 44 26 40
       -5.715964 -1.7489156 0.95722795 2.5979226
000140 14 e1 d5 40 e0 c5 e4 3f 04 34 06 c0 b7 df c4 bf
       6.6837254 1.7872887 -2.0969248 -1.5380772
000150 09 92 20 3e c7 c2 3b c0 f2 0e f5 bf 16 82 38 40
       0.15680708 -2.9337633 -1.9145186 2.8829398
000160 88 50 42 bf aa e3 d1 3e 4d 31 1e c0 f3 fe 88 bf
       -0.7590413 0.40994006 -2.471759 -1.0702804
000170 6e 50 59 3f 85 76 cf bf bb 99 01 40 bb 60 85 3e
       0.8488835 -1.6208044 2.025008 0.26050362
000180 03 53 e5 be db af 06 40 7a 3b 94 bf 36 ef f6 3f
       -0.44789895 2.1044834 -1.1580651 1.9291751
000190 20 8b 86 3e 84 7f d5 3e 92 f0 e1 3f 1f df c5 3f
       0.2627802 0.4169885 1.7651541 1.5458716
0001a0 fa 3a 9c bf 1b a3 ee 3e 60 87 5a bf 48 37 8d 3f
       -1.2205498 0.46608815 -0.85362816 1.1032495
0001b0 32 69 41 bf 21 7d 11 40 dc 93 2b 40 84 ee f0 3f
       -0.7555114 2.2732623 2.6808996 1.8822789
0001c0 24 6b 76 40 9a 62 ef 3e b4 28 31 bf 16 c3 3d bf
       3.8502893 0.46754915 -0.69202733 -0.741258
0001d0 b1 ca 60 c0 1d d9 df be b8 0c 1d bf 5d b0 f8 ba
       -3.5123713 -0.43720332 -0.6134753 -0.0018973459
0001e0 e3 58 b2 bf af 48 44 3f 91 12 fb be 94 2f 56 3f
       -1.3933376 0.76673406 -0.49037603 0.8366635
0001f0 e1 ca de be c7 27 b9 bd ba 08 79 3f dd 80 6c bf
       -0.4351416 -0.0904079 0.9727894 -0.9238413
000200 15 c5 59 bf 50 1c 69 bf a3 85 86 3f a4 26 c4 3f
       -0.8506635 -0.91058826 1.0509533 1.5324292
000210 75 02 ba 3f c6 a4 73 bf 26 b7 90 3f 2a 36 32 bf
       1.4532 -0.951733 1.1305892 -0.696139
000220 fc d7 50 be 3d 5e 19 3f d6 92 42 bf e4 cf 19 3f
       -0.20394892 0.5990942 -0.76005304 0.6008284
000230 84 be 93 3e 15 22 92 bf 31 c3 d3 be 5a 22 2c 3f
       0.2885629 -1.1416651 -0.41359857 0.67239916
000240 4f fa 1b 40 80 21 0a c0 71 7d 8a c0 89 7f 7d 3f
       2.4371526 -2.1582947 -4.3278127 0.9902273
000250 a9 f6 89 bf ac 67 24 c0 b2 b7 bd 3e 56 f3 b0 bf
       -1.07784 -2.5688276 0.3705421 -1.382426
000260 6a 53 62 bf 3d 0d be 3f cd 31 f6 bf 2b 3b c2 be
       -0.8840853 1.484779 -1.9233948 -0.37935767
000270 5a 2f 5c bf 00 9f 19 c0 c8 f8 f0 bf 38 05 8b bf
       -0.8600975 -2.4003296 -1.8825922 -1.0860968
000280 6a ff 46 bf 67 7c 22 c0 f7 47 2f c0 1a f5 5d 40
       -0.7773348 -2.538843 -2.7387674 3.4680848
000290 6b 89 33 40 05 c2 60 c0 aa 9d 79 40 6a d2 2d 40
       2.8052623 -3.511842 3.900248 2.7159677
0002a0 98 17 81 bf 7e 81 c5 3f 63 56 07 40 2a d7 8b 3f
       -1.0085325 1.5430143 2.1146476 1.0925038
0002b0 a7 7e c3 be 67 ea 15 3f 05 4b 0d c0 bb e9 f5 bf
       -0.38182566 0.58560795 -2.2077038 -1.9211954
0002c0 e8 68 47 c0 ae 68 01 c0 26 c0 64 c0 50 7b c9 3f
       -3.115778 -2.0220141 -3.5742278 1.5740757
0002d0 08 33 21 c0 1b 99 f0 bd 79 6c 31 3f 9e ee 84 bf
       -2.5187397 -0.117479526 0.6930614 -1.038532
0002e0 b8 94 3f c0 e3 ea 1c 3f cb c5 ef be 6a eb d4 bf
       -2.993452 0.6129591 -0.46830592 -1.6634343
0002f0 61 e3 b6 3f a3 82 3c bf 17 3d 52 3e d6 5f 4a bf
       1.428814 -0.73636836 0.20531116 -0.79052484
000300 ac 26 bc bf 3e 42 96 bf 56 d1 db 3f 3f b9 03 40
       -1.4699302 -1.1738966 1.7173259 2.0581815
000310 16 7f c7 3f 9e 82 e4 3e a0 95 07 3f 65 44 50 be
       1.5585659 0.44630903 0.52962685 -0.2033859
000320 51 00 2f bf 01 7e 17 be 06 e2 a8 3d e9 0d e9 bf
       -0.6835986 -0.1479416 0.082462355 -1.820737
000330 21 fe 46 c0 eb ce 33 c0 68 a1 bd 3e fa 30 98 3c
       -3.1092608 -2.8095043 0.37037206 0.018578041
000340 27 fe 34 3f 8d f5 ce 3f e9 45 9b 40 28 bb d3 3f
       0.70700306 1.6168686 4.852284 1.654149
000350 2c 00 f1 3f 0c c4 c2 3f dc 80 60 40 30 90 26 3f
       1.8828177 1.5216079 3.507865 0.6506376
000360 a5 42 e6 3e d6 35 0c bf d2 29 5b 3f 19 18 c2 bf
       0.4497272 -0.5476965 0.8561069 -1.5163604
000370 15 fd b0 bf f9 d0 d7 be 91 9f d8 be 51 14 e5 3e
       -1.3827235 -0.4215162 -0.4230924 0.44742063
000380 c0 b7 c7 3f 5c 95 83 be 80 ee fb 3f fc 47 01 3f
       1.5602951 -0.2569989 1.968216 0.50500464
000390 6d 3f 56 bf dd fe 92 3f 7a 07 5b bf 45 44 12 c0
       -0.8369053 1.1484028 -0.85558283 -2.2854168
0003a0 29 39 f1 bf b0 5b 53 c0 30 c7 51 bd 5b bd ac 3e
       -1.8845569 -3.3024712 -0.05121535 0.33738217
0003b0 a8 e0 da 3f 18 1f bd 3c 77 0c b7 bc a2 a4 3e 3e
       1.709981 0.023086116 -0.02234481 0.1861749
0003c0 f9 1e 43 bf c4 25 95 bf b9 46 a1 bf d6 8a 11 3f
       -0.76219136 -1.165215 -1.2599708 0.5685247
0003d0 e6 4b b0 3f f1 95 98 3f 80 d6 c6 bf 39 4c ab bf
       1.3773162 1.1920758 -1.553421 -1.3382636
0003e0 2f 5e a3 bf ac 75 e2 bf d2 6a f6 bf 33 a6 c9 bf
       -1.2763118 -1.7692161 -1.9251349 -1.5753845
0003f0 82 68 b0 3f 51 18 73 c0 65 a9 4a bf 0a a9 72 bd
       1.3781893 -3.7983592 -0.79164726 -0.05924324

conv2.bias f4 [16]
000000 50 e5 15 be 73 8c 83 be b2 83 c4 3d d9 0b f0 bb
       -0.14638257 -0.25693092 0.095954314 -0.007325631
000010 ca 7f c4 3d 9e 20 5e be 38 3e b8 be 92 af 80 bc
       0.09594686 -0.2169213 -0.3598497 -0.015708718
000020 ab f9 71 3c 7a dc 03 be 31 50 46 be f9 dc d0 bb
       0.014768998 -0.12877074 -0.19366528 -0.0063739982
000030 55 81 75 3e cb 46 37 3e 79 8a 98 3c 43 6f f3 bd
       0.23975118 0.17898099 0.018620716 -0.11886456

batch_norm_conv2.weight f4 [16]
000000 14 0a 06 40 5d f7 d9 3f 2e f3 e0 3f 2b 32 38 40
       2.0943651 1.7028614 1.7574213 2.878062
000010 48 6f 2c 40 5c 5d 03 40 f4 f9 73 40 70 ec f1 3f
       2.694292 2.0525732 3.812131 1.890028
000020 39 db fc 3f cb fd 74 40 32 0c cc 3f 76 bb c3 3f
       1.9754401 3.8279903 1.5941222 1.5291584
000030 a2 9b 25 40 e0 93 0f 40 48 7f 4e 40 2c a9 33 40
       2.587624 2.2434006 3.2265186 2.8072004

batch_norm_conv2.bias f4 [16]
000000 c7 b0 9f bf cf 12 cf 3e aa ec ea 3e 34 9c 01 c0
       -1.2475823 0.40444037 0.45883685 -2.025159
000010 ac 08 92 bf 7f f5 1c 3f ad d5 f2 bf 18 db 49 bf
       -1.1408896 0.613121 -1.8971459 -0.78849936
000020 9b aa 2e bf fb be 2d c0 42 b4 bd be bd 03 d5 3e
       -0.68229073 -2.7147815 -0.37051588 0.41604415
000030 37 50 81 bf 40 89 92 bf bd 7c e2 bf 43 69 ec bf
       -1.0102605 -1.1448135 -1.7694317 -1.8469623

batch_norm_conv2.running_mean f4 [16]
000000 d5 6f 71 40 f6 0a 0a c1 66 e9 16 c2 0b 85 8d c2
       3.7724507 -8.627676 -37.72793 -70.75985
000010 5a 4b 42 c2 18 31 97 c2 2b 68 9f c2 90 3e 66 c1
       -48.573586 -75.59589 -79.70345 -14.390274
000020 1e c3 0e 41 66 1f ac c2 91 16 3e 40 cf ae b1 c0
       8.922636 -86.061325 2.9701273 -5.552589
000030 e5 e6 1d c2 44 d0 ba c1 dc 53 46 c2 ef be 45 c2
       -39.475483 -23.351692 -49.581894 -49.43646

batch_norm_conv2.running_var f4 [16]
000000 95 c9 47 44 ff 83 81 44 83 04 8b 44 c3 00 3c 45
       799.1497 1036.1249 1112.141 3008.0476
000010 ed 5e ca 44 3c 1c f9 44 bc 1f 81 45 3d 10 93 44
       1618.9664 1992.8823 4131.967 1176.5074
000020 93 5f 97 44 47 b3 25 45 66 7e 8e 44 4b 51 cc 44
       1210.9867 2651.2048 1139.95 1634.5404
000030 4f ce fd 44 45 31 d8 44 73 8f 23 45 c9 dc 2a 45
       2030.4471 1729.5397 2616.9656 2733.799

fc1.weight f4 [32, 1024]
000000 74 be 19 c0 c6 b5 ea bf db 3c 73 3f 57 d2 0d c0
       -2.4022493 -1.8336723 0.95014733 -2.2159631
000010 0e 07 3f bf 25 a4 17 c0 6b 72 c9 bb dc d9 46 c0
       -0.7462014 -2.3693936 -0.006147673 -3.107047
000020 04 03 2b c0 41 3f 3f bf 6f 58 43 bf ac 0c 6c bf
       -2.672059 -0.7470589 -0.76306814 -0.92206836
000030 8e 25 4d c0 47 43 c8 bf 65 1e 63 c0 e7 d0 7d c0
       -3.2054172 -1.5645531 -3.5487301 -3.9658754
000040 10 31 a2 bf 96 13 54 bf aa d2 24 bf 49 a5 a3 be
       -1.2671223 -0.82842386 -0.6438395 -0.3196204
000050 86 c7 2d 40 90 61 97 bf 57 c5 0a c0 ce 80 4d c0
       2.715303 -1.1826649 -2.1682947 -3.2109866
000060 5f 0d cd be 9a c4 4d bf b2 bd ea be 54 a7 0f c0
       -0.40049264 -0.80378115 -0.4584785 -2.244588
000070 0f d8 b1 3f f6 51 a7 bf 03 9f db be ab 33 da bf
       1.3894061 -1.3071887 -0.42894754 -1.7047018
000080 88 05 d3 bf fc 3b 9e 3f 36 f8 14 40 f8 39 13 40
       -1.6486063 1.2362056 2.3276496 2.3004131
000090 c6 ae 3c 40 83 33 41 40 02 f0 f1 bf 82 7b d5 bf
       2.9481673 3.018769 -1.890137 -1.6678317
0000a0 91 1b 0e c0 4d 11 38 40 49 db 54 bf 66 74 09 40
       -2.2204325 2.876056 -0.831471 2.1477294
0000b0 44 0b 77 40 7a 4a cd 3f 73 ec 9a bf b0 fd 63 3f
       3.8600626 1.6038353 -1.2103409 0.8905897
0000c0 33 55 ce 3e f6 e0 d5 bf 4e c0 3a c0 a1 76 49 bf
       0.40299377 -1.6709278 -2.9179873 -0.7869664
0000d0 2e 5c 6d bf 72 17 09 bf 4c a6 77 3f fd 7c 4a 3f
       -0.9271878 -0.535514 0.96738124 0.79096967
0000e0 5d 09 52 c0 27 3c 1b c0 c0 2b 63 c0 88 0c e1 bf
       -3.2818215 -2.4255464 -3.5495453 -1.7581949
0000f0 b1 98 97 c0 58 e5 f2 be 5f 53 de 3e 5b 24 7c bf
       -4.737389 -0.474406 0.43422982 -0.98492974
000100 37 4e fb bd dd 7a 32 3f 48 4d 20 40 ab a0 bd 3f
       -0.12270778 0.69718724 2.5047169 1.4814657
000110 e8 a5 5e 40 47 fa 2b 3f 2a c8 2f 3e ff f0 b8 40
       3.478876 0.6717877 0.171662 5.7794185
000120 4a 35 05 40 d5 66 19 40 d1 48 3b 40 59 05 48 40
       2.0813775 2.3969014 2.9263194 3.1253264
000130 fe b4 dd 3e 1e 48 56 40 2c bf bc 3f 26 b4 27 40
       0.4330215 3.3481517 1.4745841 2.6203704
000140 f8 8f 71 40 58 10 f9 3e 39 ac 1f 40 99 df 0d c0
       3.7744122 0.48645282 2.4948866 -2.2167723
000150 2c a6 15 c0 4c c4 20 bf d4 55 18 3e ea 9c 16 40
       -2.3382673 -0.62799525 0.14876491 2.3533273
000160 1d c0 62 3f dd 4d 88 40 ba 24 97 3f da 31 5b c0
       0.8857439 4.259505 1.1808083 -3.4249177
000170 81 de d9 c0 81 6c 27 bf 1d 64 ce 3e 63 a9 b7 3f
       -6.808411 -0.6539994 0.40310755 1.4348568
000180 dc 37 c6 3d a5 e7 d7 3f 7c 17 f8 bd b4 96 41 c0
       0.09678623 1.6867567 -0.12113854 -3.0248232
000190 88 86 a0 c0 7f 12 d7 3e 2d 13 17 3e 01 4e 13 c0
       -5.0164223 0.420063 0.14753409 -2.301636
0001a0 09 80 c6 bf 48 73 63 40 d3 4b 21 3f b4 8a 06 3e
       -1.5507823 3.5539112 0.63006324 0.13138849
0001b0 78 b4 96 3f b7 8e 26 bf a4 96 09 3f 02 16 1d c0
       1.1773825 -0.65061516 0.53745484 -2.4544683
0001c0 57 f8 8c c0 fc 8f 14 c0 7b 1c 0f 40 3c e5 b2 be
       -4.405315 -2.321288 2.2361133 -0.34940517
0001d0 10 ec 4f 3f db 5f fe be 24 69 04 c0 b4 06 ac bf
       0.8121958 -0.49682507 -2.0689173 -1.3439546
0001e0 75 47 a5 c0 da 0c a4 3e 53 f3 f8 be bc 57 16 c0
       -5.164973 0.32041055 -0.48623142 -2.349105
0001f0 12 95 03 c0 02 3d 35 c0 4f e3 e5 bf ce c6 dc c0
       -2.0559735 -2.8318486 -1.7959994 -6.899268
000200 56 b7 0d 40 2e 54 2a 3f e2 60 ff 3f 89 bd d7 3f
       2.214315 0.665347 1.9951441 1.6854717
000210 a8 d0 45 bf 53 0b c1 3e 2a c7 f3 3e 79 04 f4 3f
       -0.7727151 0.37703952 0.47612888 1.9063865
000220 c5 69 9b 3f b6 5d af bf 14 9a 25 40 32 29 4f 40
       1.2141653 -1.3700473 2.5875292 3.2368894
000230 cd db 16 bf aa a1 b8 3f cd f6 83 3f 37 00 88 3e
       -0.5892914 1.4424336 1.0309693 0.26562664
000240 af 59 6f 3f 4c 1c 0e c0 97 53 e0 bf a2 f3 b7 bf
       0.9349622 -2.220477 -1.752551 -1.4371226
000250 d6 0c 01 3f 83 a7 64 bf 81 3b d0 3f 79 64 53 3f
       0.5041021 -0.893181 1.6268159 0.82575184
000260 10 0a dc bf 63 b4 31 be fc 55 0b bf 5c 0e 90 bf
       -1.7190571 -0.17353968 -0.54428077 -1.1254382
000270 8b 23 86 3e 69 51 58 3f 3c ec 92 3f 0c d4 b0 bf
       0.26198992 0.8449922 1.1478343 -1.3814712
000280 34 20 8b c0 d9 35 0e c0 7b fa ba 3e 52 80 41 40
       -4.347681 -2.2220366 0.36519226 3.023457
000290 03 39 ef 3e 2a a9 05 3f e0 3d cd 3f 0d 75 c8 bf
       0.46723184 0.5221125 1.6034508 -1.5660721
0002a0 ec 5f c4 bf 28 1b 76 bf fb e3 49 bf c4 1b af 3f
       -1.5341773 -0.9613519 -0.78863496 1.3680348
0002b0 c8 61 e0 3f ed ac 08 40 5a b0 aa 3e c7 1f 15 c0
       1.752984 2.1355546 0.3333767 -2.3300645
0002c0 8f 4a 43 c0 6c b8 0c c0 1e 26 18 40 2b ce 4c 40
       -3.0514257 -2.1987562 2.3773265 3.2000835
0002d0 66 ee 64 40 82 17 12 c0 1d ea 25 c0 96 b1 dd c0
       3.5770507 -2.2826848 -2.5924141 -6.927928
0002e0 64 fc 0c c0 bb 56 3b c0 7a ee dd bf e2 12 ef 3e
       -2.2029047 -2.9271686 -1.7338402 0.46694094
0002f0 a9 0c 0e bf f0 bd 17 c0 ea b4 a8 c0 21 39 0b c1
       -0.5548807 -2.3709679 -5.272084 -8.7014475
000300 03 2f 1d 3f db 10 55 40 f1 a8 66 3e 81 94 85 3f
       0.6139986 3.3291538 0.22525384 1.0435945
000310 00 99 b6 bf 06 8c cc bf 35 80 8a 3e b1 c4 53 40
       -1.4265442 -1.5980232 0.2705094 3.30888
000320 e7 92 6d bf 38 15 7d bf 56 cb be be 5d 77 4c bf
       -0.9280228 -0.988605 -0.37264508 -0.79869634
000330 f5 bf 7a 3f 81 b1 08 c0 cc 7a 3e c0 d4 1a 6d 3e
       0.97949153 -2.135834 -2.976245 0.23154765
000340 7a 21 20 c0 b9 87 14 c0 29 2f dc bd 46 4d 1f bf
       -2.5020432 -2.3207839 -0.107511826 -0.62227285
000350 df f1 3f be cd 9e ca bf f9 02 52 bf df 34 b0 3f
       -0.1874461 -1.5829712 -0.82035786 1.3766135
000360 b7 32 b5 bf 39 04 24 bf 3f 4d a5 3f bb f5 13 40
       -1.4156102 -0.64068943 1.2914199 2.3118732
000370 2c 9c 09 3f 9e 47 da 3f d5 eb 01 3f 4b f0 9c 3d
       0.53753924 1.7053106 0.50750476 0.0766302
000380 25 75 80 bf 07 f9 e7 bf 05 2d 13 c0 c7 69 07 bf
       -1.003575 -1.8122872 -2.2996228 -0.5289578
000390 c6 27 99 bf 48 a7 33 3f a2 4b c0 3d 2a 0f 57 be
       -1.1965263 0.70177126 0.09389426 -0.21001878
0003a0 57 28 b3 be 0e 9f 39 bf 98 90 ca bf 8c 15 49 be
       -0.34991714 -0.72508323 -1.5825377 -0.19637126
0003b0 a2 c7 8c bc 17 1e c5 3f 1d 64 db 3f 7d 0c 6a 3f
       -0.017185036 1.5399808 1.7139927 0.91425306
0003c0 0e 0d 3e 3f c7 67 97 be 12 de 7f bd 40 f5 be 3e
       0.7423867 -0.29571363 -0.062467642 0.37296486
0003d0 e2 db 02 40 36 29 31 40 37 5f bf bf dd 5d 1a bf
       2.0446706 2.7681403 -1.4950932 -0.60299474
0003e0 5f 24 da bf 7b 17 8c 3f de 15 2f 40 2d 7d 2c 3f
       -1.704235 1.0944666 2.7357097 0.67378503
0003f0 4a a3 14 40 5e dd d6 3f d6 67 3a 40 d1 2f 03 c0
       2.3224664 1.6786306 2.9125876 -2.0497935

fc1.bias f4 [32]
000000 49 af 89 3d b0 27 19 3d 0f ef 28 3d b2 f6 f0 3c
       0.06722886 0.037391365 0.04124361 0.029414508
000010 27 d9 3f 3c 37 98 e7 bc 82 49 09 bb 54 69 17 3d
       0.011709488 -0.028270824 -0.0020948355 0.036965683
000020 fe bc 75 bc a0 6d 44 3d 12 31 32 3d d6 b6 e8 3c
       -0.0149986725 0.04795611 0.04350383 0.028407495
000030 fe 8a b1 3d 11 e6 8d bc e9 c5 a5 bc d1 2a e8 bc
       0.08669089 -0.017321618 -0.020235972 -0.028340729
000040 92 1c f8 bc ae d2 f0 3c 5f 12 a1 3b c5 fd 0f 3d
       -0.03028706 0.029397335 0.00491552 0.035154123
000050 76 64 9c 3d 27 db 5b 3d 1f 26 88 3c 24 91 82 3d
       0.07636349 0.053675797 0.01661974 0.063753396
000060 22 cf 5c 3d 9e 84 f8 bc 96 f3 63 3c 42 db 3f bd
       0.053908475 -0.030336674 0.013913056 -0.04683996
000070 85 95 ad 3b cf 77 a3 3d b1 c4 33 3c 67 89 68 3d
       0.005297365 0.07981836 0.010972188 0.056771662

batch_norm_fc1.weight f4 [32]
000000 b5 2d 55 3f 5c dd 5d 3f 95 71 61 3f b6 bd 03 3f
       0.8327287 0.8666589 0.8806394 0.5146135
000010 8c 20 90 3f 46 76 10 3f 10 e8 4a 3f 4f 8d 72 3f
       1.1259933 0.5643047 0.7926035 0.9474687
000020 0f de 04 3f a7 e5 bc 3f 9b 99 36 3f 48 80 85 3f
       0.51901335 1.4757584 0.71328133 1.0429773
000030 18 12 23 3f 9b 3e 05 3f c5 d0 67 3f 5f 6e 81 3f
       0.63699484 0.52048653 0.9055293 1.0111808
000040 2e a1 2f 3f 66 6c 37 3f 0f b8 61 3f ea 81 59 3f
       0.68605316 0.7164978 0.88171476 0.8496386
000050 61 5e 39 3f 8d 46 50 3f d6 fc 30 3f 93 0e 93 3f
       0.72409636 0.8135765 0.691358 1.1488823
000060 0f 3a 58 3f e5 87 3c 3f 13 a2 6f 3f 9b 4b 33 3f
       0.8446359 0.7364486 0.9360668 0.7003724
000070 3e df 42 3f 8d ac 8d 3f bc 3c 89 3f 8e 95 83 3f
       0.7612189 1.1068283 1.072166 1.0280015

batch_norm_fc1.bias f4 [32]
000000 9a 31 2d bd 93 2d c7 be 51 ac 3a be e4 d9 61 3e
       -0.04228363 -0.38901958 -0.18229796 0.22055775
000010 4b 30 31 bf cc 93 6d 3d 5c e5 02 be a4 39 4e bc
       -0.69214314 0.05800228 -0.12782806 -0.012586985
000020 ec 7e 94 3e 27 7a 4e bf ba 9a 76 be 2c 81 9d be
       0.29003084 -0.8065514 -0.24082461 -0.30762613
000030 60 d6 fd 3d 91 ab 11 3f e4 47 91 be 33 9a be be
       0.123944044 0.56902415 -0.2837516 -0.3722702
000040 3b e0 65 3d ba f1 b2 bd b7 a4 ee be be 87 76 be
       0.056122046 -0.08737512 -0.46610042 -0.24075219
000050 1c 70 ab 3e 3a 17 e7 be d7 c3 97 be 1c 77 13 3e
       0.3348397 -0.45134908 -0.296416 0.14400905
000060 d8 44 92 be 35 d9 ba bd 48 9b 5e be ca bc 86 bd
       -0.2856815 -0.0912346 -0.21738923 -0.065789774
000070 b0 5d 71 be a3 3e 82 be 2d 75 d9 be 8d 18 80 be
       -0.23570895 -0.25438413 -0.4247221 -0.2501873

batch_norm_fc1.running_mean f4 [32]
000000 1e 13 de c2 f3 24 3e c3 d8 8d 0d c3 3d 2d e0 c2
       -111.03734 -190.14433 -141.55408 -112.088356
000010 1f df 03 c3 c5 25 5f 43 35 ec 24 c2 19 b6 fb c1
       -131.87157 223.14754 -41.23067 -31.463915
000020 b4 33 3b c0 1e be 25 c3 6e c1 fe 42 89 24 52 c3
       -2.9250307 -165.74265 127.37779 -210.14272
000030 34 e1 e8 c2 d4 1b 19 43 8d 2d 51 c1 ec 9b 40 c3
       -116.43985 153.1087 -13.073621 -192.60907
000040 f3 28 6b c2 65 a1 60 c3 90 4f c3 c2 5c 3f 3b c3
       -58.78999 -224.63045 -97.655396 -187.2475
000050 2e 18 e1 c3 ec fb f0 c2 5e 65 2a c3 c1 3f 21 c3
       -450.1889 -120.492035 -170.39597 -161.24904
000060 f3 d7 8c c3 3a 3c 0f c3 aa 38 01 c3 bf 9c 7e 43
       -281.6871 -143.23526 -129.22134 254.61229
000070 a4 e9 96 c1 4b 22 0f c3 9e b1 ae c3 6c 03 d5 c2
       -18.864082 -143.13396 -349.38763 -106.50668

batch_norm_fc1.running_var f4 [32]
000000 c6 6b 4f 46 a8 2a 20 46 71 0d 46 46 b4 fb 52 46
       13274.943 10250.664 12675.36 13502.926
000010 4a 60 19 46 cf cf 38 46 c0 bd 50 46 ab 79 47 46
       9816.072 11827.952 13359.4375 12766.417
000020 03 80 4c 46 d7 60 85 46 1e 6f 3b 46 01 15 8d 46
       13088.003 17072.42 11995.779 18058.502
000030 b5 87 2d 46 b9 b0 38 46 9b c1 2c 46 f2 61 6e 46
       11105.927 11820.181 11056.401 15256.486
000040 0e e8 82 46 ff be 37 46 0a e7 1f 46 95 89 40 46
       16756.027 11759.749 10233.76 12322.3955
000050 4c dd 92 46 4c 8b fb 45 32 15 10 46 f6 86 8b 46
       18798.648 8049.412 9221.299 17859.48
000060 2e 91 48 46 d9 68 55 46 d8 b8 34 46 c8 c3 45 46
       12836.295 13658.212 11566.211 12656.945
000070 10 76 38 46 86 d8 9c 46 be 75 8c 46 ee 00 88 46
       11805.516 20076.262 17978.871 17408.465

fc2.weight f4 [10, 32]
000000 14 5b 85 be a7 07 66 3e 01 7d 0c c0 e0 0f 24 c0
       -0.2604605 0.22463857 -2.1951296 -2.563469
000010 68 f2 3c bf ac 5b 9f 3f 33 fe 28 3f e2 13 b1 3e
       -0.7380738 1.2449851 0.6601288 0.34585482
000020 c5 e4 81 bf ab f8 f6 be e7 75 73 3f fa a9 d2 bd
       -1.014794 -0.48236594 0.9510178 -0.10286327
000030 de 31 95 3f f9 c4 72 bf 19 15 84 3f 78 fb 94 bf
       1.1655843 -0.94831806 1.0318938 -1.1639242
000040 1c c3 57 bf d4 7b f8 3d 79 ec 66 3f 30 60 1f bf
       -0.8428209 0.12132993 0.9020458 -0.62256145
000050 b1 7e b5 bf b6 b9 9d bf d3 a3 66 bf 0c d8 26 3d
       -1.4179288 -1.23223 -0.90093726 0.040733382
000060 78 ab 17 bf c0 26 95 3e ba 3c 0a be 42 04 f4 3e
       -0.59246016 0.29131126 -0.13499728 0.47659498
000070 87 67 c0 bf 23 75 1e bc 38 d5 d1 3f 44 f0 e5 3d
       -1.5031594 -0.009671482 1.6393194 0.11227468
000080 e2 91 2c bf 7d 58 47 bf 2d ae 2d bf 99 4a ca 3f
       -0.674101 -0.778694 -0.67843896 1.5804015
000090 1d a9 e0 3f ba 06 0f 3e 10 10 ec bf ac ee 9c 3f
       1.7551609 0.1396741 -1.8442402 1.2260337
0000a0 be 1a 0a bf 86 ec 57 bc 2a ec 3b c0 e2 03 35 3f
       -0.53947055 -0.01317895 -2.9362893 0.7070905
0000b0 e5 db 51 3f be 4f 24 bf 72 e3 7e bf ea 7d 6b bf
       0.8197616 -0.64184177 -0.99565804 -0.91989005
0000c0 97 ed a7 bf 2d 36 7b bf 65 18 3a bf 63 f6 e7 bf
       -1.3119382 -0.9812954 -0.72693473 -1.8122066
0000d0 07 2d e6 bf 11 f7 ab 3e 5e 6e 4e bf 75 86 9e 3f
       -1.7982491 0.33586934 -0.80637157 1.2384783
0000e0 32 d9 62 be fc 2f 27 c0 b6 1e f6 bf 12 b3 b1 3f
       -0.22153166 -2.6123037 -1.9228122 1.3882773
0000f0 b5 14 eb bf 1a cf 96 3f 2e 4d e5 bf 57 e6 a0 3f
       -1.8365694 1.1781952 -1.7914178 1.2570294
000100 67 57 03 be ed 4a 87 3f 51 1e 94 3f a5 35 e0 3e
       -0.1282631 1.056974 1.1571752 0.43790928
000110 f4 e1 95 bf 2f c7 9d bf aa b7 a8 3f 57 b2 8a bf
       -1.170958 -1.2326411 1.318105 -1.0835675
000120 a3 6f 00 c0 a2 d3 60 bf 73 9e af 3f 12 c5 d7 be
       -2.0068138 -0.87822926 1.372023 -0.4214254
000130 0f 4f c7 be d9 0d d4 be 6a 54 a2 be e0 91 0c bf
       -0.38927504 -0.41416815 -0.31705028 -0.5491009
000140 a1 6a 83 3f 3f b5 96 bf 21 1e 74 3f a9 ce ae be
       1.0266916 -1.1774062 0.95358473 -0.34142044
000150 12 4d 0f bc 74 84 0a bf 1b 53 ad bd 3e 17 b9 bf
       -0.008746402 -0.5410836 -0.08463117 -1.4460218
000160 aa ca 55 bf f3 5c d9 3e 62 5f 57 3e f1 73 59 3e
       -0.83512366 0.42453727 0.2103248 0.21235634
000170 f2 ed c2 3e 47 63 85 be f4 91 0c 3f 0f 2f a5 be
       0.38072163 -0.26052305 0.54910207 -0.32262465
000180 9a be 55 bf 26 4d 24 3d 03 3d 8e be 72 9f 19 be
       -0.8349396 0.040112637 -0.27780923 -0.1500223
000190 c4 14 22 bf ec a4 ef 3e ab d4 a6 be c2 d3 86 bf
       -0.63312936 0.46805513 -0.32584128 -1.0533373
0001a0 95 35 d5 be 5b 22 1c bf 8d 8b 76 3d 2f 2a 2c bf
       -0.41642442 -0.6098992 0.06019168 -0.6725187
0001b0 63 2b 20 bf 63 c3 b4 3f 4b b0 e6 bd ae 2a ff bb
       -0.625662 1.4122127 -0.11264094 -0.0077870702
0001c0 97 ae 67 bf e7 55 e7 3e 26 51 b3 bd 30 d7 cf 3e
       -0.9050078 0.45182726 -0.08755712 0.40593863
0001d0 0f f2 9b 3f 5d 26 92 be e1 aa 04 3f 89 93 c0 bf
       1.2183245 -0.28544894 0.5182324 -1.5045024
0001e0 7c 55 5b 3f e5 5a 3c bf 3b 5e 73 bd f5 49 af be
       0.85677314 -0.73576194 -0.059416037 -0.34236112
0001f0 04 17 2c be 6c 54 de bf f5 67 3c be fd c8 b4 bf
       -0.16805655 -1.7369514 -0.18399031 -1.4123837
000200 77 a8 64 3d ee f2 db bf f0 82 a0 3e 68 09 c9 bf
       0.055824723 -1.7183511 0.31349897 -1.5705996
000210 85 23 d1 bf 2e 81 c3 bf 28 bf 5f 3f b7 b0 9b bf
       -1.6338965 -1.5273798 0.87401056 -1.2163304
000220 f1 9e a0 3e 31 0c e3 3e 7b 31 20 be a3 1d 2a bf
       0.31371263 0.4434524 -0.15643875 -0.6645147
000230 4d 6a 0d 3f 34 de ef be 53 d7 38 3e 71 00 69 3f
       0.5524033 -0.46849215 0.1805089 0.910163
000240 ea 65 f5 3e 08 84 ba bf c3 a7 37 bf 0a 63 d6 3d
       0.47929317 -1.4571543 -0.7174036 0.10468109
000250 84 17 9e 3f f4 a1 e0 3f df 73 e9 bf 27 1c 5b bf
       1.2350926 1.7549424 -1.8238486 -0.8558983
000260 9c ff a9 bf 7d be 32 3f 76 65 51 bf 32 33 20 bf
       -1.3281131 0.6982191 -0.8179544 -0.6257812
000270 f0 fd 34 3e 19 78 ac bf bc 55 1e 3f 98 22 91 bf
       0.17674994 -1.3474151 0.6184957 -1.1338682
000280 e4 2c f2 be a0 0f 13 be a0 ab 5e 3f cc 73 26 3d
       -0.47299874 -0.14361429 0.8698063 0.040637776
000290 5d 5a da be b9 4c 04 3f 20 46 2d bf 7a 8c 8e bf
       -0.42647067 0.5167957 -0.6768513 -1.113662
0002a0 f5 ae 1f 3f 27 62 ec be b3 63 ba be d1 ff 21 bf
       0.6237634 -0.46168634 -0.3640419 -0.6328097
0002b0 db 5c 9e bf 93 1f b9 3f 06 3c 35 be f6 97 cf 3d
       -1.2372087 1.4462761 -0.17698678 0.10136406
0002c0 59 9a 52 3f 8a 48 83 3f 56 8e 74 bf 94 44 a1 3f
       0.82266766 1.0256512 -0.9552969 1.2599053
0002d0 cb 42 23 bf 3b d5 08 bf 48 d0 66 3e 79 ab ed bf
       -0.63773793 -0.53450364 0.2254039 -1.8567954
0002e0 7b 90 d5 3d 1e 60 1e 3d 4b d9 6c 3e 65 85 96 bf
       0.10427948 0.038665883 0.23129766 -1.1759459
0002f0 96 8d cb be 9a 79 10 c0 d2 16 76 bf 8f b3 00 c0
       -0.3975646 -2.257422 -0.9612857 -2.0109594
000300 da 6e 1c bf 73 bc 0b 3e b3 40 15 3f a1 7a 69 be
       -0.61106646 0.13646106 0.5830185 -0.22800685
000310 0d a5 2d 3e 0f b9 32 bf a1 6d ea be 80 ef 6b bf
       0.16957493 -0.69813627 -0.45786765 -0.92162323
000320 15 54 95 3f 1d 16 b6 bf 7b 0b 1f 3d 57 56 da 3f
       1.1666285 -1.4225498 0.038829308 1.7057599
000330 89 03 bd bf 21 c6 dd bf 60 87 95 bf 84 f4 e2 bf
       -1.4766704 -1.7326089 -1.1681938 -1.773087
000340 2b 7a 70 3f d2 ee b8 bf 71 3b 00 3f 60 26 79 3f
       0.93936414 -1.4447882 0.500907 0.9732418
000350 e8 87 83 3f 4d af 5e bf ad cf 20 3f b1 97 ee bf
       1.027585 -0.8698624 0.6281689 -1.8640043
000360 ef 8c c7 3f 5c 2a 07 3f 00 88 9c bf 7e 0a cd 3f
       1.5589885 0.5279901 -1.2229004 1.6018827
000370 ab 8d 71 3f cd 34 67 3e df 04 42 3f 4c 13 fb be
       0.94356793 0.22578736 0.7578868 -0.4903816
000380 33 33 07 40 1f 4e c3 bf f6 9a 61 bf 00 a0 e7 be
       2.1125 -1.5258216 -0.88127077 -0.45239258
000390 d4 8b d3 bf 6b 6d 8e be e8 89 5a bd 13 12 a3 bf
       -1.6527047 -0.27817854 -0.053354174 -1.2739891
0003a0 4a 37 c9 3e 98 7c 1c 40 dd d5 b3 be ac 94 6a bf
       0.39299995 2.4451046 -0.35124102 -0.91633105
0003b0 a1 57 90 bf a9 67 42 3f 6c b9 e6 3f 7b 8d 98 3f
       -1.1276742 0.7593942 1.8025336 1.1918176
0003c0 07 42 30 bf 9b 1a 44 be 4f 99 91 3f f1 6d 0e bf
       -0.6885075 -0.19150774 1.1374911 -0.5563651
0003d0 15 81 8f bf 42 29 50 3d 78 cb 3f bf f4 58 98 bf
       -1.1211268 0.050820597 -0.74919844 -1.1902146
0003e0 16 8a c9 bf 44 8b 07 bf 93 b2 84 be a7 f0 f3 bf
       -1.5745265 -0.5294688 -0.2591749 -1.9057816
0003f0 cb 0b b4 3f c6 e8 c7 bf a8 9d 98 bf 03 31 b6 bf
       1.4066099 -1.5617912 -1.1923113 -1.4233707

fc2.bias f4 [10]
000000 29 ff 68 3e 84 21 62 bf 74 58 6f 3e da 0f 4f 3e
       0.22753586 -0.8833239 0.23373586 0.2022089
000010 97 8b 0d 3f 18 94 0c be 4d 85 ad bf 18 cb a9 3e
       0.5529112 -0.13728368 -1.3556305 0.3316276
000020 50 17 2a be ba f9 15 3f
       -0.16610456 0.5858418
