CIFAR-con-da/epoch60-latest-ResNet18.pt (torch, 145696 bytes, 20 tensors)

conv1.weight f4 [8, 3, 3, 3]
0	0xbe9f665c	-0.31132782
1	0xc04b659b	-3.1780765
2	0x3d993522	0.074808374
3	0xc020e27d	-2.5138237
4	0xc087b6db	-4.241071
5	0xbfd120ce	-1.6338136
6	0xbf7d3d0a	-0.98921263
7	0xc048ee1e	-3.1395335
8	0x3ec5206b	0.38501295
9	0xbf636fc4	-0.88842416
10	0xbf8ac9aa	-1.0842793
11	0xbf0972d9	-0.5369087
12	0xbf0ded69	-0.55440384
13	0x3ed0868b	0.40727648
14	0x3f042e5f	0.51633257
15	0xbf850e8b	-1.0395063
16	0xbfb531af	-1.4155787
17	0x3f21eaa8	0.6324868
18	0x3ead271c	0.338189
19	0x40061d70	2.0955467
20	0x3dde3460	0.108498335
21	0x401f3007	2.4873064
22	0x40a8af42	5.271394
23	0x40235bce	2.5524783
24	0x3f31b341	0.69414145
25	0x3fdd469d	1.7287174
26	0x3f9149fc	1.1350703
27	0xc00a9258	-2.165182
28	0x3f07f88d	0.53113633
29	0x3e885146	0.26624507
30	0x3e9a716c	0.3016466
31	0x4089b13d	4.3028855
32	0x407cab71	3.947964
33	0xbfb8e227	-1.4444016
34	0x3fd194d7	1.6373547
35	0x3fe398f8	1.7781057
36	0xbc4a34ef	-0.012341722
37	0xbfadd85f	-1.3581656
38	0xbeae9e3e	-0.34105104
39	0xbfb65384	-1.4244237
40	0xc07893db	-3.8840244
41	0xc030ce58	-2.7625942
42	0xbf450a2b	-0.7696864
43	0xc0460546	-3.0940719
44	0xc003ba57	-2.0582483
45	0x3ff50fab	1.9145406
46	0x3f00a276	0.50247896
47	0x3d9dec6d	0.0771111
48	0x3ff7aa7a	1.93489
49	0xbf8e6dfe	-1.1127317
50	0xc03b83e5	-2.9299252
51	0x40051093	2.0791366
52	0x3ec40904	0.38288128
53	0xbf4ed888	-0.8079915
54	0xbf5e9a28	-0.86953974
55	0x400a9907	2.16559
56	0xbfa62b60	-1.2981987
57	0x3e696b3a	0.2279481
58	0x40387ff0	2.8828087
59	0xc04e95a3	-3.227883
60	0x3d7a91b7	0.06117412
61	0x3f57c20e	0.8428048
62	0xc0297ba8	-2.6481724
63	0xbf2a8fc2	-0.66625607
64	0x40300f59	2.7509367
65	0xbfa39b19	-1.2781707
66	0x3f320a89	0.69547325
67	0x405bed28	3.4363499
68	0xc049c533	-3.152661
69	0xbc5b4022	-0.01338199
70	0x3fc986e1	1.5744287
71	0xc0198e06	-2.3992934
72	0xbfd0a363	-1.6299862
73	0x3fd7cfd4	1.6860299
74	0xbf459db3	-0.77193755
75	0xbf68cefe	-0.90940845
76	0x400d940b	2.2121608
77	0xc01ed6de	-2.4818645
78	0xbdd1f060	-0.10250926
79	0x3fc88e74	1.5668473
80	0xbf310bfd	-0.6915892
81	0x3f18812e	0.5957211
82	0x3fcad793	1.5847038
83	0xbfb6403d	-1.4238354
84	0xbffa0869	-1.9533817
85	0x40470fa1	3.110329
86	0x3f15b834	0.58484197
87	0xbfa8a9ee	-1.3176858
88	0xbf911c0b	-1.1336683
89	0x3f66a4c0	0.9009514
90	0x3dc43abc	0.09581515
91	0x3f8a9c32	1.0828917
92	0xc00888eb	-2.1333568
93	0xc008d973	-2.138272
94	0x4075b3ea	3.839106
95	0x3ff45be2	1.909054
96	0xbffd88a3	-1.9807323
97	0xbfdc5181	-1.7212373
98	0x3f8a2d4d	1.0795075
99	0x3f1c8a5a	0.6114861
100	0x3fdeb4e6	1.7398956
101	0xc02eafc6	-2.7294784
102	0xbf5bdda9	-0.858851
103	0x4099df81	4.808533
104	0x3fdd9dd3	1.7313789
105	0xc0409b14	-3.0094652
106	0xbfe014d5	-1.7506357
107	0x3f132517	0.5747847
108	0xbe9344e5	-0.287635
109	0xc099ab0a	-4.802129
110	0xc06a0e80	-3.657135
111	0x4004d381	2.0754092
112	0x3fd24b0e	1.6429155
113	0xbf87b8cd	-1.0603272
114	0x3faf2411	1.3682882
115	0x3fe60afe	1.7972105
116	0x3fbc7bb6	1.4725254
117	0x3fa9e348	1.3272486
118	0xbfa1900b	-1.2622083
119	0x3eb7c513	0.35892543
120	0x3ff0a905	1.8801581
121	0x40279472	2.6184354
122	0xbeb698b5	-0.3566338
123	0xbf88df42	-1.0693133
124	0x3f952a77	1.1653584
125	0x3f9401ef	1.156309
126	0x40179318	2.368353
127	0xbff35175	-1.9009234
128	0x3fece1a2	1.8506358
129	0xbf220800	-0.6329346
130	0xc017d0fc	-2.3721304
131	0xc0b44e90	-5.63459
132	0xbfd683b6	-1.6758945
133	0xbf892ba6	-1.0716445
134	0xbf850678	-1.0392599
135	0xbda5cf35	-0.08096162
136	0xbf1581c9	-0.5840116
137	0x3fb0bb69	1.3807193
138	0xc00fbd2b	-2.245921
139	0x3faab793	1.3337272
140	0x403220c1	2.7832491
141	0x3e02a7f9	0.12759389
142	0x4013dc25	2.3103116
143	0xbfb01330	-1.3755856
144	0xbfda79af	-1.7068385
145	0xbfd3106f	-1.648939
146	0x3f937acc	1.152185
147	0xc06a03c8	-3.6564808
148	0x3f5e269a	0.8677765
149	0x405c1107	3.4385393
150	0xbf639544	-0.88899636
151	0x401131d5	2.2686665
152	0xbf027619	-0.5096145
153	0xc013be3e	-2.3084865
154	0xbf1a824d	-0.60355073
155	0x3fdce798	1.7258177
156	0xc07416bf	-3.8138883
157	0x401825da	2.3773103
158	0x40442ebd	3.0653527
159	0xbf1a2f8a	-0.6022879
160	0x406b3f4c	3.6757383
161	0xbfa08d4e	-1.2543123
162	0x3fa8f4c1	1.3199693
163	0xbf2a5950	-0.6654253
164	0x3ea8998c	0.32929647
165	0xbff8c540	-1.9435196
166	0xc085891f	-4.1729884
167	0xbe18b6eb	-0.14913528
168	0x3e9c93f4	0.3058163
169	0x4077c132	3.8711667
170	0x3f6331c9	0.8874784
171	0x3fff88db	1.996364
172	0x3e8c42cb	0.2739471
173	0xbe54de36	-0.20787892
174	0xbfc9436a	-1.5723698
175	0xc0744ee0	-3.8173141
176	0xbe757b52	-0.23972824
177	0xbd07a8b9	-0.03311989
178	0x408281e3	4.0783553
179	0x3d9ffe19	0.07812137
180	0x3f46f80f	0.7772226
181	0xbca3ec23	-0.02001006
182	0xbedb356b	-0.42814192
183	0xbfb7f7f8	-1.4372549
184	0xc047626a	-3.1153817
185	0x3ee9a4d4	0.45633566
186	0x3d3752e4	0.044756785
187	0x4041d408	3.0285664
188	0x3e3ac345	0.18238552
189	0x406dbfdc	3.7148352
190	0xbe89a03f	-0.2688007
191	0x3fbfc3fb	1.4981683
192	0x3f00399c	0.50087905
193	0xc037f2b6	-2.874189
194	0xbf04aa8e	-0.51822746
195	0x3fe3aa6d	1.7786385
196	0xbf939cc2	-1.1532214
197	0x3ebb13e4	0.36538613
198	0xbf121b46	-0.57072866
199	0xbfabf81d	-1.3435093
200	0xbfb9de42	-1.4520953
201	0xbe49fd62	-0.19725564
202	0xbfcf6f3c	-1.6205821
203	0xbf698c72	-0.9122993
204	0xbf59054f	-0.84773725
205	0xbfbad17d	-1.4595181
206	0xbf675a7f	-0.9037246
207	0xc01f8cd7	-2.4929712
208	0x3f8e7542	1.1129534
209	0xc04923b8	-3.142805
210	0x404f64dc	3.240531
211	0x40b9ac31	5.8022695
212	0x3fd68177	1.675826
213	0x3ed7b17e	0.42127603
214	0x405a1900	3.4077759
215	0x3f3f20de	0.74659526

conv1.bias f4 [8]
0	0x3f680041	0.9062539
1	0x3f273acd	0.653241
2	0xbf154dad	-0.5832165
3	0x3f8417be	1.0319746
4	0xbd0364a9	-0.03207842
5	0x3ead58cb	0.33856806
6	0xbef3bc42	-0.47604567
7	0xbf6599ba	-0.89687693

batch_norm_conv1.weight f4 [8]
0	0x401f9c85	2.4939282
1	0x4035f167	2.842859
2	0x404d38f2	3.2066007
3	0x40466b37	3.1002939
4	0x40308068	2.7578373
5	0x402ca2b6	2.697431
6	0x403ccc5c	2.949973
7	0x3fe42908	1.7825022

batch_norm_conv1.bias f4 [8]
0	0x3f99b16e	1.2007272
1	0x3fb7ad8c	1.4349837
2	0x3f86b074	1.0522599
3	0x3ebeaaaf	0.37239596
4	0x3f2cd8fc	0.6751859
5	0x3f96ebc7	1.1790704
6	0xbdb21743	-0.08695843
7	0x40019989	2.024996

batch_norm_conv1.running_mean f4 [8]
0	0xbce1c818	-0.027561232
1	0x3f7b7451	0.9822436
2	0xbee0c0be	-0.4389705
3	0x3f2d4428	0.67682123
4	0x3f8dd256	1.1079814
5	0xbea73857	-0.3266017
6	0xbeae19f8	-0.34004188
7	0xc002d803	-2.0444343

batch_norm_conv1.running_var f4 [8]
0	0x41e5172f	28.63632
1	0x410e4a91	8.893205
2	0x413eba4d	11.920484
3	0x415fb31f	13.981231
4	0x41885a71	17.04416
5	0x41dcd568	27.604202
6	0x41134fcf	9.2069845
7	0x41404f32	12.019335

conv2.weight f4 [16, 8, 3, 3]
0	0x3f4f7308	0.810349
1	0x3e983f2d	0.297357
2	0xc064c781	-3.5746768
3	0x40306593	2.7561996
4	0x40931cde	4.597274
5	0xbf488e9b	-0.783426
6	0xbf1e83b8	-0.61919737
7	0x4031fc6a	2.7810311
8	0xbf516252	-0.8179065
9	0xbe3b6fd1	-0.18304373
10	0xc0be04bf	-5.9380794
11	0x404ddfc8	3.2167835
12	0xc0e73a5d	-7.2258744
13	0xc14dcfb7	-12.863212
14	0x3f79a6a1	0.9751988
15	0x3f95a861	1.169201
16	0xbf029551	-0.5100909
17	0x3ff440c0	1.908226
18	0xbd94973b	-0.072554074
19	0x3f76ae35	0.9635957
20	0xbf0c07c4	-0.5469935
21	0x4016f4d1	2.3586924
22	0x3fd21685	1.6413122
23	0x3ed1edf5	0.4100186
24	0x3f8e1818	1.1101103
25	0x3d85af10	0.06527531
26	0xbf6b5938	-0.9193301
27	0x3f86b596	1.0524166
28	0xbdf05226	-0.117344186
29	0x40191e0b	2.3924587
30	0xbecfb139	-0.40564898
31	0xbe706691	-0.23476626
32	0x3f125efd	0.5717619
33	0xbe39e436	-0.18153462
34	0x3f68ceab	0.9094035
35	0xbfa316d6	-1.2741344
36	0x3f95d113	1.1704429
37	0x3f9eac45	1.2396322
38	0x3f5533f6	0.8328241
39	0x3f3518a3	0.7074072
40	0x3e69dbaa	0.22837701
41	0xbeeb442d	-0.45950451
42	0xbdddb6b5	-0.10825864
43	0xbffac6c0	-1.9591904
44	0xbf9013a5	-1.1255995
45	0xbde8ef70	-0.11373794
46	0xbed6461d	-0.41850367
47	0x3e5a183d	0.21298309
48	0xbfb1f83f	-1.3903884
49	0xbffd062a	-1.9767506
50	0x3efce744	0.49395192
51	0x3ebd54d9	0.36978796
52	0xbf31c982	-0.694481
53	0x3f67749c	0.90412307
54	0x3fe85c2f	1.8153132
55	0xbf819b7c	-1.0125575
56	0xbdb39b73	-0.08769884
57	0x3ecf39c4	0.4047376
58	0x3f56d36a	0.8391634
59	0xbf0c9c32	-0.54925835
60	0x3e5fd22f	0.21857522
61	0x3e418251	0.18897368
62	0x3e919fce	0.28442234
63	0xbd5737af	-0.05254334
64	0xc001ef28	-2.030222
65	0xbf206e5f	-0.6266841
66	0xc0bf9efe	-5.988158
67	0xc0242488	-2.5647297
68	0xbca3f907	-0.020016206
69	0xbfbfc494	-1.4981866
70	0x402710cf	2.610401
71	0xbe089331	-0.13337399
72	0x3e3a5f06	0.18200311
73	0xbd2617ec	-0.040550157
74	0xbfbea631	-1.4894468
75	0xbf039fb9	-0.5141559
76	0xc0327c9d	-2.7888558
77	0xbe310050	-0.17285275
78	0x3dff8d5f	0.12478136
79	0xbe12db89	-0.14341559
80	0x4017ee0a	2.3739038
81	0xbf77f151	-0.96852595
82	0xbfacdd1f	-1.3504981
83	0x3fdc4ac4	1.7210317
84	0xbf6b1a7a	-0.91837275
85	0x3f0ef1d7	0.5583777
86	0x3f312d3f	0.69209665
87	0x403e12a7	2.9698884
88	0x3fc1103a	1.5083077
89	0xbfd593a4	-1.6685681
90	0xbf1a0606	-0.6016544
91	0x3f34d525	0.7063773
92	0x404d8264	3.2110834
93	0xbe7cc32e	-0.2468383
94	0x40170c70	2.3601341
95	0x3f515131	0.81764513
96	0x4037492d	2.8638413
97	0x3f88fab3	1.0701507
98	0xbfa5fbfa	-1.2967522
99	0x3deef9c5	0.116687335
100	0x3fcd68dc	1.6047626
101	0xbfe3e2d7	-1.7803601
102	0xbe9116f4	-0.28337824
103	0xc0582edd	-3.3778603
104	0xc0cf2393	-6.4730926
105	0xbee500d3	-0.4472719
106	0xc04a840e	-3.16431
107	0xbfcc7421	-1.597294
108	0xbf59da69	-0.8509889
109	0xbd6773bc	-0.056506857
110	0x3e9e4f24	0.30919755
111	0xbfbd336f	-1.4781321
112	0xbf85253b	-1.0401987
113	0x3ff0f497	1.8824643
114	0xbf9b4d2f	-1.213293
115	0x3fab7407	1.3394784
116	0xbf040bbf	-0.51580423
117	0x3f7d3cf6	0.98921144
118	0x3f6eb2da	0.93241656
119	0xbfd9f817	-1.7028836
120	0x3dc64e80	0.096829414
121	0xbe8672a2	-0.26259333
122	0xbf2c9f00	-0.67430115
123	0xc0725c53	-3.786885
124	0xc09dda48	-4.9328957
125	0x40afcc70	5.4937057
126	0xbf2dc3ae	-0.6787671
127	0x3fd4d7af	1.6628321
128	0x3f4d0463	0.8008482
129	0xbe32fe1d	-0.17479749
130	0xc04649c6	-3.0982528
131	0x4070cdbd	3.7625573
132	0xbf1281a9	-0.57229096
133	0xbc13660a	-0.008996496
134	0x3fe85781	1.8151704
135	0x402f3fc2	2.7382665
136	0x3fa6ffcd	1.3046814
137	0xc011570d	-2.2709382
138	0x404d374f	3.2065008
139	0x3fb011fe	1.3755491
140	0xc0956a75	-4.6692452
141	0x3fcd42a2	1.603596
142	0xc02d46bc	-2.7074423
143	0xc0d3ccec	-6.618765
144	0xbf465060	-0.7746639
145	0xbf090ccb	-0.53535146
146	0x402b2880	2.674347
147	0x3f34916e	0.7053441
148	0x3e4def59	0.20110835
149	0x3e248781	0.16067316
150	0x3f8d2e1a	1.1029694
151	0xbf10ebe3	-0.56609935
152	0xc0202533	-2.5022705
153	0x3f3b6875	0.73206264
154	0x3f783ca5	0.96967536
155	0xbea1494b	-0.3150123
156	0xbf950c03	-1.1644291
157	0xbfe47af3	-1.7850021
158	0x3fbf11c9	1.4927303
159	0x3f9150bf	1.1352767
160	0xbeaa56b0	-0.33269262
161	0xbf4d8f03	-0.80296344
162	0x3f68d882	0.90955365
163	0x3e64eecb	0.22356717
164	0xc023171e	-2.548286
165	0xbf5b8856	-0.8575491
166	0x3f0a2927	0.53969043
167	0xbde2212d	-0.11041484
168	0x392c98e1	0.0001646015
169	0xc01efc9f	-2.4841688
170	0xbf46e6d7	-0.77695984
171	0xc01da9e6	-2.4634948
172	0xbec5c317	-0.38625404
173	0x41062195	8.383199
174	0x40240ac9	2.5631583
175	0x4048f1fd	3.1397698
176	0x3f92e5e1	1.1476403
177	0x3d1826de	0.03714644
178	0x4045d5bd	3.0911705
179	0x3f7cf0c2	0.9880487
180	0x40a8f601	5.28003
181	0x3f61da6f	0.8822393
182	0xbfc02cbf	-1.5013655
183	0xbf5e7697	-0.86899704
184	0x407bf050	3.9365425
185	0x3fe152ae	1.7603357
186	0xc04e6d67	-3.2254274
187	0xbfc688e7	-1.5510529
188	0x40b9dbed	5.8080964
189	0xbd8e17ff	-0.06938171
190	0xc034d3c0	-2.8254242
191	0xc00c3ec6	-2.1913314
192	0xbfd4dfcf	-1.6630801
193	0xc00c8592	-2.1956525
194	0xc01db500	-2.4641724
195	0xbd8de813	-0.0692903
196	0xbf7bc4fc	-0.9834745
197	0xbfe40b98	-1.7816038
198	0x3f5e2481	0.8677445
199	0xbeb39d34	-0.35080874
200	0xbe5feaf4	-0.21866971
201	0xc02261e3	-2.5372245
202	0x3f495dd3	0.7865879
203	0x3fd2520a	1.6431286
204	0xbd4f6511	-0.050633494
205	0xbfa584b1	-1.2931119
206	0x40079a85	2.1188061
207	0xbf15d96f	-0.585349
208	0xbfaed54b	-1.3658842
209	0x3fa1a660	1.2628899
210	0x3ee3bdd0	0.44480753
211	0x3ff7660e	1.932802
212	0x3f81c1c3	1.0137256
213	0x3fcaf1de	1.5855062
214	0x3f88ec2d	1.0697075
215	0x4006ea9e	2.10807
216	0x403a55b2	2.9114804
217	0x3eb4ba1f	0.3529825
218	0xc05d8002	-3.460938
219	0x3fda60e2	1.7060816
220	0x3f7b8814	0.98254514
221	0xbfc61115	-1.5473963
222	0x3f5d073a	0.8633915
223	0x3f84c487	1.0372475
224	0xbf3c6c0f	-0.73602384
225	0x3ff17b26	1.8865707
226	0xc029155c	-2.6419287
227	0x3f7410f8	0.9533839
228	0x3fdb52d6	1.7134655
229	0xbed46655	-0.41484323
230	0xc0679b0b	-3.618838
231	0x3eba5852	0.36395508
232	0x3fa780bc	1.3086162
233	0x3f6eda51	0.93301874
234	0xbec01289	-0.3751414
235	0xc04f02f0	-3.2345543
236	0xbe0d838a	-0.1381971
237	0xbf01f066	-0.50757444
238	0xc0f6ce71	-7.7127004
239	0xc03b0bb2	-2.9225888
240	0xbc1c7093	-0.009548324
241	0xbebfec16	-0.37484807
242	0xbce3c9b0	-0.027806133
243	0xbee16081	-0.4401894
244	0x4002ce59	2.0438445
245	0x3f40319a	0.75075686
246	0xbff034a3	-1.8766063
247	0x3f0511e5	0.5198043
248	0x4003e908	2.061098
249	0xbf58e10b	-0.8471839
250	0xbf08a94a	-0.53383315
251	0x3f9a5880	1.2058258
252	0x3fbff363	1.4996151
253	0xc07c4df5	-3.9422581
254	0x3fb53a0b	1.4158338
255	0x40305ffb	2.7558582

conv2.bias f4 [16]
0	0xbe6491a9	-0.2232119
1	0x3e2cc8b1	0.16873433
2	0x3e88859e	0.26664442
3	0xbd9c2aa3	-0.0762532
4	0x3d8c21bd	0.068423726
5	0x3e19a136	0.15002903
6	0x3e2e5555	0.17024739
7	0x3d249bec	0.04018776
8	0x3e301e30	0.17199016
9	0xbde489c8	-0.11159092
10	0x3e5b37a5	0.21407945
11	0x3e27d65c	0.16390365
12	0xbe26909b	-0.162661
13	0xbe7436c7	-0.23849021
14	0xbe88a42e	-0.2668776
15	0x3e03d000	0.12872314

batch_norm_conv2.weight f4 [16]
0	0x3ff7feca	1.937463
1	0x40178b9e	2.3678966
2	0x3fc1b584	1.5133519
3	0x4068dc1a	3.638434
4	0x3ff58dae	1.9183862
5	0x4011d78e	2.2787814
6	0x400c1578	2.1888103
7	0x404da06a	3.212916
8	0x4016a3d5	2.3537495
9	0x40275ced	2.6150467
10	0x40a7eb2c	5.2474575
11	0x40563f9b	3.3476322
12	0x404cc213	3.1993454
13	0x4019f7f0	2.405758
14	0x3fc010f9	1.500518
15	0x3ff42f1e	1.9076879

batch_norm_conv2.bias f4 [16]
0	0x3f3876b2	0.72056115
1	0xbe1d605d	-0.15368791
2	0x3eb87d42	0.36033064
3	0xc00b07af	-2.172344
4	0xbebacd77	-0.36484882
5	0x3f49d38e	0.7883843
6	0xbf91a8e5	-1.1379668
7	0xbff38697	-1.9025449
8	0xbf93b15b	-1.15385
9	0xbfc72889	-1.5559245
10	0xc05d01a5	-3.4532254
11	0xbfcb3dac	-1.5878196
12	0xc017731b	-2.3664005
13	0xbf368d65	-0.713095
14	0x3dedfcee	0.11620508
15	0x3e28144f	0.16413997

batch_norm_conv2.running_mean f4 [16]
0	0xc2365138	-45.579315
1	0xc1e6e4fd	-28.86181
2	0x41e0065e	28.003109
3	0xc2cabd2a	-101.36946
4	0x40fcfed3	7.9061065
5	0xc2c49fa9	-98.31184
6	0xc20a800c	-34.625046
7	0xc28cf62a	-70.48079
8	0xc2583fef	-54.062435
9	0xc198ec26	-19.115307
10	0xc30e8c17	-142.54723
11	0xc2ae82ae	-87.25523
12	0xc2188cf1	-38.137638
13	0xc24ad7ef	-50.710873
14	0xc08175f5	-4.045649
15	0xc19fa3d8	-19.955002

batch_norm_conv2.running_var f4 [16]
0	0x44dd7c7a	1771.8899
1	0x4535041a	2896.2563
2	0x449a8941	1236.2892
3	0x458ed0ef	4570.1167
4	0x4506e16c	2158.0889
5	0x45417982	3095.5942
6	0x45136af9	2358.6858
7	0x45041175	2113.091
8	0x44b17580	1419.6719
9	0x45449154	3145.083
10	0x45a72e79	5349.809
11	0x45862848	4293.035
12	0x44f41da7	1952.9266
13	0x44bfb160	1533.543
14	0x4447a46c	798.5691
15	0x44b3366b	1433.7006

fc1.weight f4 [32, 1024]
0	0xc0a9adcd	-5.302466
1	0x3f49297d	0.7857893
2	0xbfcff9b3	-1.6248077
3	0xbfb768c9	-1.4328853
4	0xbfb04e68	-1.3773928
5	0x3f27530b	0.6536109
6	0xbf7d8f6d	-0.99046975
7	0xbfa0991d	-1.2546726
8	0xc047001f	-3.1093824
9	0xbefa2217	-0.48854133
10	0xbf390010	-0.7226572
11	0x403d46d5	2.9574482
12	0x401c9460	2.446556
13	0x3f341f99	0.70360714
14	0x3ef1f02d	0.47253552
15	0x3f0909b4	0.5353043
16	0xc07a4db9	-3.9109938
17	0x3ea28226	0.3173992
18	0x3fa8def5	1.3193041
19	0x40890410	4.281746
20	0x402a6696	2.6625113
21	0x403dd17f	2.9659116
22	0xbe9a599a	-0.30146486
23	0xbfe045c2	-1.7521288
24	0xbfde731b	-1.7378877
25	0x3f3f70aa	0.74781287
26	0x3f17dece	0.5932435
27	0x3fce02c3	1.6094593
28	0x3f02ed35	0.511432
29	0xbed8a11b	-0.42310414
30	0x3fa025ed	1.2511574
31	0xbef43111	-0.47693685
32	0xbfa6aaec	-1.3020911
33	0x403e6db8	2.9754467
34	0x40032437	2.0490854
35	0xbfec94b0	-1.8482876
36	0xbf5afdb4	-0.8554337
37	0xbf42b662	-0.76059544
38	0x4050b903	3.2612922
39	0xbe63f12f	-0.22259973
40	0xc0242708	-2.5648823
41	0x400427be	2.0649257
42	0x3fa66f56	1.3002727
43	0xbf9b11af	-1.2114772
44	0xc01bac66	-2.4323974
45	0x3fceaeef	1.6147135
46	0x3ff4f96f	1.9138621
47	0xbf660eb8	-0.8986621
48	0xbef1e160	-0.4724226
49	0xbf2f9eac	-0.6860149
50	0xbebd6a9f	-0.36995408
51	0xbfa4648a	-1.2843182
52	0x3f67761b	0.9041459
53	0x3e985447	0.297518
54	0xbe21d2d9	-0.15803088
55	0x3f25f3ea	0.6482531
56	0xc04a4388	-3.1603718
57	0xbf6d28dd	-0.9264048
58	0x3f9322b8	1.149497
59	0x4002660e	2.037479
60	0xbe7ecb36	-0.24882206
61	0x403724d9	2.861624
62	0x4022865a	2.5394502
63	0xbf230ad8	-0.6368842
64	0x401af97c	2.4214773
65	0x3e754476	0.23951897
66	0xbfcf475c	-1.6193652
67	0x3fbc954f	1.4733065
68	0xbfe29e62	-1.7704585
69	0xc00e55cd	-2.2239869
70	0xbf65982a	-0.8968531
71	0xc00c22dd	-2.189628
72	0x401152ca	2.270678
73	0x3e60b778	0.21944988
74	0x3e99c590	0.3003354
75	0xbec3b30e	-0.38222545
76	0xc0767804	-3.8510752
77	0xbff2330d	-1.892183
78	0x3edc23ae	0.4299597
79	0xbeb2dd2e	-0.34934372
80	0x3f5dbdf1	0.8661795
81	0x3fc2a3c9	1.5206233
82	0xbf6d83f7	-0.9277949
83	0xbff635af	-1.9235133
84	0xbfc9e2f2	-1.5772383
85	0x3eef98de	0.46796316
86	0x3fb875fa	1.4411004
87	0x3ef51578	0.47867942
88	0x3fb5f5f3	1.4215683
89	0x3ebdc37e	0.3706321
90	0xbe80d83f	-0.25164983
91	0xc06339cb	-3.5504024
92	0xc027eff6	-2.624021
93	0x3f9f67d3	1.245356
94	0xbf0bd663	-0.54624003
95	0xbf9228e5	-1.141873
96	0xbfccfbb7	-1.6014317
97	0xbf455933	-0.7708923
98	0xbf8ff89e	-1.1247747
99	0xc05ae22f	-3.4200552
100	0x4019f639	2.4056532
101	0x402e99f2	2.728146
102	0x40048428	2.0705662
103	0x3fd0e90b	1.6321119
104	0x3f8d0b8e	1.1019151
105	0xbe847d35	-0.25876775
106	0x3fbbb6ed	1.46652
107	0xbda1067c	-0.07862565
108	0x3e3f5ed2	0.18688515
109	0xbdb87e5e	-0.09008478
110	0x3e9d17f6	0.30682343
111	0xbedda42d	-0.4328932
112	0xbfe6be58	-1.8026838
113	0xc0904874	-4.5088444
114	0xc0005f8e	-2.0058322
115	0xbff63aff	-1.9236754
116	0xc0671fbb	-3.6113117
117	0x3fc8a39b	1.5674928
118	0x3f9f7583	1.2457737
119	0xc02e3330	-2.7218742
120	0x3f182870	0.594367
121	0x3cf3fa7b	0.029782524
122	0x3f15199a	0.5824219
123	0x3f9340ac	1.1504111
124	0x3d84e3a2	0.0648873
125	0xbed40e96	-0.41417378
126	0xbf04bc50	-0.5184984
127	0xbcda32af	-0.026635496
128	0x3f30437b	0.6885297
129	0xc09165e6	-4.543689
130	0xbffbf08b	-1.9682783
131	0x404fda8b	3.2477138
132	0xbde60eab	-0.112332664
133	0xbf62503b	-0.8840367
134	0x3d84e2a5	0.064885415
135	0x409f578e	4.979438
136	0xbf437134	-0.7634461
137	0xc02c8e7d	-2.6961968
138	0xc072b2ae	-3.7921557
139	0xbf0503f8	-0.5195918
140	0xbf939d21	-1.1532327
141	0x3f5ec800	0.87023926
142	0x3db17906	0.086656615
143	0xbfcbe985	-1.593064
144	0xbe8a79d9	-0.27046087
145	0x3eba0fa5	0.3634006
146	0xbfa1e014	-1.2646508
147	0x3f14a235	0.5806001
148	0x3d0be109	0.034150157
149	0x3f7046f8	0.9385829
150	0x3f87cb6a	1.0608952
151	0xbfa72ffc	-1.3061519
152	0xbd99f235	-0.075169004
153	0xbf03e81d	-0.5152605
154	0xbf2fa6ac	-0.68613696
155	0xc00ae640	-2.1703033
156	0x3f0e88c1	0.5567742
157	0x3f06db95	0.52678806
158	0x3ed6a5bc	0.4192332
159	0xbfd11705	-1.633515
160	0x3e5ad5bc	0.21370596
161	0x3f2363b8	0.63824034
162	0x3f84fa80	1.0388947
163	0xc00f2da6	-2.2371612
164	0xc0082e4d	-2.127826
165	0xbf4749b1	-0.7784682
166	0xbe963fed	-0.29345647
167	0xc03cd104	-2.9502573
168	0xc00028ab	-2.0024822
169	0xbef672dc	-0.48134506
170	0x3f03af0f	0.51438993
171	0x3f901cdd	1.1258808
172	0xc01c965f	-2.446678
173	0xbf6e2d36	-0.93037736
174	0xbec8bdb5	-0.39207235
175	0x3fd8579e	1.6901739
176	0xc0787b4b	-3.8825252
177	0xbfd4e5ce	-1.6632631
178	0xc009100b	-2.1416042
179	0xc038eef4	-2.8895845
180	0xbed488e1	-0.4151068
181	0xc06ffb50	-3.749714
182	0xbfef784c	-1.8708587
183	0xbfe2c2bf	-1.7715682
184	0xbfd2ba32	-1.6463072
185	0xc02bd11d	-2.6846383
186	0xbfb06540	-1.3780899
187	0xbf84e66d	-1.038282
188	0xbd8fcfcf	-0.07022058
189	0xc01d4134	-2.4571047
190	0xbe739a2b	-0.23789279
191	0x3f644bf4	0.89178395
192	0xbee4d688	-0.44694924
193	0xc0861859	-4.190472
194	0xbf85f635	-1.0465761
195	0xbfbf8452	-1.4962256
196	0xbf83acf7	-1.028716
197	0xbff924a3	-1.9464306
198	0xc093dcd0	-4.6207047
199	0xc00f0be3	-2.2351005
200	0xbf89e4eb	-1.0772985
201	0x3f9ab365	1.2085997
202	0xc04a9de8	-3.1658878
203	0xbf87a23c	-1.0596385
204	0xbf8fd842	-1.1237872
205	0xbf9b87d3	-1.2150825
206	0xc01de10b	-2.4668605
207	0x3f7fbb19	0.99894863
208	0x3f5ea8d8	0.86976385
209	0x3fb3ce8b	1.4047407
210	0x3eec0297	0.46095726
211	0x3f6628e8	0.8990617
212	0xbe5620e7	-0.20910989
213	0x3fb2f86f	1.3982066
214	0xbe59ea66	-0.21280822
215	0x40591b2d	3.3922837
216	0x3ff078b5	1.8786837
217	0x40244b59	2.5670989
218	0x402eaf37	2.7294443
219	0x3f31a121	0.6938649
220	0x3fd7454c	1.6818023
221	0x3f567bfa	0.83782923
222	0x3f481659	0.781591
223	0x3ffb70f1	1.9643842
224	0x3fa223ae	1.2667139
225	0x3f197477	0.59943336
226	0x3fef8191	1.8711416
227	0x3f3f4dc0	0.7472801
228	0x3fa8c305	1.3184515
229	0x3ffcb561	1.9742852
230	0x3e8ccbf0	0.27499342
231	0x3f2f080e	0.68371665
232	0x3ff3689a	1.9016297
233	0x3fac99d2	1.3484442
234	0x3f4af434	0.79278874
235	0x404fb898	3.2456417
236	0x40050f73	2.079068
237	0x3f3b7241	0.7322121
238	0x3c40fdd5	0.011779268
239	0x40015310	2.0206947
240	0x3fbeb4ce	1.4898927
241	0x400ff3e4	2.249261
242	0xbfa2c0dd	-1.2715107
243	0xbcdb1911	-0.026745351
244	0x3f8fd262	1.1236079
245	0xbfebc470	-1.8419323
246	0x3c21107e	0.009830592
247	0x405143f0	3.2697716
248	0xbff5e0a1	-1.9209176
249	0xbfb9818f	-1.4492663
250	0xbfa2c708	-1.271699
251	0xc03a54be	-2.9114223
252	0xbe23c4df	-0.15993069
253	0xbffec664	-1.9904294
254	0xc0c2722b	-6.0764365
255	0xbe78774c	-0.24264258

fc1.bias f4 [32]
0	0xbb92aec5	-0.0044764006
1	0x3c7e96a2	0.015538843
2	0x3d7f79f9	0.06237218
3	0xbc297c24	-0.010344539
4	0xbc79844c	-0.015229296
5	0x3e12cc5d	0.14335771
6	0xbd1b955f	-0.03798425
7	0x3e028b85	0.12748535
8	0x3ce0341c	0.027368598
9	0x3c842bc2	0.016134147
10	0x3c221bd2	0.009894328
11	0x3a152c91	0.000569054
12	0xbc3cd7c6	-0.011526054
13	0x3cf634bf	0.030054448
14	0x3d82ec18	0.063926876
15	0xba9c61c7	-0.0011930995
16	0xbb9de927	-0.0048190537
17	0x3da1749f	0.07883572
18	0x3c82593b	0.015911689
19	0x3d2828d9	0.04105458
20	0x3d9d6226	0.07684736
21	0xbc34531d	-0.011006144
22	0xbb47e5bc	-0.0030501923
23	0xb9a96b76	-0.00032314257
24	0xb9458d10	-0.00018839934
25	0xbd239d11	-0.039944712
26	0x3d297568	0.041371733
27	0xbc3f9e7d	-0.011695501
28	0x3caad531	0.02085361
29	0x3d87b5e4	0.0662649
30	0x3d56d961	0.052453402
31	0x3d2b6ea4	0.041853562

batch_norm_fc1.weight f4 [32]
0	0x3f34fa5f	0.70694536
1	0x3f1c7ffe	0.611328
2	0x3f3bfb67	0.73430485
3	0x3f4c625d	0.7983759
4	0x3f3e2201	0.74270636
5	0x3f4fc233	0.811557
6	0x3efc5d49	0.4928992
7	0x3f7c4802	0.98547375
8	0x3f422a0c	0.7584541
9	0x3f5666b5	0.8375047
10	0x3f3f992e	0.7484311
11	0x3edbfb09	0.42964962
12	0x3f3c106e	0.7346257
13	0x3f571d3e	0.84028995
14	0x3f3e375e	0.74303234
15	0x3f37427e	0.71585834
16	0x3f2adbb5	0.66741496
17	0x3f267ae5	0.6503127
18	0x3f5b5df2	0.85690224
19	0x3f125eda	0.5717598
20	0x3f1d0eb3	0.61350554
21	0x3f1873cf	0.5955171
22	0x3f2c111d	0.6721361
23	0x3f5a69b3	0.85317534
24	0x3ede885e	0.43463415
25	0x3f4bbc3d	0.79584104
26	0x3f6c1071	0.9221259
27	0x3f447747	0.767445
28	0x3f5910f4	0.84791493
29	0x3f71a498	0.94391775
30	0x3f921dab	1.1415304
31	0x3f7d6663	0.98984355

batch_norm_fc1.bias f4 [32]
0	0x3c247155	0.010036786
1	0xbd71874f	-0.05896693
2	0xbe7f9894	-0.24960548
3	0xbeafd93d	-0.34345427
4	0xbe69884a	-0.22805896
5	0xbefb461e	-0.49076933
6	0x3ea5c52d	0.32376996
7	0xbee6a952	-0.45051056
8	0xbebe332f	-0.37148425
9	0x3dc4b20b	0.096042715
10	0xbe1083c4	-0.14112765
11	0x3e7f1f48	0.24914277
12	0xbd9503eb	-0.07276138
13	0xbdbee948	-0.093218386
14	0xbe6e9d13	-0.23302107
15	0xbdd2c293	-0.10291018
16	0xbdc06195	-0.09393612
17	0xbe19d710	-0.15023446
18	0xbecf7f94	-0.40527022
19	0x3de8e7f7	0.11372369
20	0x3e48f907	0.19626246
21	0x3e93fca4	0.28903687
22	0xbdce55dc	-0.1007497
23	0xbeb24ffc	-0.34826648
24	0x3e863290	0.2621045
25	0x3d279839	0.040916655
26	0xbf0ac834	-0.54211736
27	0xbe814c61	-0.25253585
28	0xbdc0d559	-0.09415693
29	0xbf3ddde2	-0.7416669
30	0xbeb38516	-0.35062474
31	0x3e1f8863	0.15579371

batch_norm_fc1.running_mean f4 [32]
0	0xc385fc45	-267.97086
1	0xc33679ca	-182.47574
2	0xc1baf2c1	-23.368532
3	0xc2808b15	-64.271645
4	0xc194cb26	-18.599194
5	0xc439ba8f	-742.915
6	0x424aab9d	50.66759
7	0xc30cf0aa	-140.9401
8	0xc3ba05e1	-372.04593
9	0xc387bfd9	-271.4988
10	0xc40b41f9	-557.0308
11	0x42ada530	86.82263
12	0xc33d4f8c	-189.31073
13	0xc3f11c29	-482.22
14	0xc388bd2b	-273.47787
15	0xc220a310	-40.15924
16	0x43778eaa	247.55728
17	0xc3a6c3b8	-333.52905
18	0xc33096f2	-176.58963
19	0xc430a2e3	-706.5451
20	0xc30b2848	-139.15735
21	0xc365fd9c	-229.99066
22	0xc30c4e8f	-140.30687
23	0xc2f06a67	-120.20782
24	0x43b12785	354.30875
25	0xc2cde1c8	-102.94098
26	0xc10d689e	-8.838041
27	0xc28e66cb	-71.20077
28	0xc3327653	-178.4622
29	0xc2855c12	-66.679825
30	0xc3b8584c	-368.68982
31	0xc38aa148	-277.26

batch_norm_fc1.running_var f4 [32]
0	0x4734cf84	46287.516
1	0x46962600	19219.0
2	0x46b1adda	22742.926
3	0x46e3a07d	29136.244
4	0x46c67ec3	25407.38
5	0x46b10fbd	22663.87
6	0x46b22bc9	22805.893
7	0x4666549a	14741.15
8	0x4687b2d3	17369.412
9	0x46d46c55	27190.166
10	0x46e6e004	29552.008
11	0x46d0ae76	26711.23
12	0x470059ed	32857.926
13	0x471bb42f	39860.184
14	0x46cbdaac	26093.336
15	0x46bf621d	24497.057
16	0x46ac95c3	22090.88
17	0x46a5cae0	21221.438
18	0x46e12f7a	28823.738
19	0x469a5387	19753.764
20	0x46d079f5	26684.979
21	0x4711c79b	37319.605
22	0x46b19cbe	22734.371
23	0x471ef57d	40693.49
24	0x46d2ba1b	26973.053
25	0x4711d3cf	37331.81
26	0x46b0c46c	22626.21
27	0x46d48016	27200.043
28	0x47272700	42791.0
29	0x4658e1b4	13880.426
30	0x4750e63f	53478.246
31	0x46dabc47	27998.139

fc2.weight f4 [10, 32]
0	0xbebb6321	-0.36599067
1	0xbeb6ad22	-0.35678965
2	0xbef821b5	-0.48463216
3	0x3fdecf9b	1.7407106
4	0x3ed17119	0.409066
5	0x3f185cc4	0.5951655
6	0x3f994fe1	1.1977502
7	0xbf31440b	-0.6924445
8	0xbf9dce05	-1.2328497
9	0x3da0d079	0.07852263
10	0xbff0d047	-1.8813561
11	0xbf4474c0	-0.76740646
12	0x3f822745	1.0168234
13	0xbf03c9b7	-0.5147967
14	0xbf8cb8b3	-1.0993866
15	0x3e758bfc	0.23979181
16	0x3fbe4fd1	1.4868108
17	0x3e70a319	0.23499717
18	0x3f453b84	0.7704394
19	0xbef5753e	-0.4794101
20	0xbd3d2e4a	-0.046186723
21	0xbf9c1e04	-1.219666
22	0xbfebd7b2	-1.84252
23	0x3f2c39eb	0.67275876
24	0x3ec3fa42	0.3827687
25	0x3f846cb6	1.0345676
26	0x3eeee899	0.46661833
27	0xbfaf0a59	-1.3675033
28	0x3e75644a	0.23964038
29	0xbf62fb67	-0.8866486
30	0x3ef6caa7	0.48201486
31	0x3ee21726	0.44158286
32	0xbe005125	-0.12530954
33	0xbfa9bae2	-1.3260157
34	0x3fbe73a0	1.4879036
35	0xbeca86e5	-0.3955604
36	0xbfeac021	-1.8339883
37	0xbfafc0a0	-1.373066
38	0x3f6c9180	0.92409515
39	0xbf02de3c	-0.5112035
40	0x3f44156c	0.7659519
41	0x3ffb717e	1.964401
42	0xc01bb424	-2.43287
43	0x3e99c80c	0.30035436
44	0xbf94f65b	-1.1637682
45	0x3e95cdbd	0.29258528
46	0x3f80c2a5	1.0059401
47	0x3f6409dd	0.8907755
48	0xbe3110bf	-0.17291544
49	0xc0159d75	-2.3377354
50	0x3f5cf5d7	0.8631262
51	0xbf710d01	-0.9416047
52	0xbf79004a	-0.97266066
53	0xc0067286	-2.10074
54	0xbf2b6100	-0.66944885
55	0xbef28898	-0.47369838
56	0x3f4d4636	0.8018526
57	0x3f0817f5	0.53161556
58	0xbeb0011d	-0.3437585
59	0xbfce7aef	-1.6131266
60	0xc01ad06e	-2.4189715
61	0x3ff53a9a	1.9158509
62	0x3f7d76b5	0.9900926
63	0xbf47944a	-0.77960646
64	0x3f44d6b3	0.76890105
65	0xbf2af037	-0.6677279
66	0xbf3f46aa	-0.747172
67	0xbeaf5b6f	-0.34249446
68	0x3f998dfb	1.1996454
69	0x3f54b20e	0.8308419
70	0xc0039aca	-2.0563226
71	0x3d9eb07b	0.07748505
72	0x3ecb2ec0	0.39684105
73	0xbf652ca6	-0.89521253
74	0xbe091fa2	-0.13390973
75	0xc00f9b4a	-2.243853
76	0x3f4bbc3c	0.795841
77	0xbe86af50	-0.26305628
78	0x3c690c15	0.014224072
79	0xbe949277	-0.29017994
80	0x3e0e1207	0.13874064
81	0xbd65724c	-0.056017205
82	0x3df9b2d7	0.12192314
83	0x3ec7d7d8	0.39031863
84	0xbf2448c5	-0.6417354
85	0x3e405e9e	0.18786094
86	0xbec4df8a	-0.38451797
87	0x3ebf4a5b	0.37361416
88	0x3f01b1ee	0.50662124
89	0x3e53ebbd	0.20695396
90	0xbf199a9d	-0.60001546
91	0x3f562ff4	0.8366692
92	0x3e815c31	0.2526565
93	0xbe7d91a5	-0.2476259
94	0x3de4c75d	0.11170838
95	0xbfb11668	-1.3834963
96	0xbf9c784f	-1.2224215
97	0x3ea61975	0.32441297
98	0xbf874e37	-1.0570744
99	0xbe3d73d8	-0.18501222
100	0xbe1cd5d3	-0.15315942
101	0xbee31738	-0.44353652
102	0xbef47142	-0.4774266
103	0xbf07c45e	-0.5303401
104	0x3e005b0f	0.12534736
105	0xbfa253cc	-1.2681823
106	0x3e3cff15	0.18456681
107	0xbe54b172	-0.20770815
108	0xbea824ce	-0.3284058
109	0x3f268f37	0.6506228
110	0xbefd885a	-0.4951809
111	0xbe2e57d8	-0.17025697
112	0x3dabc902	0.083879486
113	0xbeddd8a5	-0.4332935
114	0xbf72bebe	-0.948223
115	0x3f88e12f	1.069372
116	0x3fb734d7	1.4313
117	0x3e42ae83	0.19011883
118	0x3e0aec25	0.13566644
119	0xbf72b85b	-0.94812554
120	0x3f377f3b	0.71678513
121	0xbf3dc0c0	-0.7412224
122	0xbf184881	-0.5948563
123	0x3f0643ca	0.5244719
124	0x3f1d4aa7	0.61442035
125	0xbee0e5c7	-0.43925306
126	0xbfd4f1c8	-1.6636286
127	0xbf35f4e9	-0.7107683
128	0x3f7841cf	0.96975416
129	0xbeaaa500	-0.3332901
130	0xbf3f2305	-0.7466281
131	0x3ef9c51f	0.48783204
132	0x3f157c31	0.58392626
133	0x3edf5c3b	0.43625054
134	0xbd0d9552	-0.03456623
135	0x3d9e51a4	0.077304155
136	0xbf72cc44	-0.94842935
137	0x3df30bab	0.1186746
138	0x3f8e86a4	1.1134839
139	0x3e84af53	0.25915012
140	0x3f571ba6	0.84026563
141	0xbf47bdc9	-0.78023964
142	0xbf88cc55	-1.0687357
143	0xbf91b6de	-1.1383932
144	0xbf3d8fd3	-0.74047583
145	0x3efb54a8	0.49088025
146	0xbf7782f3	-0.9668419
147	0x3fa3ae8f	1.2787646
148	0xbfc54ff2	-1.5415022
149	0x3f215cb9	0.6303211
150	0xbf72a8a7	-0.94788593
151	0xbeccde95	-0.40013567
152	0xbffcd3a0	-1.9752083
153	0xbfda471c	-1.7052951
154	0xbbbf9f57	-0.005847852
155	0xbf096168	-0.53664255
156	0x3f9616ab	1.1725668
157	0xbef92efa	-0.48668653
158	0xbf9b3704	-1.2126164
159	0xbe76f691	-0.24117495
160	0xbebf5cac	-0.3737539
161	0x3fdce5f1	1.7257673
162	0xbf505104	-0.8137362
163	0xbea1b86b	-0.31586012
164	0xbf17b4d0	-0.5926027
165	0xbf44f5ca	-0.76937544
166	0xbf1ea596	-0.61971414
167	0xbf1ec8a3	-0.620249
168	0x3f40e0d4	0.7534306
169	0xbfb8e874	-1.4445939
170	0xbe582740	-0.21108723
171	0x3f4f2f08	0.8093114
172	0xbee39333	-0.44448242
173	0xbef2553a	-0.47330648
174	0xbf2cabd5	-0.67449695
175	0xbf43adb8	-0.7643695
176	0x3cf3f019	0.029777573
177	0xbec90a06	-0.3926546
178	0xbfd27111	-1.6440755
179	0xbee65870	-0.44989347
180	0x3fa39fb3	1.2783111
181	0x3e9c8753	0.30571994
182	0x3de4ae98	0.111661136
183	0xbfac1b9c	-1.3445926
184	0x3f554082	0.83301556
185	0xbfa92a91	-1.3216115
186	0xbea1ad44	-0.31577504
187	0x3fbe3e15	1.4862696
188	0x3ea6bce2	0.3256598
189	0xbeff320a	-0.49842864
190	0xc00d7e2f	-2.2108266
191	0xbf960948	-1.1721582
192	0x3f368195	0.71291476
193	0xbe0508e1	-0.12991668
194	0xbf0291d0	-0.5100374
195	0x3f557685	0.8338397
196	0xbd5aaf66	-0.05338993
197	0x3f88b89d	1.068134
198	0xbfd7059e	-1.6798589
199	0xbf2ec2dc	-0.6826608
200	0x3ee8b970	0.45453978
201	0xbfd65a93	-1.6746391
202	0x3f433e89	0.76267296
203	0x3f604a8f	0.8761377
204	0xbe1b8b96	-0.15189967
205	0x3fd45e66	1.6591308
206	0x3e9c7bc4	0.30563176
207	0x3ff7abc5	1.9349295
208	0xbf169d8c	-0.5883415
209	0x3dfbd804	0.12297061
210	0x3ecff518	0.4061668
211	0xbd0b2ccd	-0.033978272
212	0xbe7f3ea2	-0.24926236
213	0x3ed44d60	0.41465282
214	0x3f621b59	0.8832298
215	0xbeeb7a70	-0.4599185
216	0xbf431240	-0.7619972
217	0x3f3ff6a6	0.7498573
218	0xbf8f9517	-1.1217374
219	0xbec67614	-0.3876196
220	0x3eb9a879	0.36261347
221	0xbe367eb7	-0.17821775
222	0xbdfaa3d7	-0.12238281
223	0xc019711f	-2.3975294
224	0x3f16ff23	0.5898306
225	0x3dc4cb2c	0.096090645
226	0xbfbfa4cb	-1.4972166
227	0xbf7f8419	-0.9981094
228	0xbf6155b2	-0.88021386
229	0xbf78e181	-0.9721909
230	0x3f3afaed	0.7303913
231	0x3feeebe3	1.8665737
232	0xbfc40295	-1.5313288
233	0xbfe5f37f	-1.7964934
234	0xbe293245	-0.16523083
235	0x3e6660b7	0.22497831
236	0xbf67b50e	-0.9051064
237	0xbfcf1e01	-1.6181031
238	0xbfadc75a	-1.3576462
239	0xbfaf2aa7	-1.3684891
240	0xbec2c7e1	-0.3804312
241	0xbe88cba8	-0.26717877
242	0xbfbfe1c7	-1.4990777
243	0xbed96df1	-0.4246669
244	0xbf79cb61	-0.97575957
245	0x3fceedcf	1.6166323
246	0xbebb3548	-0.36564088
247	0xbef225f5	-0.47294584
248	0x3eaf6316	0.34255284
249	0xbfd9b0e7	-1.7007111
250	0x3fb3b3fe	1.4039304
251	0xbf224636	-0.63388383
252	0x3efcda4e	0.49385303
253	0xbee0fe1b	-0.43943867
254	0xbfcf4ddd	-1.6195637
255	0x3f7db98e	0.9911126

fc2.bias f4 [10]
0	0xbfa4ff2a	-1.289037
1	0xbf2d9150	-0.67799854
2	0x3f36adde	0.7135905
3	0x3eccba68	0.39985967
4	0x3f18083c	0.59387565
5	0x3ef7f522	0.4842921
6	0xbfc23bd6	-1.517451
7	0x3f1b92f5	0.60771114
8	0xbf33683e	-0.70080936
9	0x3fe3edbe	1.7806928
