CIFAR-sin-da/epoch60-latest-ResNet18.pt (torch, 145696 bytes, 20 tensors)

conv1.weight f4 [8, 3, 3, 3]
00000000: d1a8 ccbe 9ef5 da3f aef3 d03f 6c8d 30c0
00000010: 8970 8a3f 08e5 bf3f 5f1c ebbf 2f1e 923f
00000020: ec23 cf3e 32d6 65c0 7e75 e7bc 003c 573f
00000030: e5f2 9cc0 5543 4c3f ef59 c33f 6731 63c0
00000040: b58d 803f 04fe 523f 75b8 0cc0 c39f 013f
00000050: 195a 1a3f 5ef8 16c0 3edd 0340 dcbc c93f
00000060: b95a 10c0 71b1 f13f a84a b23f cb16 c03f
00000070: afe5 7740 de26 0340 2c92 f13f 1999 7740
00000080: 78de 4e40 8717 0fc0 4ff9 04c0 6ec9 0ec0
00000090: fc07 973f d37d 743f dd92 7cbe 8c62 8ebf
000000a0: 5143 cabf 6091 3dbf 5a07 dcbf 545a 8bc0
000000b0: b51d 49c0 eeae af3f 4b52 6a3f 99f2 4a3f
000000c0: 025b bdbc a401 b0be 1f30 3f3f 3952 bebe
000000d0: 9166 d0bf faf2 833e 72d4 6cc0 f4bd 6dc0
000000e0: 6944 223f a188 803f fec3 99bf 1214 7bbf
000000f0: fb27 2240 83a9 6b40 4923 633f c0fe 51c0
00000100: ad13 6cc0 9218 22bf 249f 3f3f 47ff e8bf
00000110: e45e 15c0 a47a 5d3f 834d f93f 2b0b 69bf
00000120: f1db f6be d6e1 81bf c2ba 413f 47cb 1e40
00000130: 4eb9 43bf 2b84 57bf 4f5f 2340 5147 2840
00000140: aec1 f2bd 3fcd 9d3f 4915 05c0 d128 5abe
00000150: 0c58 0bc0 4641 96c0 7d73 14c0 3918 fdbe
00000160: bd19 2bc0 14cc 7bbf be84 20bf 9366 033f
00000170: 303d 213d 28d1 86be 8667 683f 577e 733f
00000180: ae92 c6be 89e0 9ebe 2b0e 13bf a006 f9be
00000190: 2a07 2940 f2b6 3dbf 041b 1a40 7c68 a240
000001a0: 06c4 1b40 3694 d73f 7fae 4140 2d0e 923e
000001b0: 82bc 86bf 620a 89c0 4a4e ed3d be32 0240
000001c0: 65fa 96bf c94f 0b40 272a 473f a055 b1bf
000001d0: d269 073f b591 7b3f 4318 58c0 d8e1 343f
000001e0: 7a5c 5840 7c52 9a3d 2d92 6440 ae89 f1be
000001f0: f172 f9bf c398 713e 2d10 ba3f d687 20c0
00000200: 7ce3 8b3e 3f3d 0940 64a7 ddbe de78 fd3f
00000210: be5b 46bf 8d9d 10c0 474c 43bf 4cd1 65be
00000220: c6ce bcbf 3d2c 2540 8bc9 213f 8236 d93f
00000230: ed99 10be 54a2 46c0 a404 19be 413f 19bf
00000240: 4971 473c 4bec 3bc0 6293 f83d 117e 0f40
00000250: 17a0 2640 cdf2 08c0 6ea8 ecbf e676 db3f
00000260: d898 94be a787 f8bf 67b7 7bc0 498e 42bf
00000270: d06e 4440 ebee 8a40 3937 1abf e1ef 83bf
00000280: 217f 7c40 1de0 0440 314c e5be f968 2040
00000290: c720 bdbf 0946 d1be 2720 5b40 2f45 42c0
000002a0: cfa0 003d c7f0 9c3f 20e9 b5bf 439a 5dbe
000002b0: be3d 0b40 db7e 11c0 4eb3 283e 6746 4d40
000002c0: e1f5 6ac0 f936 a43e 1bd2 af3f daa8 90bf
000002d0: 20ca a23f 0cc6 fa3f 5964 10c0 eb93 973f
000002e0: a68f 4840 3a17 5cc0 0a27 823e 8d7f bd3f
000002f0: 8d2d b5bf c4b3 3840 3bd1 18c0 bebf 84bf
00000300: e37e 67c0 95c0 f0be 203c 0840 1bfe 05bf
00000310: 3521 d23f 8fec 5cbe 11cb 8240 dfd5 ddbf
00000320: 2666 83bf a5ba f5bf 29fb 0c3f 9dec 0e40
00000330: 6ea3 d5be 98ae c63f 3067 77bf fd67 5440
00000340: b89f dfbf 2212 9dbf 17cd 54c0 a78b c2be
00000350: c7f8 c63f 803e 6fbf ebf3 ee3f e194 0ebe
-0.39972547 1.7106206 1.6324365 -2.7586317 1.0815593 1.499177 -1.8368033 1.1415461
0.40457094 -3.5911984 -0.028254267 0.8407593 -4.90465 0.7979024 1.526182 -3.5498903
1.0043246 0.8241885 -2.1987584 0.506344 0.6029373 -2.3589091 2.0603786 1.576076
-2.2555373 1.8882276 1.3929033 1.5006956 3.8733938 2.0492473 1.8872733 3.8687193
3.2323284 -2.235811 -2.0777166 -2.2310443 1.1799312 0.9550449 -0.24665399 -1.1123824
-1.5801793 -0.7404995 -1.7189744 -4.3547764 -3.1424382 1.3725259 0.9153182 0.79276425
-0.023114685 -0.34376252 0.746828 -0.37172106 -1.6281301 0.25771314 -3.7004666 -3.7147188
0.63385636 1.0041696 -1.2012937 -0.980775 2.5336902 3.6822212 0.88725716 -3.2811737
-3.688701 -0.6331874 0.74852204 -1.8202904 -2.3339167 0.8651526 1.947678 -0.91032666
-0.48214677 -1.0147045 0.75675595 2.481157 -0.7645463 -0.8418605 2.5526922 2.6293528
-0.11853348 1.2328261 -2.0794241 -0.21304633 -2.177249 -4.695468 -2.3195488 -0.49432543
-2.673446 -0.98358274 -0.6270255 0.5132839 0.039364994 -0.2633145 0.90782964 0.95114654
-0.38783783 -0.31030682 -0.57443494 -0.48637867 2.6410623 -0.7410728 2.407899 5.0752544
2.4338393 1.6842105 3.0262754 0.2852644 -1.0526278 -4.2825174 0.11587198 2.034347
-1.1795164 2.1767447 0.77798694 -1.3854256 0.52895844 0.98269206 -3.3764808 0.7065711
3.3806443 0.07535264 3.5714219 -0.47175354 -1.9488202 0.2359343 1.4536186 -2.5082908
0.27321994 2.1443632 -0.4329177 1.9802511 -0.7748374 -2.2596161 -0.76288265 -0.22443122
-1.4750602 2.580825 0.63198155 1.696976 -0.14121218 -3.1036577 -0.14943177 -0.5986214
0.012173005 -2.9362972 0.12137486 2.2420695 2.603521 -2.1398194 -1.8488901 1.714566
-0.2902286 -1.9416398 -3.933069 -0.7599836 3.0692635 4.341665 -0.60240513 -1.030758
3.9452593 2.0761788 -0.44784692 2.506407 -1.4775628 -0.40873745 3.4238374 -3.0354726
0.03140336 1.226098 -1.4211769 -0.21640877 2.1756434 -2.2733676 0.1647465 3.207422
-3.6712573 0.3207319 1.3735994 -1.130153 1.2717934 1.9591689 -2.2561247 1.1842016
3.1337676 -3.4389176 0.2542041 1.480455 -1.4154526 2.885972 -2.3877704 -1.0371015
-3.6171196 -0.47021928 2.1286697 -0.5234086 1.6416384 -0.21574615 4.0872884 -1.7330893
-1.0265548 -1.9197584 0.5507074 2.2331917 -0.4172625 1.5522032 -0.96641827 3.318847
-1.7470617 -1.2271159 -3.3250177 -0.3799717 1.5544671 -0.9345474 1.8668188 -0.1392398

conv1.bias f4 [8]
00000000: ddb3 173f 18f1 fbbe af10 2bc0 a229 ad3e
00000010: dcfa 62c0 559f 89bf 11cd e33d 0056 bfbf
0.59258825 -0.49207377 -2.6728933 0.33820826 -3.5465612 -1.0751749 0.11123098 -1.494812

batch_norm_conv1.weight f4 [8]
00000000: 45ab 8940 9a3b 3a40 4931 3740 e86b 0a40
00000010: 7756 1a40 e193 1440 93f6 2340 ef5d 2a40
4.302157 2.9098878 2.8623831 2.162836 2.4115274 2.3215258 2.5619247 2.6619833

batch_norm_conv1.bias f4 [8]
00000000: ec18 a73f d583 353f c2ef 603f 319b 9d3f
00000010: 0d1f a1bd 4e49 b8bf 6f68 143f b38c df3b
1.305448 0.70904285 0.8786584 1.2312986 -0.078672506 -1.4397371 0.57971853 0.0068221926

batch_norm_conv1.running_mean f4 [8]
00000000: 1caf 313f 01fe aebe 6030 37c0 3b54 b6bf
00000010: 90d9 61c0 1896 dcbf 7668 2dbe 6f24 b5bf
0.6940782 -0.34178165 -2.8623276 -1.4244455 -3.528904 -1.7233305 -0.1693438 -1.4151744

batch_norm_conv1.running_var f4 [8]
00000000: 7b7b c341 29b2 bd41 1520 e141 834e d441
00000010: 28b5 cc40 a6ce 3241 9b60 8341 b212 3940
24.435293 23.711992 28.140665 26.538336 6.397114 11.175451 16.42217 2.891766

conv2.weight f4 [16, 8, 3, 3]
00000000: 33bd 273f e23e 0640 365f a73e ee8e e03f
00000010: 5409 323f 88fb a9bf 2a9e 0d40 1116 18bf
00000020: 863f 07c0 5d73 5c40 fc31 e1bf 21f1 d9bf
00000030: e9f1 f4bb 1e03 8abf 3926 92bf 8392 cbbf
00000040: 8834 98be 59bb 1cc0 2ef7 493f 0285 66bf
00000050: 64ac 9e3e 668c 8fc0 4270 b1bf 7fa6 1440
00000060: bc8e 0ac0 b151 6cc0 4e8c 2440 53ea d6c0
00000070: 2980 5bbe f7b7 9040 3b84 a1c0 c586 123f
00000080: d6a7 9b40 c9cb 15bf d3f5 123d d980 0440
00000090: 0cb2 4fbd c596 b33e 65cd c3bf 5999 46c0
000000a0: ebc6 10be df59 f13f eab4 41c0 78d0 2ac0
000000b0: 81be 65bf 42a7 75bf 5b41 0ac0 f008 753f
000000c0: 2e7d 18c0 8707 3abf eb2b 303f 6a6e 8dc0
000000d0: ed4f 87c0 2abb 38c0 4772 36c0 a968 b2be
000000e0: 88b3 3a3e 1154 ebbf ac1c 363f 16fb 8e3f
000000f0: 6b7e 233f dfe4 993f a5d4 7f3f c85e 423f
00000100: bcfa 2240 2e82 c43e cf89 ccbe 9742 91bf
00000110: d6be 01c0 b827 fabe d8ed 2bc0 1a07 d6bf
00000120: b3d4 e23e 1412 43bf fcad 3bc0 005c 73c0
00000130: 0e56 053f 38dc b33d 87ef 2640 1523 45c0
00000140: 8a32 103d b45f 90be de15 1240 25d5 2cc0
00000150: 6a46 96c0 a17e 9cbd 854c 0640 7b3d 9d3f
00000160: bc20 1f3e a8f3 1ec0 6e61 6cbf 2421 46bf
00000170: aa57 d6bf 7241 853f e61c fb3e 7f15 e1bf
00000180: 8cb3 15c0 4f96 763d 49b6 d23e 2014 85c0
00000190: dd0f a9c0 2b06 89bf 79be 003f 9dec ccc0
000001a0: 6608 93be 4c03 2640 280c 0dc0 59dd e2bf
000001b0: fef7 1d40 5c82 60bf 488e 383e 62b0 e53f
000001c0: d39b 2abf bf14 b3bf ab21 0fc0 8664 6040
000001d0: 1577 5e3f 0dc0 1ec0 0114 473f 3aa4 a2bf
000001e0: e873 52bf 258b 5dbf 2f43 65c0 505c 2240
000001f0: 0ca2 523f 6f0e 2840 17dd a2be f800 b1bf
00000200: 8862 a4bf 133f 7840 e005 a3bf 42b1 49bf
00000210: 12ce 62c0 6d22 c3bd 40f4 9e3f 8aa3 a03f
00000220: 6d4a 5140 e91b 56bf 58d6 153e 8214 e23f
00000230: 07ce 8940 fb12 54bf bea3 8b3f 09cf 7fbf
00000240: ddff 063f 01da c0bd 7659 96be b65f 0bc0
00000250: 1d74 f83e ba4c d93f 21ed 12bf 0aa3 10c0
00000260: fbab 5dc0 aee6 13bf 61c2 f03f 99e6 ba40
00000270: 0dde 6b40 2f3b 353f e1bd 8cc0 b71b 873f
00000280: ab24 7540 e8bf 2740 3599 373f 7cd7 1cc0
00000290: 6448 31bf dc90 74bf eaaf f33f 844b b63f
000002a0: 9c40 3d3f 6b6f 1140 34a1 4c3f ef95 61be
000002b0: fba4 443f 9d63 b9be 93f9 f4bf 44bf 60c0
000002c0: 9e66 16c0 5ccb d63f 1ca6 1540 8429 3440
000002d0: 1d9f 1c40 2448 3040 4de4 c6be b48a b23e
000002e0: 43ce 8c3f d380 0240 bf8a 66bf aad5 b7bf
000002f0: 69a2 ab3e 88cc 3f3f ff6f 4940 25e0 1a3f
00000300: 822b 0dc0 0657 91be 2f59 e53f ce71 923f
00000310: 3a3f dabd b6a5 13bf 9fa7 2fbf 7bec c63f
00000320: d46c 1a40 503d 2fbf eeeb 94bf 7950 72c0
00000330: 3485 79c0 dadf 9ac0 2480 c2bf 4a98 383f
00000340: e49c bfbf f314 a73f d291 be3f 3a8d 843f
00000350: 63cb 5140 ac4d 9fbf 3850 fabf 3dad cd3d
00000360: c92d 0640 bd91 ad3f 46e3 ffbf 4f13 23c0
00000370: 44e2 22c0 108b 32c0 34a1 b7bf 3344 48bf
00000380: 4bea 50bf f62e afc0 87e7 703f 51ea 2040
00000390: 8a57 e1bf d4f1 2640 0fdf 2440 6087 043f
000003a0: aa11 f53f b450 25c0 1204 533f 568d 993f
000003b0: b635 96bf 6fb7 0c3f acca 02c0 f71a f73f
000003c0: cb98 53c0 08f9 14bf 38df bc3f 9cd4 5c3f
000003d0: ed6d 0dbe 1247 1cbf 6c82 1d40 348f 64bf
000003e0: a7d9 74c0 2e3d d23f 51f8 f8bf 299f 47c0
000003f0: d0ca 4dc0 9e60 4ec0 3912 3dbf 30a3 cebf
0.6552307 2.097588 0.32689828 1.7543619 0.69545484 -1.3279886 2.2127786 -0.5940867
-2.1132522 3.4445412 -1.7593379 -1.7026712 -0.007475127 -1.0782201 -1.1417915 -1.5904087
-0.29727578 -2.4489348 0.7889279 -0.90046704 0.309909 -4.4858885 -1.3862383 2.322662
-2.1649618 -3.692486 2.5710635 -6.716104 -0.21435608 4.5224566 -5.0473914 0.5723689
4.864238 -0.58514076 0.035878967 2.0703642 -0.050706908 0.35075966 -1.5297056 -3.1031096
-0.14138381 1.8855551 -3.026667 -2.668974 -0.8974381 -0.9595834 -2.160239 0.9571676
-2.3826404 -0.72667736 0.68817014 -4.4197283 -4.2285066 -2.8864236 -2.850725 -0.34845474
0.18232548 -1.838503 0.711375 1.1170375 0.63864774 1.2022971 0.99933845 0.75925875
2.5465536 0.3838057 -0.3994889 -1.1348447 -2.0272727 -0.48858428 -2.6863918 -1.6720917
0.44302902 -0.7619946 -2.9324942 -3.8024902 0.52084434 0.08782238 2.6083696 -3.0802662
0.035204448 -0.28198016 2.2825847 -2.7005093 -4.6960955 -0.0764134 2.0984204 1.2284387
0.15539831 -2.4836216 -0.92336166 -0.7739432 -1.6745503 1.0410597 0.49045485 -1.7584685
-2.3390837 0.06020194 0.41154698 -4.1587067 -5.2831864 -1.0705007 0.5029064 -6.4038835
-0.28717345 2.5939512 -2.203867 -1.77238 2.4682612 -0.8769891 0.18023026 1.7944453
-0.6664402 -1.3990706 -2.23643 3.5061355 0.86900455 -2.4804718 0.777649 -1.2706368
-0.8220811 -0.8654044 -3.5822256 2.5368843 0.82278514 2.625881 -0.31809303 -1.3828421
-1.2842569 3.8788497 -1.2736168 -0.787861 -3.5438275 -0.095280506 1.2418289 1.2549908
3.2701676 -0.8363634 0.14632547 1.7662508 4.3064 -0.8284146 1.0909345 -0.99925286
0.52734166 -0.09416581 -0.29365128 -2.1777167 0.48526087 1.697654 -0.5739308 -2.259951
-3.4636219 -0.57773864 1.880932 5.840649 3.685428 0.7079343 -4.3981786 1.0555333
3.830363 2.621088 0.7171815 -2.4506521 -0.69251084 -0.9553354 1.903806 1.4241796
0.7392671 2.2724254 0.79933476 -0.22029851 0.7681424 -0.3620881 -1.9138664 -3.511674
-2.3500133 1.678081 2.3382635 2.815034 2.4472115 2.754403 -0.38846055 0.34871447
1.1000446 2.0391128 -0.9005546 -1.436208 0.33522347 0.74921465 3.1474607 0.6049827
-2.2057805 -0.28386706 1.7917842 1.144098 -0.10656591 -0.5767473 -0.68615144 1.5540918
2.4128923 -0.6845293 -1.16345 -3.7861617 -3.898755 -4.8398256 -1.5195355 0.72107375
-1.4969754 1.3053268 1.4888251 1.0355599 3.2780387 -1.2445579 -1.9555731 0.10042808
2.0965445 1.3560101 -1.9991233 -2.5480535 -2.5450602 -2.7897377 -1.434607 -0.78229064
-0.816075 -5.4744825 0.9410328 2.5143015 -1.760484 2.60851 2.5761144 0.51769066
1.9146016 -2.5830507 0.82428086 1.1996257 -1.1735141 0.549674 -2.04362 1.9305104
-3.3062007 -0.5819249 1.4755621 0.86261916 -0.13811465 -0.61045945 2.4610853 -0.8928101
-3.8257844 1.642492 -1.945078 -3.1190894 -3.2155037 -3.224647 -0.7385593 -1.6143551

conv2.bias f4 [16]
00000000: cbf5 803d dcfb 053e 3ae6 a2bd eafc 12be
00000010: 1f12 bf3e 69f4 84bc cd09 01bf fae3 53be
00000020: 2549 3e3e d294 05be 7142 973e 613c d93d
00000030: be7b 48be 243d 5ebe a8d1 79be 3b14 aabd
0.06296881 0.13084358 -0.079540685 -0.14354292 0.37318513 -0.016229825 -0.5040558 -0.20692435
0.1858259 -0.13045052 0.29542878 0.106072195 -0.19578454 -0.21703011 -0.24396384 -0.0830464

batch_norm_conv2.weight f4 [16]
00000000: ca4f 4140 3ac8 0a40 e43a bf3f 0249 3040
00000010: 9d6b ee3f 7879 9140 504a 1d40 3460 0f40
00000020: ebb9 4a40 9f6e 3540 7429 5e40 6166 3040
00000030: 58f7 f33f 4430 2740 ef96 c33f 82cd fc3f
3.020495 2.1684709 1.4939847 2.754456 1.8626591 4.5460777 2.4576607 2.2402468
3.1675975 2.8348768 3.47128 2.7562487 1.9059858 2.612321 1.5280436 1.9750216

batch_norm_conv2.bias f4 [16]
00000000: 841e 0bc0 653d 11bf 7103 86bd 8bd7 f9bf
00000010: 2f32 09bf 7c17 60c0 31b2 8abf 99a2 afbf
00000020: dbcc 12c0 d4cb 07c0 4281 bfbf e6ad 2ac0
00000030: 77d4 39bf 8211 dcbf b8a0 fd3e e3ed 0bbf
-2.1737375 -0.56734306 -0.06543625 -1.9518903 -0.535922 -3.5014334 -1.083563 -1.3721496
-2.2937534 -2.1218157 -1.4961321 -2.666864 -0.7258982 -1.7192843 0.4953668 -0.5465986

batch_norm_conv2.running_mean f4 [16]
00000000: 292e 4cc2 6aa5 6ec2 c0f9 5241 1a3a 82c2
00000010: d10c 0cc2 36a7 aec2 a973 31c2 114d 42c1
00000020: d828 75c2 3682 8340 9e81 cbc2 f575 fcc1
00000030: 98c2 dbc1 5a28 33c2 3a45 18c1 86ae af40
-51.04508 -59.661537 13.185974 -65.11348 -35.012516 -87.326584 -44.36295 -12.143815
-61.289886 4.109645 -101.75316 -31.557596 -27.470016 -44.789406 -9.516901 5.490054

batch_norm_conv2.running_var f4 [16]
00000000: f7fb 1345 e241 ec44 c0fc b044 b753 4c45
00000010: f084 1c45 c1f8 6445 fc44 df44 fcca c644
00000020: c182 4245 5f2c 5c45 8bd4 6945 f5fe 1045
00000030: aa06 c344 1582 0745 1b8f 0d45 945a c244
2367.7478 1890.0588 1415.8984 3269.2322 2504.3086 3663.547 1786.1558 1590.3433
3112.172 3522.7732 3741.284 2319.9348 1560.2083 2168.1301 2264.944 1554.8306

fc1.weight f4 [32, 1024]
00000000: 2d01 a33e a994 f63f bdd6 6d3f 1734 b33f
00000010: 3ed2 183f 1a8f a13f 9f89 28c0 0b90 8ebf
00000020: 18be d6be 30ae 57bf faae a4bf ff5a 8b3e
00000030: 597d 9540 8e7d 1cc0 f5c3 413f 8d4e c13f
00000040: 90ea 2240 cd3c adbf 2904 0740 cc4d edbf
00000050: 0a5a 0740 601a 7b3f 34eb 903f 1d1a 4cc0
00000060: 357f 24c0 6328 1dc0 189a ee3e 63d2 9b3e
00000070: fac4 643f 0d17 0f40 378b 313f 3b03 293f
00000080: 8e47 533f 351a 253e b2ee 05bf 66d3 31c0
00000090: 90d4 9b3c 919a 1240 b0d5 553f 9991 823f
000000a0: 34c0 2a3f 359c d93f 5d3d bd3f bb56 89bf
000000b0: 5937 0fc0 1530 e5bf 4bb3 d43f 461b 1f40
000000c0: e86e afbf 0546 0dc0 fd65 19c0 d07a 3fc0
000000d0: 9222 643f a565 d6bf afca 513f cdca 87c0
000000e0: 6e32 933f 61d8 ab3f 9204 46be f066 9c3f
000000f0: 8d32 9f3f 1ac1 b53f bdfa fb3f 20f6 18c0
00000100: 5b8b 06c0 c489 93bf c737 08c0 3e3c 0240
00000110: d12a 9b40 994f 41c0 ea95 b5bf dec8 033f
00000120: ab23 fb3f 493d 933d 5f43 6240 922f c2bf
00000130: 1cab 7bbf 9fa9 723f 4a64 23c0 c837 943f
00000140: b8fd d5bf 64c2 393f c128 81be c10c 1a40
00000150: da7d 1340 f04f 203e eb51 95bf 6526 b2bf
00000160: 7710 b83f 174c 2fbf 9b3f 873f 984b 4240
00000170: d783 9f3f 70d2 debd fdac 93be fb43 e3bf
00000180: c857 63be 273b 5f3f 6e19 823f 6ee0 29c0
00000190: ee37 1840 3e85 8e40 987d a53f 075e a83f
000001a0: 1e8b cfbf 504b 93bf caa2 2c40 8db4 11bf
000001b0: a93f a03f 09fa d2bf 0aaf a3be 60af 4ac0
000001c0: 4760 9ebd 33ef e2bf 66bb 5b3f 9ca2 debf
000001d0: d837 7940 15a0 df3e 5810 7fc0 2256 11bf
000001e0: 5ef5 283f 8674 53be 231f 9b3f 7858 5b40
000001f0: f3fd ac3e 88a6 c4bf 2875 9e3f f93f 4e40
00000200: 644f 0540 007f fb3f c06e 29c0 39bc a7bf
00000210: 31fa 073f e75f 1540 7002 363f 5e2c 41be
00000220: 49f2 5440 2a96 8fc0 4448 94bf 8c6a 20c0
00000230: 4373 9cc0 701c 523f 1843 0440 ecc1 3cc0
00000240: 8c21 6c40 3f49 3ac0 ff51 90c0 2adf 79c0
00000250: 5425 9dbf f8e5 98bf ebd6 3c40 12e3 37c0
00000260: d08a 1640 5a1a 98be 0734 ffbf 2635 29c0
00000270: 1a7a a9bf 686f bfbf 3051 1ac0 72ef a03f
00000280: 9cd5 11c0 1f3a c03e ad4d 4340 151e 543f
00000290: 623d f1be 744f 0bbf 7eba 6e3e b454 6b40
000002a0: 0ee9 5f40 2fd3 3040 1af5 823f eeef 2b3f
000002b0: 0f65 2f40 e6cc e23d e8c3 7140 edd1 d0c0
000002c0: 6b5d 16c0 bf87 2040 d62f 1e40 39f8 553f
000002d0: 4c30 0540 a206 433f 8775 0940 3fae 913f
000002e0: 40a3 9a3f 8aec b13e bdc1 46c0 9180 cf3e
000002f0: ec79 e83f 77bf 98be 9b40 03c0 dc73 e4bf
00000300: 085f 6040 ee6f 1bbf bbc7 83c0 0379 00c0
00000310: e388 77bf dcc5 7040 122a a83f a2c6 48c0
00000320: 9f37 4ac0 7aee 473e 78ba 77bf 0d68 c7be
00000330: 13ac 17c0 7326 a2bf 778b de3f 8015 44bf
00000340: e092 be3e 6bbc 42c0 e0bc 593f 66fc e0bf
00000350: 2eeb 79be f843 f63f 26b2 5240 975e ad3e
00000360: ab34 f23f 4453 be3f 9b1c da3e d1e8 883f
00000370: af32 383e 9331 533f 3272 c23e 535e 2bbf
00000380: abe1 8f3f 4b1e 91bf 13d9 6140 fdda c0be
00000390: 06ab 1840 73f7 3140 4410 7f3f 168a f63e
000003a0: 76cc 81bf ad25 d13f 6502 d93f 3b88 cb3e
000003b0: 46e5 b2bf a59e 72bf cc5f e93f 9e46 a5bf
000003c0: 1282 83c0 e544 913d 8846 cabf 960c 5cbf
000003d0: 215e 18bf affb 8dc0 e9c3 7140 f33b cfbf
000003e0: 4413 0040 a346 e1bf 2d0f 36bf 6e17 5d3c
000003f0: e41e acc0 d632 0a40 6865 7fbf 995d 26c0
0.31836835 1.9264117 0.9290579 1.4000272 0.59695804 1.2621796 -2.6333997 -1.1137708
-0.41941905 -0.84250164 -1.2865899 0.27217862 4.671551 -2.4451632 0.7568963 1.5102097
2.5455666 -1.353418 2.109629 -1.8539367 2.1148705 0.9808712 1.1321778 -3.1890938
-2.570264 -2.45559 0.4660194 0.3043395 0.8936306 2.235782 0.6935305 0.66020554
0.8253106 0.16123278 -0.52317345 -2.7785277 0.019022256 2.290684 0.83529186 1.0200683
0.6669953 1.7000796 1.4784352 -1.0729593 -2.2377532 -1.7905298 1.6617216 2.4860396
-1.3705721 -2.2073987 -2.3968499 -2.9918709 0.8911525 -1.674977 0.81949896 -4.243506
1.1499765 1.3425409 -0.19337681 1.2218914 1.2437302 1.4199555 1.9685894 -2.3900223
-2.1022556 -1.1526418 -2.1284044 2.034927 4.8489766 -3.0204833 -1.4186375 0.51478374
1.962026 0.071894236 3.535362 -1.5170767 -0.9830797 0.9479007 -2.5529962 1.1579523
-1.6718054 0.7256224 -0.25226405 2.4070284 2.3045564 0.15655494 -1.1665624 -1.3917967
1.4380025 -0.6847548 1.0566286 3.0358639 1.2462109 -0.108799815 -0.28842917 -1.7755121
-0.22201455 0.87199634 1.016401 -2.654323 2.3784137 4.453765 1.2928953 1.3153695
-1.621433 -1.1507359 2.6974359 -0.56916124 1.2519428 -1.6482555 -0.31969482 -3.166954
-0.07733207 -1.7729248 0.8583282 -1.7393374 3.8940334 0.4367682 -3.9853725 -0.56772053
0.659994 -0.20649919 1.2118877 3.4272747 0.33787498 -1.5363321 1.2379503 3.2226546
2.0829706 1.9648132 -2.6473846 -1.3104316 0.53116137 2.3339784 0.7109747 -0.18864581
3.327288 -4.4870806 -1.1584554 -2.506503 -4.88907 0.8207464 2.066595 -2.949336
3.6895475 -2.9107206 -4.5100093 -3.9042459 -1.2277017 -1.1945181 2.9506176 -2.8732343
2.3522224 -0.29707605 -1.9937752 -2.643869 -1.3240387 -1.4955873 -2.4112053 1.2573073
-2.2786627 0.37544343 3.051616 0.828584 -0.47117144 -0.5441811 0.23313329 3.6770449
3.4985995 2.7628896 1.0231049 0.6716298 2.7405431 0.110742375 3.7775822 -6.5256257
-2.3494518 2.5082853 2.4716697 0.8358188 2.0810728 0.76181996 2.1477983 1.1381301
1.208107 0.34750777 -3.1055748 0.40527776 1.8162208 -0.29833576 -2.0508182 -1.7847857
3.5058002 -0.60717666 -4.118131 -2.007386 -0.9669325 3.7620764 1.3137839 -3.1371236
-3.1596448 0.19524565 -0.96768904 -0.38946572 -2.3698776 -1.2667984 1.7386311 -0.76595306
0.37221432 -3.0427501 0.85053825 -1.7577026 -0.2440612 1.9239492 3.2921233 0.3386123
1.8922323 1.4869161 0.4259995 1.069605 0.17988084 0.8249752 0.3797775 -0.669408
1.1240743 -1.133737 3.5288742 -0.37667075 2.3854384 2.780728 0.99634194 0.48152226
-1.0140522 1.6339623 1.6953856 0.39752373 -1.3976219 -0.9477332 1.823236 -1.2912176
-4.1096277 0.07093219 -1.5802774 -0.85956705 -0.5951863 -4.436973 3.7775824 -1.619017
2.0011759 -1.7599682 -0.71116906 0.013494356 -5.378771 2.1593528 -0.9976411 -2.5994627

fc1.bias f4 [32]
00000000: 0c22 123d b399 343d 68b1 0e3d 41ec a8ba
00000010: 6411 153e 1d67 213c 6a43 62bd c8c5 d03d
00000020: eeb8 783d 9790 3d3d 8dbe d43c 4bda 4abc
00000030: 06bf 793d 5265 0e3d 46a6 4a3d 47f0 223d
00000040: 8abb 043e 5d6e e23d 6557 dfbc d152 da3d
00000050: 4790 3c3d b2ae eb3c fa1a a13c 8c7c 5e3d
00000060: 02e1 bcbb bbed 333c 674e b43b 4c73 c83b
00000070: 40c4 9f3d fa7f 1d3d e5ac 07bc d168 933d
0.035677 0.04409189 0.034837157 -0.0012887792 0.14557415 0.009851244 -0.055240072 0.10193974
0.060723238 0.04628047 0.025969768 -0.012381147 0.06097319 0.034764595 0.049474977 0.039779928
0.12962165 0.110562064 -0.027263353 0.10660327 0.04603603 0.028769825 0.019666184 0.054317996
-0.0057641277 0.010981972 0.0055025104 0.00611726 0.078011036 0.038452126 -0.008280967 0.071977265

batch_norm_fc1.weight f4 [32]
00000000: 562b b53f fef9 953f 4aef ac3f 987c 853f
00000010: 74cc b63f 96ec 553f 03ef 913f f66b ae3f
00000020: 647f b63f 901e 973f 2019 973f 4065 903f
00000030: aefa b03f df7c ac3f af60 d03f 7ff7 9b3f
00000040: fac9 943f acc0 663f 307f 823f 7322 ba3f
00000050: aeef 9c3f 3bed 7f3f 990b 9b3f 1e93 a43f
00000060: 600f 813f 6682 a43f 702d 8f3f 9528 b13f
00000070: 02cd 943f b1bf 993f 2595 9a3f ff97 af3f
1.415385 1.1716917 1.3510525 1.0428648 1.4281144 0.83564126 1.1401066 1.3626697
1.4257627 1.1806202 1.1804543 1.1280899 1.3826501 1.3475608 1.6279505 1.2184905
1.1624138 0.90137744 1.0195065 1.4541763 1.2260644 0.9997136 1.2112914 1.2857397
1.0082817 1.2852294 1.1185741 1.384051 1.1625063 1.2011625 1.2076765 1.371826

batch_norm_fc1.bias f4 [32]
00000000: a7dd 2fbf 33f4 b7be 0994 35bf 7237 e83d
00000010: 11cd 31bf c2e1 9e3e d854 b0bd e312 bbbe
00000020: c849 23be 7e93 1bbf 3a1f 65be b545 debe
00000030: c41b 68be f436 28bf 576c 6fbf 9408 02be
00000040: d57b a8be fb2f 833e c4cc 72bd 58a8 45bf
00000050: ef13 30be aced 20be 9f07 20be c708 ecbe
00000060: a4cc 3ebe 7bf6 47be 1a47 82be 3439 95be
00000070: e623 4a3d 093f afbe b5ac 8fbc f332 1bbf
-0.6869759 -0.35928497 -0.7092901 0.113387 -0.6945353 0.31031615 -0.08609933 -0.36537847
-0.15946114 -0.6077193 -0.22375193 -0.43412557 -0.22666842 -0.6570885 -0.9352469 -0.12698585
-0.32906976 0.25622544 -0.05927731 -0.7721 -0.17195104 -0.15715665 -0.15627907 -0.46100447
-0.18632752 -0.19527619 -0.2544487 -0.29145205 0.04935064 -0.3422778 -0.017538408 -0.6062462

batch_norm_fc1.running_mean f4 [32]
00000000: 0608 17c3 846c 2cc3 a6a4 3ac1 d245 22c3
00000010: 3f85 dec2 4949 2f42 6b4e d542 8602 48c3
00000020: 548e 95c2 7f43 a0c2 996c cfc2 fb12 3d42
00000030: eeea e3c2 d035 19c2 505e 63c2 a19a a9c2
00000040: 1f48 10c3 e7c7 23c3 7a9d a041 511c e1c2
00000050: 6056 fdc2 2081 78bf 840c 3442 b207 8dc2
00000060: 6255 a042 16dd 6941 ea3f 0840 56b3 3abf
00000070: 1aea 1fc3 23b3 2d40 3043 61c2 0fce 16c1
-151.03134 -172.42389 -11.665197 -162.27274 -111.26025 43.821568 106.65316 -200.00986
-74.777985 -80.13183 -103.712105 47.268536 -113.95885 -38.30255 -56.842102 -84.80201
-144.28172 -163.78087 20.076893 -112.555305 -126.6687 -0.9707203 45.012222 -70.51503
80.16676 14.616476 2.128901 -0.72929895 -159.91446 2.7140586 -56.315613 -9.425307

batch_norm_fc1.running_var f4 [32]
00000000: 3822 0e46 25ff 0446 d1b7 d445 a40f 3646
00000010: c515 df45 c23c 0546 c3d5 f445 dec9 1546
00000020: 7dba 3846 a0f2 c745 1476 fd45 be24 cf45
00000030: b7a1 1c46 ebd3 e945 85e8 0f46 3c2e 0146
00000040: 787b 0b46 52eb f445 da43 e145 cb74 3146
00000050: 164e ef45 954d d345 b8e5 0c46 5e66 1f46
00000060: e4cc 0746 963b 0746 0c7d fa45 c74d 0b46
00000070: 1a5f 3946 dfb6 df45 5f7c 2546 6491 0646
9096.555 8511.786 6806.977 11651.91 7138.721 8527.189 7834.72 9586.467
11822.622 6398.328 8110.76 6628.593 10024.429 7482.4897 9210.13 8267.559
8926.867 7837.415 7208.4814 11357.198 7657.7607 6761.6978 9017.43 10201.592
8691.223 8654.896 8015.631 8915.444 11863.775 7158.859 10591.093 8612.348

fc2.weight f4 [10, 32]
00000000: 6418 873f 1b32 2bbf 742c 673e ca43 6ac0
00000010: 7cc4 393f 622d b1be 7e44 f6be 07c7 efbf
00000020: 9019 74bf 128c 8dbe 34e6 80bf 1e0d d83f
00000030: 54e5 663e 3fd7 f43f 2f63 7a3f c04b c6be
00000040: b242 2e3d fd5b f4bf 89a5 9dbf d217 343f
00000050: 2502 bebe df07 9c3f 57e6 f7bf 6f5c 89bd
00000060: 61c3 923f ed15 883f 75d8 82bf 4940 db3e
00000070: 41a4 97bf a384 603f 25a0 8a3f 9c49 cebe
00000080: b77c 1cbf 0e90 51bf e828 e9bf f1b3 4cc0
00000090: 45c1 43c0 66b1 91bf 7004 af3f 661e 45c0
000000a0: 571d e53f 0ca3 f5bf 4ec5 43c0 cfbb 5a3f
000000b0: 69b7 e13f a562 19c0 f73a ddbe 07bb dfbf
000000c0: b318 a6bf 4045 2cbf 3e84 f03f 4414 a0bd
000000d0: a715 6c3f a9c7 61bf 023b 82be af6f 91c0
000000e0: 858f a5bf ddb9 d3bf e515 a5bf 800b b03f
000000f0: b15c 953e 5d7d 1d3f c1ae 473f 5ff3 3240
00000100: 88dd 923f d70a f7bf 2b8f dc3f 8b11 603f
00000110: ada7 48bf 6d62 863f 0732 56c0 56e5 71be
00000120: ef84 14c0 c441 1abe ccb4 513f 5aa0 cb3e
00000130: 2d79 01bf 3687 363f 8557 8cbf bdf7 c7bf
00000140: b96e 553f e9a2 2ebf c2d4 873f 08b8 d43f
00000150: 8cbc ef3f 58fc f43e 8624 4d3e f16b a73f
00000160: 9185 11bd eb30 5d3f 70e0 bcbf eb22 1dc0
00000170: 8ba4 20bf 2751 ebbe e376 d4be 1532 1cbe
00000180: 7a26 a2bd 513a 5c3f 593e 3ebf 5af6 8d3f
00000190: cbae 453f 54e3 d9bd 3627 0c3f 827f 8bbf
000001a0: 5253 b7be efff 4f3e ea4f 35bf e93f b6bf
000001b0: 6e07 e1bf b0bb 8e3e ccc8 70bf 96ad 663d
000001c0: 6652 39be f7bf d93c 06f5 89bc 041c 96be
000001d0: f158 a7bf 1209 103f facc 3dbf daf1 773e
000001e0: 9cfa 4f3f fc8d 203e f2bc 923f c4a5 bcbe
000001f0: f3dd 23bf 8d1f 25c0 ff44 ecbf 9b7c 8bbe
00000200: ccd7 943e db13 ecbf db45 823e ec65 5c3f
00000210: a859 d7bf e7fc d1bf 7e64 92bf 4ba0 bc3f
00000220: e9fd 32c0 4a11 023f 1e56 a63f b2e3 f6bf
00000230: b062 2cbf 2065 1c3f 367e 46bf 2c26 4abf
00000240: a282 73bf 44bb e03f 5ec3 45c0 5f59 9ebf
00000250: c2a5 ccbf f1e4 6c3f 0102 273f 1eef d3be
00000260: 6306 71bf e730 3bc0 10c8 79bf 6ca7 97bf
00000270: 3e23 d0bd c562 b43f f3ea 943f 0276 10bf
00000280: d36c 21c0 ba19 163f 67a8 033f 3565 95be
00000290: 7cbd 993f d8be 1b3f 18f5 6f3f 49a1 eb3d
000002a0: 9471 6bbf 4b5c 64bf 9ab0 633d 15f1 40be
000002b0: a07a 15c0 de5f adbf a6a5 7e3e facf cfbe
000002c0: 704e 0f3f 4a4e c03f 7c66 1abf e1bc e1be
000002d0: 2669 8ebf c76b 84bf df9f 37be b01e 973f
000002e0: 3621 bb3f d568 81bf 85c1 353f 2c1f 80be
000002f0: a515 72bf 7ca8 12c0 9f3e 3fc0 e92b a9be
00000300: 112a 6d3f 819a cc3f f56f 01c0 27a4 5b3f
00000310: cb46 b4bf e6ad 2ec0 7f6a 0cbf bf05 ce3e
00000320: 90f8 69bf d90c 16c0 9017 773f fdd6 7e3f
00000330: 853a 8bbe b8e3 12bf acf3 3ec0 fd20 29c0
00000340: 8ce6 a23f e888 48bf 92d5 a0bf 1b16 8d3f
00000350: 7782 9fbf 0ea3 6bc0 9bdf 723f 92ed 713f
00000360: 09b6 afbf 63ee 973f 5a72 9d3d a742 62bf
00000370: 71dc a03f 0105 04c0 8cda 66bf fc43 823e
00000380: 0117 fbbf 2c87 93bf 4b30 83bf 94a8 723e
00000390: 7168 03bf 1adc dc3f 4a94 ed3e ce85 ac3f
000003a0: cc35 9abf cd00 ba3f f83b 6fbf 6457 543f
000003b0: d914 debf 52e6 54bf 9270 1a40 3740 83be
000003c0: 8382 2fc0 c522 59bf 71ed 7cbf 8d1a 0ac0
000003d0: 9230 03c0 0682 1e3f 9b1f cb3f 3381 81bf
000003e0: 72ba 1bbf 37b7 e1bf 234e 96bc 6bf6 f3be
000003f0: c510 05c0 6ba9 6c3f 86d7 82c0 9a7c 04bf
1.0554318 -0.6687333 0.22575551 -3.6603875 0.72565436 -0.34604937 -0.4809913 -1.8732613
-0.95351505 -0.27645928 -1.0070252 1.6879003 0.22548419 1.9128188 0.9780759 -0.38729668
0.042544074 -1.9090573 -1.2316142 0.70348847 -0.3711101 1.2189902 -1.9367169 -0.067070834
1.1465875 1.0631691 -1.0222307 0.42822483 -1.1847001 0.8770239 1.0830122 -0.40290534
-0.611278 -0.81860435 -1.8215609 -3.1984828 -3.0586712 -1.1382263 1.3673229 -3.0799804
1.7899579 -1.9190383 -3.0589175 0.85442823 1.7634097 -2.3966458 -0.4320905 -1.7478951
-1.2976288 -0.6729317 1.8790357 -0.07816365 0.9222054 -0.8819528 -0.25435644 -4.5448833
-1.2934424 -1.6541096 -1.2897307 1.375351 0.2917228 0.61519414 0.7800103 2.7961042
1.1473856 -1.9300183 1.7231191 0.8752677 -0.7838085 1.0498787 -3.3468034 -0.23622641
-2.3206136 -0.1506415 0.819165 0.39770776 -0.50575525 0.71300066 -1.0964209 -1.5622479
0.83372074 -0.6821733 1.0611804 1.6618662 1.8729415 0.47848773 0.20033464 1.3079816
-0.03552777 0.8640277 -1.4755993 -2.4552562 -0.6275107 -0.45960352 -0.41496953 -0.1525348
-0.07917495 0.86026484 -0.74313885 1.1090806 0.7721984 -0.106390625 0.5474733 -1.0898287
-0.35805756 0.20312475 -0.70825064 -1.4238254 -1.7580392 0.2787757 -0.9405639 0.05631789
-0.18097839 0.026580794 -0.01684047 -0.2931825 -1.3074018 0.5626384 -0.74140894 0.24213353
0.81241775 0.15679163 1.1463912 -0.3684522 -0.6401054 -2.5800507 -1.8458556 -0.27243504
0.2907089 -1.844356 0.2544392 0.8609302 -1.6824236 -1.6405305 -1.1436918 1.4736418
-2.7967474 0.5080763 1.2995031 -1.9288237 -0.67338085 0.61091805 -0.7753633 -0.78964496
-0.95121205 1.7557149 -3.0900493 -1.2371024 -1.5988085 0.92536837 0.6523743 -0.4139337
-0.9415037 -2.9248598 -0.97570896 -1.1847968 -0.10162972 1.4092642 1.1634201 -0.56430066
-2.522267 0.58633006 0.51428837 -0.29178777 1.2010951 0.6083808 0.9373336 0.11505372
-0.9197018 -0.8920333 0.055588342 -0.18841965 -2.3356094 -1.3544881 0.24867877 -0.4058836
0.5597906 1.5023892 -0.6031263 -0.44089416 -1.1125839 -1.0345391 -0.1793208 1.180624
1.461951 -1.0110117 0.7099841 -0.25023782 -0.94564277 -2.2915335 -2.988197 -0.33041313
0.92642313 1.5984651 -2.0224583 0.8579735 -1.4084104 -2.729364 -0.5485 0.4023876
-0.913949 -2.3445342 0.9652033 0.99546796 -0.27193084 -0.5737872 -2.9836226 -2.6426384
1.2726607 -0.783339 -1.2565176 1.1022371 -1.246169 -3.681827 0.94872445 0.9450313
-1.3727428 1.1869625 0.076878265 -0.88382953 1.2567273 -2.0628054 -0.90177226 0.25442493
-1.9616395 -1.1525626 -1.0249113 0.2369712 -0.5133124 1.725467 0.46402198 1.3478334
-1.2047668 1.4531494 -0.9345088 0.8294585 -1.7350112 -0.8316394 2.4131207 -0.2563493
-2.7423408 -0.8481868 -0.98799807 -2.1578705 -2.0498395 0.6191715 1.586902 -1.0117553
-0.6083137 -1.7634038 -0.018347805 -0.4764894 -2.0791485 0.9244601 -4.088809 -0.51752627

fc2.bias f4 [10]
00000000: f081 4bbf c0c1 79bf 5ab0 babf 5893 803f
00000010: dc68 a33f d53c a0bc a84b 2abe f655 b23f
00000020: de97 8ebf 1212 913f
-0.79495144 -0.97561264 -1.4585068 1.0044966 1.2766376 -0.019560257 -0.16630423 1.3932483
-1.1140096 1.133364
