CIFAR-sin-da/production/production-model-ResNet18.pt (torch, 145696 bytes, 20 tensors)

conv1.weight f4 [8, 3, 3, 3]
0	0xbe536d90	-0.20647264
1	0x3f370146	0.7148632
2	0x3ef6e19c	0.48219
3	0xbf720390	-0.94536686
4	0x3ef0d942	0.47040755
5	0x3f09021b	0.5351884
6	0xbf306d73	-0.68917006
7	0x3e6671e1	0.22504379
8	0x3e23f421	0.16011097
9	0xbf9d94dd	-1.2311054
10	0xbe236332	-0.15955809
11	0x3db600fe	0.08886908
12	0xbfcd7ce0	-1.6053734
13	0x3e36eca1	0.17863704
14	0x3f22ae25	0.63546973
15	0xbf72e391	-0.9487849
16	0x3e5064dd	0.20350976
17	0x3e8f43df	0.2798147
18	0xbf49d399	-0.788385
19	0x3e6644a1	0.22487117
20	0x3e8bb878	0.27289176
21	0xbf643c52	-0.8915454
22	0x3f307643	0.68930453
23	0x3f22575a	0.6341454
24	0xbf586d8d	-0.8454216
25	0x3f208ba1	0.62713057
26	0x3ed8e304	0.423607
27	0x3f183f30	0.59471416
28	0x3f9d0258	1.226634
29	0x3f5dad8a	0.86592925
30	0x3f4e6c74	0.80634236
31	0x3fa386f4	1.277556
32	0x3f543ee6	0.82908475
33	0xbf1e11ce	-0.6174592
34	0xbf27bfdb	-0.65527123
35	0xbee89503	-0.45426187
36	0x3ee2fe14	0.4433447
37	0x3eb88948	0.36042237
38	0x3e1dd218	0.15412176
39	0xbf006bd9	-0.5016456
40	0xbf1920dc	-0.59815764
41	0xbe13063b	-0.14357845
42	0xbf8b80f3	-1.0898727
43	0xbfc8ac3c	-1.5677562
44	0xbf9cc2c2	-1.2246935
45	0x3f244956	0.641744
46	0x3f226422	0.6343404
47	0x3e4f4978	0.2024287
48	0xbddf3c00	-0.10900116
49	0x3dbc4f67	0.09194832
50	0x3ee198a9	0.44061783
51	0xbec09232	-0.37611538
52	0xbf49a23f	-0.7876319
53	0x3d67a9de	0.056558482
54	0xbfa2bd47	-1.2714013
55	0xbfbcb942	-1.4744036
56	0xbc537489	-0.012906202
57	0x3e63dc00	0.22251892
58	0xbeeaa89c	-0.45831764
59	0xbf0117c9	-0.5042692
60	0x3f868a9b	1.0511049
61	0x3f9df2e8	1.2339754
62	0x3f10276d	0.5631016
63	0xbf9b1f08	-1.2118845
64	0xbf9b89fb	-1.2151483
65	0xbea7547d	-0.32681647
66	0xbd2dad59	-0.042401645
67	0xbf08f8ba	-0.53504527
68	0xbf88399b	-1.064258
69	0x3ebc28af	0.3674979
70	0x3f0b00cb	0.54298085
71	0x3ddb31bd	0.10702846
72	0x3db32a4b	0.08748301
73	0xbe879528	-0.26480985
74	0x3e9e2724	0.30889237
75	0x3f3c9c9c	0.73676467
76	0x3d575e05	0.0525799
77	0xbefb761c	-0.49113548
78	0x3f2ace76	0.66721284
79	0x3f599e4a	0.85007155
80	0xbc6df90f	-0.014524712
81	0xbe779efd	-0.24181743
82	0xbf259ba5	-0.6469062
83	0xbeaa65bd	-0.33280745
84	0xbf55c1d2	-0.8349887
85	0xbfb01b34	-1.3758302
86	0xbf7e6b09	-0.9938207
87	0xbf2a2653	-0.6646473
88	0xbf5aa55d	-0.85408574
89	0xbf276eac	-0.65403247
90	0xbe0ea0d8	-0.13928545
91	0x3e318b2a	0.17338243
92	0xbd7cde08	-0.061735183
93	0xbc039f3d	-0.008033571
94	0x3ecb83a6	0.39748877
95	0x3dc4c945	0.096087016
96	0xbe5d0f38	-0.21587837
97	0xba5027b5	-0.0007940487
98	0xbe841c7e	-0.25802988
99	0x3ee63279	0.44960383
100	0x3f63b5bc	0.8894918
101	0x3e8700e6	0.26367873
102	0x3f879744	1.0593038
103	0x3fc5dd19	1.5458099
104	0x3f636d6a	0.8883883
105	0x3f1b3173	0.6062233
106	0x3f86cd06	1.0531318
107	0x3edec825	0.43512073
108	0xbf0b5b23	-0.5443594
109	0xbfc8a0de	-1.5674093
110	0x3d39f650	0.045400918
111	0x3f33f507	0.7029576
112	0xbefac3c0	-0.4897747
113	0x3f322095	0.69580966
114	0x3e8b66d1	0.2722688
115	0xbf0ffa49	-0.5624128
116	0x3ebcfabb	0.36910042
117	0x3eaae5a0	0.33378315
118	0xbf85a357	-1.0440472
119	0x3e45e4d0	0.19325566
120	0x3fa84c73	1.314833
121	0xbdb8d43e	-0.09024857
122	0x3f985b0d	1.1902786
123	0x3d01e5ca	0.031713285
124	0xbf386041	-0.7202187
125	0x3e5ef7cd	0.21774216
126	0x3ed3f67c	0.4139899
127	0xbf802275	-1.0010515
128	0x3d706b12	0.05869586
129	0x3f5a14d5	0.8518804
130	0xbd9bc441	-0.07605792
131	0x3f3df8dc	0.74207854
132	0xbea9f9b6	-0.33198327
133	0xbf6a9636	-0.91635454
134	0xbeaa91ed	-0.33314458
135	0xbeabc4fd	-0.33548728
136	0xbf1ab09a	-0.6042572
137	0x3f70440c	0.9385383
138	0x3e9425e2	0.28935152
139	0x3eff1d35	0.4982697
140	0x3e0bed6b	0.13664787
141	0xbf95945b	-1.16859
142	0xbe041e16	-0.12902102
143	0xbf05135f	-0.5198268
144	0xbddeb43b	-0.1087422
145	0xbf71a353	-0.9438984
146	0x3da4daea	0.08049567
147	0x3f28281d	0.6568621
148	0x3f8a5394	1.0806756
149	0xbec8ba40	-0.39204597
150	0xbf221045	-0.63306075
151	0x3efee27a	0.49782163
152	0x3cfc3b61	0.030790033
153	0xbf405a8b	-0.7513816
154	0xbfc3f214	-1.5308251
155	0xbf67618b	-0.90383214
156	0x3fbc8e03	1.4730839
157	0x3fc95ff5	1.5732409
158	0xbd86494a	-0.065569475
159	0x3f070305	0.5273898
160	0x3fea1c70	1.8289928
161	0x3f4d0182	0.80080426
162	0x3d89f0c2	0.06735374
163	0x3f83cd49	1.0297023
164	0xbf3019ec	-0.68789554
165	0xbe4b504e	-0.19854853
166	0x3fbc90e3	1.4731716
167	0xbfa13030	-1.2592831
168	0xbe54c5f5	-0.2077864
169	0x3f1acb71	0.60466677
170	0xbefb901f	-0.49133393
171	0x3d934d75	0.07192508
172	0x3f5933cb	0.84844655
173	0xbf78fcad	-0.9726055
174	0x3d89a893	0.06721606
175	0x3fbae484	1.4600987
176	0xbfd1fe3b	-1.640571
177	0x3dbd02ab	0.092290245
178	0x3f4e00bd	0.80469877
179	0xbf0ae198	-0.5425048
180	0x3ebeadd0	0.37241983
181	0x3f566522	0.83748066
182	0xbf80075f	-1.000225
183	0x3eb60481	0.3555031
184	0x3fa5c0c2	1.294945
185	0xbfc88167	-1.566449
186	0x3dd7c550	0.10535681
187	0x3f5c0a92	0.8595363
188	0xbf469e62	-0.77585423
189	0x3fb6beac	1.4276938
190	0xbf751acf	-0.9574403
191	0xbf1521e1	-0.5825482
192	0xbfc61a7d	-1.5476834
193	0xbe8c6fa6	-0.2742893
194	0x3f2b66a6	0.66953504
195	0xbebbd00a	-0.3668216
196	0x3f2e7b25	0.68156654
197	0x3d3e33e0	0.04643619
198	0x3fcc80e4	1.5976834
199	0xbf0bf79c	-0.54674697
200	0xbeab792b	-0.3349088
201	0xbf6b7682	-0.91977704
202	0x3e0d6afa	0.1381034
203	0x3f6ba00d	0.92041093
204	0xbe88a74f	-0.26690146
205	0x3f3aa908	0.7291417
206	0xbe9d8db5	-0.30772176
207	0x3fa7b205	1.3101202
208	0xbf40a90b	-0.7525794
209	0xbf1b825f	-0.60745806
210	0xbfa41f0c	-1.2821975
211	0xbe330f7f	-0.1748638
212	0x3f3d81b1	0.7402602
213	0xbeaa1dd1	-0.33225873
214	0x3f35098a	0.7071768
215	0x3d8fc53d	0.07020042

conv1.bias f4 [8]
0	0x3eb02d5b	0.34409603
1	0xbe424ea3	-0.1897531
2	0xbde9f81e	-0.11424278
3	0xbde8cbd6	-0.113670036
4	0xbf289e02	-0.658661
5	0x3e06bc52	0.13157776
6	0x3f58ee80	0.8473892
7	0xbe532758	-0.20620477

batch_norm_conv1.weight f4 [8]
0	0x40097a98	2.1481075
1	0x3fb95aff	1.4480895
2	0x3fb1746d	1.3863655
3	0x3f8c28a2	1.09499
4	0x3fa84aaf	1.3147792
5	0x3f922130	1.1416378
6	0x3f9d0e1d	1.2269932
7	0x3fb6f1f8	1.4292593

batch_norm_conv1.bias f4 [8]
0	0x3f33a6c1	0.7017632
1	0x3e96d13c	0.29456508
2	0x3edae9e6	0.42756575
3	0x3f0f91c0	0.5608177
4	0x3baea117	0.005329262
5	0xbf40b609	-0.75277764
6	0x3e9e06b1	0.3086448
7	0xbca84ee5	-0.020545432

batch_norm_conv1.running_mean f4 [8]
0	0x3ec11bf1	0.3771663
1	0xbe39484e	-0.18093988
2	0xbe24b5d8	-0.16084993
3	0xbf4d7ae8	-0.80265665
4	0xbf2073d7	-0.6267676
5	0xbe4f8e9d	-0.20269246
6	0x3f3dce3f	0.7414283
7	0xbe31e57d	-0.17372699

batch_norm_conv1.running_var f4 [8]
0	0x40368147	2.8516405
1	0x40734418	3.801031
2	0x40780f5a	3.875937
3	0x40aea4bc	5.457609
4	0x3f61d8af	0.8822126
5	0x402fd0e2	2.7471242
6	0x4045e003	3.0917976
7	0x3f1b4da1	0.6066533

conv2.weight f4 [16, 8, 3, 3]
0	0x3eb4e587	0.35331365
1	0x3f239596	0.63900125
2	0x3e4763d8	0.19471681
3	0x3f4cc198	0.799829
4	0x3ed6af23	0.41930494
5	0xbf3a684f	-0.7281541
6	0x3f336d77	0.70088905
7	0xbe553d63	-0.20824198
8	0xbf19675f	-0.59923357
9	0x3f7cc4a7	0.9873757
10	0xbe0ad8a3	-0.13559203
11	0xbf0548e6	-0.5206436
12	0xbe64e58e	-0.22353193
13	0xbea87c2f	-0.32907245
14	0xbf1df953	-0.61708564
15	0xbeda2051	-0.4260278
16	0xbc7aea5c	-0.015314665
17	0xbf885659	-1.0651351
18	0x3e0150f9	0.12628545
19	0xbe56a4f2	-0.20961359
20	0x3e97a0f7	0.29614994
21	0xbfc9e292	-1.5772269
22	0xbf12c141	-0.5732613
23	0x3f51fd4e	0.8202714
24	0xbf8b278a	-1.0871441
25	0xbf837812	-1.0271018
26	0x3f543d7d	0.82906324
27	0xc005b9f6	-2.0894752
28	0xbd4ce56e	-0.05002349
29	0x3fc2dca2	1.5223582
30	0xbfb234c1	-1.3922349
31	0x3e4e04f6	0.2011908
32	0x3fdd060c	1.726747
33	0xbf58524f	-0.8450059
34	0xbbac3e37	-0.00525644
35	0x3f90e222	1.131901
36	0xbdd4fb97	-0.103995495
37	0xbd08dc9d	-0.03341352
38	0xbdca1c66	-0.09868698
39	0xbf80350e	-1.0016191
40	0x3e0504af	0.12990068
41	0x3e893fdd	0.26806536
42	0xbf857393	-1.0425895
43	0xbf6b323d	-0.9187353
44	0xbeb4d2b3	-0.35317
45	0xbf8ae544	-1.0851216
46	0xbf33a2cb	-0.7017028
47	0x3eeb811c	0.4599694
48	0xbf8d87ee	-1.1057107
49	0xbf0393d6	-0.51397455
50	0x3f1ac7b8	0.60460997
51	0xbfdd7fea	-1.7304661
52	0xbf9badc3	-1.2162403
53	0xbf1ad53d	-0.60481626
54	0xbf8fb6d6	-1.1227672
55	0xbeb482db	-0.35256085
56	0xbe328163	-0.1743217
57	0xbe8c8454	-0.27444708
58	0x3f03f4c2	0.51545346
59	0x3e9f4968	0.31110692
60	0xbd200a49	-0.03907231
61	0x3eece066	0.46264952
62	0x3e9fc989	0.31208447
63	0x3e85acb8	0.26108336
64	0x3f02d9f0	0.51113796
65	0x3c71b0f6	0.014751663
66	0xbe6b2a4d	-0.22965355
67	0xbef74d1e	-0.48301023
68	0xbf15ed87	-0.5856556
69	0xbe1c3f6f	-0.15258573
70	0xbf2fbf9b	-0.6865174
71	0xbf137645	-0.5760234
72	0x3e273d74	0.16332036
73	0xbd36d145	-0.04463317
74	0xbf719506	-0.94368017
75	0xbfdfd425	-1.7486616
76	0x3eb66784	0.3562585
77	0x3cbd9709	0.023143308
78	0x3f673c21	0.90326124
79	0xbf90e396	-1.1319454
80	0x3cca3080	0.02468133
81	0xbe53d383	-0.20686154
82	0x3f075780	0.5286789
83	0xbf506d48	-0.8141675
84	0xbfbc077b	-1.4689783
85	0xbda4f938	-0.08055347
86	0x3f4267d6	0.7593969
87	0x3f2d280e	0.67639244
88	0xbdbb3b94	-0.09142223
89	0xbf29ad1e	-0.6627978
90	0xbe878abe	-0.2647304
91	0xbee5aa67	-0.4485657
92	0xbe4c8453	-0.19972353
93	0x3ec6c77e	0.38824075
94	0x3d80fd88	0.06298357
95	0xbf0729e9	-0.52798325
96	0xbf92c8dd	-1.1467549
97	0x3ea88e14	0.32920897
98	0xbb8f02d4	-0.004364351
99	0xbf8f390b	-1.1189283
100	0xc004f095	-2.077184
101	0xbf2ec783	-0.6827318
102	0xbf0e4882	-0.5557939
103	0xc030e1f1	-2.7637904
104	0xbf2641b7	-0.6494402
105	0x3f547a5f	0.82999223
106	0xbf55c60f	-0.8350534
107	0xbdf80313	-0.12109961
108	0x3f2ca9cc	0.6744659
109	0xbd6158f8	-0.055016488
110	0xbe7b72a1	-0.24555446
111	0x3f1b7e67	0.6073975
112	0xbecedab5	-0.40401235
113	0xbf5821dd	-0.8442667
114	0xbf60a195	-0.87746555
115	0x3f9ba46d	1.2159554
116	0x3ee2f645	0.44328514
117	0xbf446b79	-0.7672649
118	0xbe9bc74d	-0.30425492
119	0xbcfddcd9	-0.030989097
120	0xbe665911	-0.22494914
121	0xbf1ecc85	-0.6203082
122	0xbf70dcdd	-0.9408701
123	0x3f17eeb3	0.593486
124	0x3ed8761c	0.4227761
125	0x3f4c30af	0.79761785
126	0xbea6ecbe	-0.32602495
127	0xbe1e81a5	-0.15479143
128	0xbf18b2f0	-0.59648037
129	0x3f8429af	1.0325221
130	0xbdeb9405	-0.11502842
131	0x3e09b227	0.13446866
132	0xbf35da4e	-0.7103623
133	0x3ea15616	0.3151099
134	0x3f160b77	0.58611244
135	0x3e9ee223	0.31031904
136	0x3fb5c973	1.4202102
137	0xbd642e1d	-0.05570804
138	0x3e10be95	0.14135201
139	0x3f6b38a8	0.91883326
140	0x3facc942	1.3498919
141	0x3d07623c	0.033052668
142	0x3eb5657a	0.35428983
143	0xbd088920	-0.033333898
144	0x3f06e9aa	0.52700293
145	0x3e86ab8d	0.26302758
146	0xbe3a90b4	-0.18219262
147	0xbf78dd82	-0.97212994
148	0xbccc3c4f	-0.024931101
149	0x3f204a6d	0.62613565
150	0xbe6447c6	-0.22293004
151	0xbf598706	-0.84971654
152	0xbf95af21	-1.169407
153	0xbec940c1	-0.39307216
154	0x3f8a419d	1.0801274
155	0x4002d044	2.0439615
156	0x3f907eca	1.1288693
157	0x3e1ca97c	0.15299028
158	0xbf7244bd	-0.94636136
159	0x3f1056e2	0.5638257
160	0x3fba5e72	1.4560072
161	0x3f9645b9	1.1740028
162	0x3e418854	0.18899661
163	0xbf43bf03	-0.76463336
164	0xbf0f3934	-0.5594666
165	0xbe90f95b	-0.28315243
166	0x3f42101d	0.75805837
167	0x3f6ea993	0.932275
168	0x3f14bd3e	0.5810126
169	0x3f31668f	0.69297117
170	0x3f240f93	0.64086264
171	0x3e1a0148	0.15039551
172	0x3d94da3a	0.07268186
173	0x3d867a6c	0.06566319
174	0xbeb5e3f2	-0.3552547
175	0xbf24eb61	-0.6442166
176	0xbf0b7337	-0.5447268
177	0x3eb02913	0.34406337
178	0x3f0a6c6d	0.54071695
179	0x3f204ca1	0.62616926
180	0x3f901f77	1.1259602
181	0x3f7ac37c	0.97954535
182	0xbcf2052c	-0.029543482
183	0xbe3774ea	-0.17915693
184	0x3f144922	0.5792409
185	0x3f2f498b	0.6847159
186	0xbe09f6fe	-0.13473126
187	0xbe8f35eb	-0.27970824
188	0xbefae8f0	-0.49005842
189	0x3eb75555	0.3580729
190	0x3df43466	0.11924057
191	0xbdbf3136	-0.09335558
192	0xbed41339	-0.41420916
193	0xbeff0eaa	-0.49815875
194	0x3e2c406f	0.16821454
195	0x3e908740	0.28228188
196	0xbe270c03	-0.16313176
197	0xbdf7a3c3	-0.12091782
198	0xbd1e2f6b	-0.03861944
199	0x3e87d46a	0.26529247
200	0x3eb1e890	0.34747744
201	0xbf582ed8	-0.8444648
202	0xbed42e0f	-0.4144139
203	0xbf2b4957	-0.6690878
204	0xbfacf1e4	-1.3511319
205	0xbfbe1f01	-1.4853212
206	0xbf425dcb	-0.75924367
207	0x3d8e2bff	0.06941985
208	0xbebfdc40	-0.37472725
209	0x3f18b7b4	0.5965531
210	0x3e9ac0eb	0.3022531
211	0x3f3dab7f	0.7408981
212	0x3f97c270	1.1856213
213	0xbecabecd	-0.39598694
214	0xbf39d771	-0.7259436
215	0xbd32bfb3	-0.04363985
216	0x3f21d6fd	0.6321867
217	0x3f171578	0.59017134
218	0xbfa570e4	-1.2925076
219	0xbf02b1f6	-0.51052797
220	0xbf93a7bb	-1.1535562
221	0xbf18d6db	-0.59702843
222	0xbf28a4b4	-0.6587632
223	0x3d046450	0.032322228
224	0xbedb2c19	-0.4280708
225	0xbfeb6641	-1.839058
226	0xbcdd424e	-0.027009156
227	0x3f9f24a1	1.2433053
228	0xbed0dab6	-0.40791863
229	0x3f911967	1.1335877
230	0x3f887428	1.0660448
231	0x3ed03457	0.40664932
232	0x3f1436f1	0.57896334
233	0xbf5c7773	-0.86119765
234	0x3f3aba65	0.72940665
235	0xbe6720f1	-0.2257116
236	0xbeb6a76f	-0.35674617
237	0xbe2ba5fe	-0.1676254
238	0xbf542887	-0.8287434
239	0x3f417b33	0.7557861
240	0xbfa5be9c	-1.2948794
241	0x3e882d7a	0.26597196
242	0x3f331733	0.69957274
243	0x3e34b821	0.17648365
244	0x3e913f45	0.28368583
245	0xbe8560fb	-0.26050553
246	0x3f4fc720	0.81163216
247	0xbea4c9c8	-0.32185197
248	0xbfb04d96	-1.3773677
249	0x3f65ad5c	0.8971765
250	0xbf0ec39b	-0.5576722
251	0xbf902c2c	-1.126348
252	0xbf3c234e	-0.7349137
253	0xbf3f8874	-0.74817586
254	0xbf1457d0	-0.5794649
255	0xbf0afe43	-0.5429422

conv2.bias f4 [16]
0	0xbd81abef	-0.06331622
1	0x3e99d797	0.30047294
2	0xbe048155	-0.12939961
3	0xbe12c23d	-0.14331909
4	0x3ebb5951	0.3659158
5	0xbd3fdcab	-0.046841305
6	0xbc694666	-0.014237976
7	0xbdf1b113	-0.11801352
8	0x3e89a0fc	0.26880634
9	0xbe1da84c	-0.15396231
10	0x3e09dab1	0.1346233
11	0xbd5f720d	-0.054552127
12	0x3d8679a0	0.06566167
13	0xbe3762ac	-0.17908734
14	0xbe10eb92	-0.14152363
15	0xbc543f18	-0.012954496

batch_norm_conv2.weight f4 [16]
0	0x3fbcbbe2	1.4744837
1	0x3f98e255	1.1944071
2	0x3f647995	0.8924802
3	0x3fd79ac4	1.6844106
4	0x3f8e1a6b	1.1101812
5	0x40117dc8	2.273302
6	0x3f99e09e	1.2021673
7	0x3fa0af40	1.2553482
8	0x3fbd71e1	1.4800378
9	0x3fb7c04b	1.4355558
10	0x3fe16618	1.7609282
11	0x3fa77ce9	1.3084995
12	0x3fad4927	1.3537949
13	0x3fa14dd6	1.2601879
14	0x3f7fb585	0.9988635
15	0x3f8aad18	1.0834074

batch_norm_conv2.bias f4 [16]
0	0xbf8f8520	-1.1212502
1	0xbe832658	-0.2561519
2	0x3bfbc3e9	0.0076832664
3	0xbf84b8ed	-1.0368935
4	0xbeba3cea	-0.363746
5	0xbfdec903	-1.7405094
6	0xbef4b110	-0.47791338
7	0xbf2ee703	-0.68321246
8	0xbf8c07a0	-1.0939827
9	0xbf81c313	-1.0137657
10	0xbf3c10ea	-0.7346331
11	0xbf9014f7	-1.1256398
12	0xbf0ffd3f	-0.562458
13	0xbf484faa	-0.7824656
14	0x3e9d2a09	0.30696133
15	0xbe8d5339	-0.27602556

batch_norm_conv2.running_mean f4 [16]
0	0xc109eb94	-8.620014
1	0xc1147a60	-9.279877
2	0x40834400	4.102051
3	0xc142a7d4	-12.165974
4	0xc0d39e13	-6.613046
5	0xc1918a19	-18.19243
6	0xc10d8434	-8.844776
7	0xc058f024	-3.389657
8	0xc1659576	-14.3489895
9	0x3d4d2f04	0.050093666
10	0xc1ca77aa	-25.30843
11	0xc094cbab	-4.649862
12	0xc0e3317b	-7.09979
13	0xc1085e8a	-8.523081
14	0xbfbfeafc	-1.4993587
15	0x3fb97d04	1.4491277

batch_norm_conv2.running_var f4 [16]
0	0x428efc1a	71.492386
1	0x429da620	78.82446
2	0x42460fae	49.515312
3	0x42edb4ab	118.85287
4	0x42c5bf94	98.874176
5	0x43091cec	137.11298
6	0x427ecf3f	63.70239
7	0x42bce872	94.453995
8	0x430b9310	139.57446
9	0x434800a4	200.0025
10	0x433f2e4c	191.18085
11	0x42b1ad66	88.83867
12	0x428a2417	69.07049
13	0x42a9f8ae	84.9857
14	0x42aa5a68	85.176575
15	0x428064dd	64.197

fc1.weight f4 [32, 1024]
0	0x3c6c411a	0.014419818
1	0xbf8a33f9	-1.0797111
2	0xbe10f291	-0.14155032
3	0xbc056db6	-0.008143833
4	0x3e110817	0.14163242
5	0x3f166a4c	0.58755946
6	0xbf9c020b	-1.2188123
7	0x3d0e8e11	0.034803454
8	0xbe843db3	-0.25828323
9	0xbe8c7aa1	-0.27437308
10	0xbf0c174a	-0.54723036
11	0xbe2ad3f8	-0.16682422
12	0x3f31380b	0.6922614
13	0xbe8b24ca	-0.27176505
14	0xbd03ca59	-0.032175396
15	0xbe0010e8	-0.12506449
16	0xbe0a98c7	-0.13534842
17	0xbf0765d6	-0.52889764
18	0x3e605f36	0.2191132
19	0xbf2dc3d0	-0.6787691
20	0x3cc507ef	0.024051635
21	0x3df37c2a	0.11888917
22	0x3f670a52	0.9025012
23	0xbe1aa489	-0.15101828
24	0xbf1b44a9	-0.6065164
25	0xbf28a257	-0.6587271
26	0xbe1ad5ad	-0.15120573
27	0x3e99eb68	0.30062413
28	0x3e8be5f2	0.27323872
29	0x3f768746	0.9630016
30	0xbe3a6996	-0.1820434
31	0x3daa9190	0.08328545
32	0xbec8caef	-0.39217326
33	0xbedce162	-0.43140703
34	0xbeaec97c	-0.34138095
35	0xbf27680c	-0.6539314
36	0xbf923158	-1.1421309
37	0xbe9b9d7e	-0.30393595
38	0x3e51dea6	0.2049509
39	0x3ed22183	0.41041192
40	0xbf310595	-0.6914914
41	0x3f64b47e	0.8933791
42	0x3ee81c1f	0.45333955
43	0xbf12cf4b	-0.57347554
44	0x3dc6d0cc	0.097077936
45	0xbf2e185b	-0.68005913
46	0x3f1839b1	0.5946303
47	0x3d55fa3f	0.052240606
48	0xbf6acbbf	-0.9171714
49	0xbea9602a	-0.3308118
50	0xbd6b7a0d	-0.057489444
51	0xbe3c7f42	-0.1840792
52	0xbe409617	-0.18807255
53	0xbf05f645	-0.523289
54	0x3e53b32b	0.20673816
55	0xbf255a7d	-0.645912
56	0x3ec47aab	0.38374838
57	0x3f3f1b7f	0.7465133
58	0xbc8cda54	-0.01719395
59	0x3eed7c56	0.46383923
60	0xbcdbf2f4	-0.026849248
61	0xbb1855f8	-0.00232446
62	0x3ef1d1fc	0.47230518
63	0xbf24ec80	-0.6442337
64	0xbe8a37e1	-0.26995757
65	0x3eb8c217	0.3608558
66	0xbd8f7f67	-0.07006722
67	0x3dbb8951	0.091570504
68	0xbbe3c830	-0.0069513544
69	0xbe812817	-0.252259
70	0xbf5053c5	-0.8137782
71	0xbc110ce0	-0.008853167
72	0x3e88d2a9	0.2672322
73	0xbe098d71	-0.13432862
74	0x3f7180e7	0.94337314
75	0xbf615355	-0.8801778
76	0xbee8b3f0	-0.4544978
77	0x3e236a87	0.15958606
78	0xbe0b5c21	-0.13609363
79	0xbf136483	-0.57575244
80	0xbf6ed389	-0.9329153
81	0x3f9d1ad8	1.2273817
82	0x3f01fe5b	0.5077874
83	0x3f40bf9d	0.7529238
84	0x3f690023	0.91015834
85	0xbe9537c4	-0.29144108
86	0xbee48d51	-0.44639066
87	0xbfa73c81	-1.3065339
88	0xbe23dc92	-0.1600211
89	0x3f2e8dc1	0.6818505
90	0x3f414eed	0.75511056
91	0x3fd7dce0	1.6864281
92	0x3f3b4777	0.7315592
93	0x3f19ef19	0.6013046
94	0x3df55250	0.119785905
95	0xbdb2b7c8	-0.0872646
96	0xbda549d3	-0.080707215
97	0x3f21dec7	0.63230556
98	0x3f7f4208	0.9971013
99	0x3f0f7aba	0.5604664
100	0x3f6553c1	0.89580923
101	0x40091d95	2.1424305
102	0x3d5f763e	0.054556124
103	0xbe8258a3	-0.2545825
104	0x3e84525d	0.25844088
105	0x3f248eda	0.64280474
106	0xbe908b48	-0.28231263
107	0x3f7e19fb	0.99258393
108	0x3f39a9ce	0.72524726
109	0xbe3c622e	-0.18396828
110	0x3e71bef0	0.23607993
111	0xbfad6884	-1.3547521
112	0xbdcefea6	-0.10107164
113	0xbf156d92	-0.58370316
114	0x3f591eb8	0.848125
115	0x3c854f2b	0.016273102
116	0x3fc6ba68	1.5525637
117	0x3f9d651f	1.2296485
118	0xbfb73cc4	-1.4315419
119	0x3d0e8e39	0.034803603
120	0x3ebe06dd	0.3711461
121	0x3f092567	0.53572696
122	0x3dcf0497	0.10108297
123	0x3fabd18a	1.3423321
124	0x3dd12976	0.10212986
125	0xbe07332d	-0.13203116
126	0x3f94eb8f	1.1634387
127	0x3f995c5e	1.1981313
128	0x3eec24d6	0.46121854
129	0x3f834f07	1.0258492
130	0xbf920e74	-1.1410661
131	0xbf099dc7	-0.53756374
132	0xbf71cfde	-0.94457805
133	0xbd9e27b1	-0.07722414
134	0xbe8087b3	-0.2510353
135	0x3e4c7396	0.19965968
136	0x3f295303	0.6614229
137	0xbfcee682	-1.6164095
138	0xbf2107dc	-0.6290262
139	0xbfd5db12	-1.670748
140	0xbfec3ae4	-1.8455472
141	0xbfac54c4	-1.3463368
142	0xbd822288	-0.063542426
143	0xbf11da62	-0.5697385
144	0xbf08e9cb	-0.5348174
145	0xbf95d6d0	-1.170618
146	0xbfe103e0	-1.7579308
147	0xc009db32	-2.1540036
148	0xbf86e6af	-1.0539149
149	0xbea47d75	-0.32126966
150	0x3edbd6bb	0.42937264
151	0xbf3e996a	-0.7445284
152	0xbf1e1eb4	-0.617656
153	0xbf11fc1c	-0.57025313
154	0xbf71558f	-0.9427118
155	0xbfc424d3	-1.5323738
156	0xbf0f79ae	-0.56045043
157	0xbd8d0091	-0.06884874
158	0xbf2dba5d	-0.6786249
159	0xbf5ec278	-0.87015486
160	0xbef8ffc8	-0.48632646
161	0x3e0fb7fa	0.14035025
162	0x3f31e37a	0.69487727
163	0xbd5f3420	-0.05449307
164	0xbe2ad4b9	-0.1668271
165	0x3f10b48e	0.56525505
166	0x3ef03b96	0.4692046
167	0x3e850ab6	0.25984734
168	0x3ed10bc4	0.4082929
169	0x3f9d0bbf	1.226921
170	0x3f3082c2	0.6894952
171	0x3f2935f7	0.6609797
172	0x3fa5f014	1.2963891
173	0x3ed2a5d0	0.4114213
174	0x3f489e44	0.78366494
175	0xc016ddab	-2.3572795
176	0xbf8aef26	-1.0854232
177	0x3f1f050b	0.6211707
178	0x3eb682bb	0.35646614
179	0x3f18322a	0.59451544
180	0x3f92657a	1.1437218
181	0x3f62f037	0.8864779
182	0x3f0ff65b	0.56235284
183	0xbec49ba6	-0.384
184	0x3e3fb9a3	0.18723159
185	0xbed4c2d5	-0.41554895
186	0xbf3df887	-0.7420735
187	0xbde0c4f8	-0.10975069
188	0xbed40234	-0.4140793
189	0xbead5709	-0.33855465
190	0xbfaec4f8	-1.365386
191	0x3d9fb14d	0.07797489
192	0x3f055f31	0.52098376
193	0xbd16f903	-0.03685857
194	0xbf31ed47	-0.6950268
195	0x3e9c4236	0.30519265
196	0xbe072c40	-0.13200474
197	0x3f4f686d	0.81018716
198	0x3dd79a92	0.10527529
199	0xbd46d421	-0.048542146
200	0xbf88ebb0	-1.0696926
201	0xbf7825e3	-0.9693281
202	0xbf79d59d	-0.97591573
203	0x3e742170	0.2384088
204	0xbfef6b98	-1.870471
205	0xbebc8efc	-0.36827838
206	0xbe07e7cf	-0.13272022
207	0xbf18e5b6	-0.5972551
208	0xbe80fb79	-0.25191858
209	0xbf26b310	-0.6511698
210	0x3e680425	0.22657831
211	0xbf6d09b8	-0.92592955
212	0x3e1c49fb	0.15262596
213	0x3f779f62	0.96727574
214	0x3fac3668	1.3454103
215	0xbeffb236	-0.49940652
216	0xbe442afe	-0.19157025
217	0x3e70c66c	0.23513192
218	0xbef71d8f	-0.4826474
219	0x3e5c38eb	0.21506087
220	0x3f434c2e	0.76288116
221	0xbe0c3975	-0.13693793
222	0x3d53bb22	0.051692136
223	0xbf91c225	-1.1387373
224	0x3e10e344	0.14149195
225	0xbe468bd1	-0.19389273
226	0xbe6fe2ec	-0.23426408
227	0x3d69e5b0	0.057103813
228	0x3e1aa8af	0.1510341
229	0x3f9ecd4d	1.2406403
230	0x3f3584d9	0.70905834
231	0x3e2d42d8	0.1692003
232	0xbf20d5f7	-0.62826484
233	0x3f65b8ff	0.89735407
234	0xbca3395d	-0.019924814
235	0x3eab9f4f	0.3351998
236	0xbf1e0666	-0.61728513
237	0xbd85670a	-0.06513794
238	0x3d960236	0.073246405
239	0xbadf15cf	-0.0017020049
240	0xbff07c7f	-1.8787993
241	0xbf0070df	-0.5017223
242	0xbf020ec2	-0.5080377
243	0xbb8fa1da	-0.004383308
244	0xbcff2949	-0.031147616
245	0xbfa8b68a	-1.3180707
246	0x3f6c089d	0.9220064
247	0xbf246b33	-0.64226073
248	0xbe91572d	-0.28386822
249	0xbf39baed	-0.7255085
250	0xbe4caafc	-0.199871
251	0xbf1ec398	-0.620172
252	0xbfbbb2de	-1.4663961
253	0x3e937a39	0.28804186
254	0x3e8a458d	0.27006188
255	0xbfa95996	-1.3230464

fc1.bias f4 [32]
0	0xbb889c65	-0.0041690343
1	0xbd01611b	-0.031586748
2	0x3b4044d5	0.0029337902
3	0xbc13b09c	-0.009014275
4	0x3d621de3	0.055204283
5	0xbb929067	-0.0044727805
6	0xbc5f577b	-0.013631697
7	0x3cf3eb1d	0.029775197
8	0x3d2c69c1	0.042093042
9	0x3b24dc20	0.0025155619
10	0xbb6fa9e3	-0.0036569766
11	0xbcbc558b	-0.022990009
12	0xbb237ea5	-0.0024947312
13	0xbce6941f	-0.028146802
14	0x3c57929d	0.013157514
15	0xbba2f144	-0.0049726088
16	0x3ca23105	0.019798765
17	0x3d6f4e8f	0.05842453
18	0xbd01d9fd	-0.03170203
19	0x3cd152bb	0.025552144
20	0x3bb20a48	0.0054333545
21	0xbc1a9d2a	-0.009436885
22	0x3d17e392	0.037082262
23	0xbbb2cd6e	-0.005456618
24	0xbcfa612f	-0.030563919
25	0x3a11e474	0.0005565353
26	0xbbcab554	-0.006186167
27	0x3bb1f5b4	0.0054309014
28	0x3ce0cfd7	0.027442856
29	0xbab91ace	-0.0014122368
30	0x3acb4c67	0.001551044
31	0x3cef9031	0.02924356

batch_norm_fc1.weight f4 [32]
0	0x3fa86090	1.3154469
1	0x3faa3597	1.3297604
2	0x3f958d8c	1.1683822
3	0x3f99c9b8	1.2014685
4	0x3f9ec74e	1.2404573
5	0x3f69f2c3	0.9138605
6	0x3f8a9d05	1.0829169
7	0x3fa9bd2a	1.3260853
8	0x3fb2a1df	1.3955649
9	0x3f74eed4	0.9567692
10	0x3f92692e	1.1438348
11	0x3f7f9145	0.9983104
12	0x3fa9f801	1.327881
13	0x3f9e4109	1.2363597
14	0x3fa38dd3	1.2777656
15	0x3f9658f4	1.1745896
16	0x3f96faa8	1.1795244
17	0x3f87fb87	1.0623635
18	0x3f686c9a	0.9079071
19	0x3fa623f7	1.2979726
20	0x3f8dc7fb	1.1076654
21	0x3f66f896	0.9022306
22	0x3f97305b	1.1811632
23	0x3f993b78	1.1971273
24	0x3f89b222	1.0757487
25	0x3f99f608	1.2028208
26	0x3f81e1f2	1.0147078
27	0x3fb4f423	1.4137005
28	0x3f94a38e	1.1612413
29	0x3f7cce95	0.9875272
30	0x3f904b90	1.127306
31	0x3f94d2d6	1.1626842

batch_norm_fc1.bias f4 [32]
0	0xbf02e71b	-0.5113389
1	0xbe5e6560	-0.21718359
2	0xbeececb8	-0.46274352
3	0x3e4c9949	0.19980349
4	0xbee86020	-0.45385838
5	0x3eb0d210	0.34535265
6	0x3d52a92e	0.051430874
7	0xbe8e0f5c	-0.27746093
8	0x3c8189a5	0.015812704
9	0xbe1e7131	-0.15472867
10	0xbe52bf82	-0.20580867
11	0xbe659e88	-0.22423756
12	0xbe40213b	-0.18762676
13	0xbf18fa5d	-0.59757024
14	0xbf2f1476	-0.68390596
15	0xbd8e34f6	-0.06943695
16	0xbe8154d5	-0.25260034
17	0x3e329a7c	0.17441744
18	0x3e9b1514	0.3028952
19	0xbf00762a	-0.50180304
20	0xbe69a9ee	-0.2281873
21	0x3dc8fe30	0.098141074
22	0xbde5a2c4	-0.11212686
23	0xbe5accfc	-0.21367258
24	0x3d6e33bb	0.058154803
25	0xbe68d133	-0.22736053
26	0xbde3b6a9	-0.11118824
27	0xbe85d231	-0.26136926
28	0x3e674086	0.22583207
29	0xbe3e430a	-0.18580261
30	0x3dd17d1e	0.10228942
31	0xbf00f932	-0.5038024

batch_norm_fc1.running_mean f4 [32]
0	0xc24337f5	-48.804646
1	0xc2600a39	-56.009983
2	0xc20099cd	-32.150196
3	0xc28048b2	-64.14198
4	0xc22cadec	-43.169846
5	0x418bf860	17.496277
6	0x420d2e6c	35.295334
7	0xc26455d3	-57.083813
8	0xc14a6027	-12.648475
9	0xc19301a0	-18.375793
10	0xc209853a	-34.380104
11	0x413576e9	11.341531
12	0xc22de80f	-43.47662
13	0xc1605aaf	-14.02214
14	0xc0285de6	-2.630731
15	0xc202a98e	-32.66558
16	0xc244f8e6	-49.243065
17	0xc2601aef	-56.026302
18	0x41528aa9	13.158853
19	0xc2134bdd	-36.824085
20	0xc2488afb	-50.135723
21	0x40bf3dc0	5.976288
22	0x41805bac	16.044762
23	0xc196c825	-18.847727
24	0x4239cc0a	46.449257
25	0xc1a383c2	-20.439335
26	0xc130f914	-11.06081
27	0xc195f70a	-18.745625
28	0xc22e5297	-43.580654
29	0x4104e19c	8.30508
30	0xc10256e1	-8.146211
31	0xc1098039	-8.593804

batch_norm_fc1.running_var f4 [32]
0	0x445c29b0	880.65137
1	0x4420994f	642.39545
2	0x4421e721	647.6114
3	0x44a4393c	1313.7886
4	0x44487b7b	801.9294
5	0x442527fd	660.6248
6	0x444b16dd	812.35724
7	0x447bd265	1007.2874
8	0x4467e680	927.60156
9	0x441378fe	589.8905
10	0x445ad561	875.33405
11	0x44194b0a	613.1725
12	0x445b6361	877.5528
13	0x443566a6	725.6039
14	0x44380e06	736.2191
15	0x442a7a3e	681.91003
16	0x44483066	800.7562
17	0x4476676b	985.6159
18	0x440b54ff	557.32806
19	0x449b55db	1242.683
20	0x44360b6d	728.1785
21	0x4410cc46	579.1918
22	0x444e46f4	825.10864
23	0x446cccbc	947.199
24	0x446e67cd	953.6219
25	0x4489273f	1097.2264
26	0x4424ee76	659.72595
27	0x4449061e	804.0956
28	0x449ad698	1238.706
29	0x444de83c	823.62866
30	0x4493cbbc	1182.3667
31	0x4411e9da	583.65393

fc2.weight f4 [10, 32]
0	0x3f1ce03d	0.6127966
1	0xbf32a444	-0.697819
2	0x3d9fbef2	0.07800092
3	0xbfc134a0	-1.5094185
4	0x3e978baa	0.29598743
5	0x3db11506	0.08646588
6	0xbe3ced3a	-0.1844987
7	0xbf6f60dc	-0.9350717
8	0xbef6600a	-0.48120147
9	0xbe0b7fac	-0.13622922
10	0xbf02f2bc	-0.51151633
11	0x3f689270	0.90848446
12	0x3e6761df	0.22595929
13	0x3f936ce0	1.1517601
14	0x3f2a0307	0.6641087
15	0xbe7e7cb0	-0.24852252
16	0xbd22cbda	-0.03974519
17	0xbf6f9f29	-0.93602234
18	0xbf34f6b3	-0.70688933
19	0x3ebcd962	0.368846
20	0xbf0bb35c	-0.54570556
21	0x3ee12aeb	0.43978056
22	0xbf06c6d7	-0.52647156
23	0xbe0ad366	-0.13557205
24	0x3f16d40c	0.5891731
25	0x3f2ef0bb	0.68336076
26	0xbf020621	-0.507906
27	0x3e5a072b	0.21291797
28	0xbed23384	-0.41054928
29	0x3f034a2e	0.51285064
30	0x3f3cc38c	0.7373588
31	0x3c5f0d86	0.013614064
32	0xbee164a7	-0.44022104
33	0xbef4c1d8	-0.4780414
34	0xbf65a079	-0.89697987
35	0xbfbbcd71	-1.4672071
36	0xbfc5df25	-1.5458723
37	0xbf14622f	-0.57962316
38	0x3f64aa0c	0.8932197
39	0xbfa98a40	-1.3245316
40	0x3f6794ac	0.9046123
41	0xbf43a2b3	-0.76420134
42	0xbfb431f0	-1.407774
43	0x3f04dbb0	0.51897717
44	0x3f72e142	0.94874966
45	0xbfae6421	-1.3624307
46	0xbe636965	-0.22208174
47	0xbf4de6f4	-0.8043053
48	0xbef26fff	-0.4735107
49	0xbf08745b	-0.53302544
50	0x3f4a61f9	0.79055744
51	0xbe856396	-0.2605254
52	0x3f290fbd	0.6603964
53	0xbf0abe86	-0.54196966
54	0xbd6014a4	-0.054707184
55	0xbff83117	-1.9389981
56	0xbf31bcd6	-0.69428766
57	0xbf1e7d84	-0.6191027
58	0xbedb0627	-0.4277813
59	0x3f22ae0d	0.6354683
60	0x3d235c5a	0.039882995
61	0x3ef45a13	0.4772497
62	0x3e22e45e	0.15907428
63	0x3fb91be0	1.4461632
64	0x3f228ad8	0.6349311
65	0xbf515506	-0.8177036
66	0x3f826cc2	1.018944
67	0x3f001bc8	0.5004239
68	0xbed66f44	-0.41881764
69	0x3eb2d599	0.34928587
70	0xbfc017b9	-1.500724
71	0xbdf33ce7	-0.118768506
72	0xbf9e111f	-1.2348975
73	0xbe1dc2da	-0.15406361
74	0x3ea42f20	0.32067204
75	0x3e33b320	0.175488
76	0xbefa561e	-0.48893827
77	0x3ebf46ae	0.37358612
78	0xbf1657ca	-0.58727705
79	0xbf30902f	-0.68970007
80	0x3e8eef51	0.2791696
81	0xbeb3d804	-0.35125744
82	0x3f2f8f1f	0.6857776
83	0x3f7914e6	0.97297513
84	0x3f473687	0.7781758
85	0x3ea2a65b	0.31767544
86	0x3dacb714	0.08433357
87	0x3f1a6546	0.6031078
88	0x3c303431	0.010754631
89	0x3e576c87	0.21037494
90	0xbf5f4ed3	-0.8722965
91	0xbf8faff7	-1.1225575
92	0xbec9ed1b	-0.3943871
93	0xbe9fe5d3	-0.3123003
94	0xbe8c8e0d	-0.27452126
95	0xbe72e933	-0.23721771
96	0xbd4be025	-0.049774308
97	0x3ede656b	0.4343675
98	0xbed82fed	-0.42224064
99	0x3f1fac88	0.62372637
100	0x3eb94f48	0.361933
101	0xbd104f64	-0.035231963
102	0x3e91b581	0.2845879
103	0xbf184a7f	-0.5948867
104	0xbe4a8b5d	-0.19779725
105	0x3dd72544	0.10505155
106	0xbf01e4f1	-0.5073996
107	0xbf0dab0a	-0.5533911
108	0xbf7706bc	-0.9649465
109	0x3df1c469	0.118050404
110	0xbed4d899	-0.415715
111	0xbd8e2225	-0.06940106
112	0xbd8653c2	-0.06558944
113	0x3d49836a	0.04919759
114	0x3d1c0156	0.03808721
115	0xbd89a3dd	-0.067207076
116	0xbf034f34	-0.5129273
117	0x3eb840a6	0.35986823
118	0xbed46f44	-0.4149114
119	0x3e0731e1	0.13202621
120	0x3ef6a936	0.48175973
121	0x3c6980cf	0.014251902
122	0x3f1fb9fe	0.62393177
123	0xbed2cf87	-0.41173956
124	0xbeadfdfa	-0.3398283
125	0xbfa78371	-1.3086988
126	0xbf58d0f6	-0.8469385
127	0xbe41bdf2	-0.18920115
128	0x3e26190f	0.16220497
129	0xbf321d80	-0.69576263
130	0x3e8385b7	0.25687954
131	0x3eeb4217	0.4594886
132	0xbf3f446e	-0.7471379
133	0xbf67a315	-0.9048322
134	0xbef154d5	-0.47135034
135	0x3f4a8ab1	0.79117876
136	0xbf92836f	-1.144636
137	0x3e979589	0.29606274
138	0x3f14f6b9	0.5818897
139	0xbf6d3d4c	-0.92671657
140	0xbe38cafb	-0.18046181
141	0x3e8d1cfb	0.27561173
142	0xbf057295	-0.52127963
143	0xbf09395d	-0.53603154
144	0xbf180b47	-0.5939221
145	0x3f82ccc6	1.0218742
146	0xbface780	-1.3508148
147	0xbf0033c8	-0.5007901
148	0xbf53e7f1	-0.8277579
149	0x3f249d6a	0.64302695
150	0x3e46802f	0.19384836
151	0xbe4ac1d1	-0.19800498
152	0xbebad8c7	-0.36493513
153	0xbfaf7738	-1.3708258
154	0xbec591a7	-0.38587686
155	0xbf05ae09	-0.5221868
156	0xbd132b45	-0.035929937
157	0x3f1fd647	0.62436336
158	0x3f15e138	0.5854678
159	0xbe74d059	-0.23907603
160	0xbf94f130	-1.1636105
161	0x3ed2167f	0.41032788
162	0x3e2f7f7c	0.17138475
163	0xbe3c704a	-0.1840221
164	0x3f1acbde	0.60467327
165	0x3f192176	0.5981668
166	0x3ee0f8cf	0.43939826
167	0x3e321b16	0.17393145
168	0xbe8e66cc	-0.27812803
169	0xbebfd400	-0.3746643
170	0xbbb6072f	-0.0055550556
171	0xbda06e75	-0.07833568
172	0xbf93a8db	-1.1535906
173	0xbee37796	-0.44427174
174	0x3d73d451	0.059528653
175	0xbecc250c	-0.39872015
176	0x3ecd074c	0.4004463
177	0x3f402acb	0.75065297
178	0xbec97210	-0.39344835
179	0xbe6d0971	-0.23148133
180	0xbf0a7820	-0.54089546
181	0xbf04b6db	-0.51841515
182	0xbe854cfe	-0.26035303
183	0x3f578b9b	0.84197396
184	0x3f5528bc	0.8326528
185	0xbf01d3c8	-0.5071378
186	0x3e7adee1	0.24499084
187	0xbdc8ea21	-0.098102815
188	0xbee7cefc	-0.45275104
189	0xbf68eb9c	-0.9098451
190	0xbfa82ca1	-1.313862
191	0xbe5017d9	-0.20321597
192	0x3f1c4963	0.6104948
193	0x3f7b9c5d	0.98285466
194	0xbf54ae4c	-0.83078456
195	0x3eeaddf0	0.4587245
196	0xbf00391b	-0.50087136
197	0xbfa098b9	-1.2546607
198	0x3ddf0112	0.10888876
199	0x3e0da5bf	0.13832758
200	0xbf2faf24	-0.6862662
201	0xbf9373a8	-1.151967
202	0x3ef5e617	0.48027107
203	0x3f2c4b48	0.6730237
204	0xbecbb00b	-0.39782748
205	0xbebb33fb	-0.36563095
206	0xbfa82972	-1.3137648
207	0xbf8f0864	-1.1174436
208	0x3f415d7e	0.7553328
209	0xbea0cbec	-0.3140558
210	0xbf259970	-0.6468725
211	0x3f28b73a	0.6590458
212	0xbf32fbe1	-0.69915587
213	0xbf977f0b	-1.1835645
214	0x3f17e4b9	0.5933338
215	0x3ed9018d	0.42383996
216	0xbf3de209	-0.7417303
217	0x3ee61260	0.44935894
218	0xbe33fa57	-0.17575966
219	0xbf0878b9	-0.5330921
220	0x3f26891e	0.65052974
221	0xbf82d752	-1.022196
222	0xbf05a805	-0.522095
223	0x3e2b6c31	0.1674049
224	0xbf965826	-1.1745651
225	0xbf201987	-0.6253895
226	0xbf20ad2a	-0.6276423
227	0x3e7513e8	0.23933375
228	0xbdaa308a	-0.08310039
229	0x3f6ab57e	0.91683185
230	0x3d97f6f7	0.07420152
231	0x3f66ab5e	0.90105236
232	0xbf33c651	-0.7022448
233	0x3f4531e0	0.7702923
234	0xbecbcbd8	-0.39803958
235	0x3f0a7b04	0.54093957
236	0xbf5df784	-0.86705804
237	0xbe9c35f1	-0.30509904
238	0x3fb27e81	1.3944856
239	0xbe49449c	-0.19655079
240	0xbf92d893	-1.1472343
241	0xbed773e4	-0.42080605
242	0xbedec37b	-0.43508515
243	0xbf915d5d	-1.1356617
244	0xbf86aa7d	-1.0520779
245	0x3ecb575f	0.39715096
246	0x3f62ea60	0.8863888
247	0xbf11a489	-0.56891686
248	0xbee40093	-0.44531688
249	0xbf3a712d	-0.7282894
250	0x3e53f2ab	0.20698039
251	0xbe8c4c4c	-0.2740196
252	0xbf8239eb	-1.0173925
253	0x3edcfb3f	0.43160436
254	0xbfdb8dea	-1.7152684
255	0xbe6f9f18	-0.23400533

fc2.bias f4 [10]
0	0xbeb3def0	-0.35131025
1	0xbec5d4ef	-0.38639018
2	0xbdfd62f3	-0.12372389
3	0x3f0b7472	0.54474556
4	0x3f2471a3	0.64235896
5	0xbe136fe1	-0.14398147
6	0xbea61435	-0.32437292
7	0x3f1fa12a	0.6235529
8	0xbef4e555	-0.47831216
9	0x3eaafd2e	0.33396286
