CIFAR-con-da/production/production-model-ResNet18.pt (torch, 145696 bytes, 20 tensors)

conv1.weight f4 [8, 3, 3, 3]
0	0xbed0212e	-0.40650314
1	0xc03bc0ba	-2.933638
2	0xbcfbcf96	-0.030738633
3	0xc01748f9	-2.363829
4	0xc077b1f9	-3.8702376
5	0xbfc0a375	-1.5049883
6	0xbf817da4	-1.0116467
7	0xc0415c2f	-3.0212514
8	0x3ea5eb7d	0.32406226
9	0xbf73ea16	-0.9527906
10	0xbf75ad0d	-0.9596718
11	0xbea9d596	-0.33170766
12	0xbf0f11eb	-0.55886716
13	0x3eb6237e	0.35573953
14	0x3f1230c5	0.57105666
15	0xbf568d57	-0.8380942
16	0xbfb05d2f	-1.3778437
17	0x3ef481bd	0.47755232
18	0x3e8e6184	0.27808774
19	0x3fec9ca0	1.8485298
20	0x3e6a375e	0.22872683
21	0x40115a9b	2.271155
22	0x4095128a	4.658513
23	0x40225fed	2.5371048
24	0x3f4fdba1	0.811945
25	0x3fb3e9f2	1.405577
26	0x3f90dba1	1.1317025
27	0xbfff35e4	-1.9938321
28	0x3eecefdd	0.4627675
29	0x3eb3497c	0.35017002
30	0x3e522062	0.20520166
31	0x407f9258	3.993307
32	0x405f13ee	3.4855914
33	0xbf9d584d	-1.2292572
34	0x3fd05b9f	1.627796
35	0x3fcccb43	1.599953
36	0xbe07d8d8	-0.13266313
37	0xbfb9a071	-1.4502088
38	0xbe917453	-0.2840906
39	0xbfc1c4eb	-1.513822
40	0xc05ff15e	-3.499107
41	0xc024fdaf	-2.5779836
42	0xbf30f2f9	-0.69120747
43	0xc02d183b	-2.704604
44	0xbffe006e	-1.9843881
45	0x3ffad1dc	1.9595294
46	0x3f022c7c	0.5084913
47	0x3ece8efb	0.4034346
48	0x3fccfc38	1.6014471
49	0xbf74274d	-0.9537247
50	0xc022ee93	-2.5458114
51	0x4007cbef	2.121822
52	0x3f1b2be7	0.60613865
53	0xbf2a3a3f	-0.66495126
54	0xbf2ea3e1	-0.6821881
55	0x3ffbec4d	1.9681488
56	0xbf9bb348	-1.2164087
57	0x3e2f65b9	0.17128648
58	0x4028cb93	2.6374252
59	0xc03ceb5d	-2.9518654
60	0x3d174890	0.036934435
61	0x3f5e5b34	0.86857915
62	0xc0185093	-2.3799179
63	0xbefcab34	-0.49349368
64	0x4023178a	2.5483117
65	0xbf96e817	-1.1789578
66	0x3f1b009b	0.605478
67	0x404847ef	3.1293905
68	0xc03a2c16	-2.9089408
69	0xbd3f48c3	-0.04670025
70	0x3fc45182	1.5337374
71	0xc00ba2f7	-2.1818216
72	0xbfbbd9ec	-1.467588
73	0x3fcad09e	1.5844915
74	0xbf387ea2	-0.72068226
75	0xbf48d7e0	-0.784544
76	0x40061f7a	2.0956712
77	0xc01283df	-2.2892988
78	0xbd84f52d	-0.06492076
79	0x3fbfc62c	1.4982352
80	0xbf2153e7	-0.6301865
81	0x3f0026ae	0.5005902
82	0x3fb2c70b	1.3966993
83	0xbfb9f5ac	-1.4528098
84	0xbfe923c3	-1.8214039
85	0x403264cb	2.787402
86	0x3ed5dd6a	0.41770488
87	0xbfa5b8d9	-1.2947036
88	0xbf8cfa16	-1.101382
89	0x3f3a36f1	0.72740084
90	0x3e63d2ac	0.22248334
91	0x3f815287	1.010331
92	0xbffeb4de	-1.9898946
93	0xbfeeb947	-1.8650292
94	0x405fe602	3.4984136
95	0x3fd703c5	1.6798025
96	0xbfe905e6	-1.8204925
97	0xbfcb5697	-1.58858
98	0x3f7b19d1	0.9808627
99	0x3f0ff2c1	0.5622979
100	0x3fd470e8	1.6596956
101	0xc0207f74	-2.5077791
102	0xbf49e435	-0.7886384
103	0x408f398b	4.4757743
104	0x3fd2bf16	1.6464565
105	0xc03b9029	-2.9306738
106	0xbfd54736	-1.6662357
107	0x3f09996a	0.53749716
108	0xbe4b4504	-0.19850546
109	0xc08d8862	-4.4228983
110	0xc06a1213	-3.6573532
111	0x3ff64a65	1.9241453
112	0x3fd47ce5	1.6600615
113	0xbf2d4061	-0.6767636
114	0x3fa8f6cf	1.320032
115	0x3fcf286d	1.6184212
116	0x3fa34b01	1.2757264
117	0x3fa98dc7	1.3246392
118	0xbf9385ac	-1.1525168
119	0x3d1326b4	0.035925582
120	0x3fe23445	1.7672201
121	0x40192d36	2.3933845
122	0xbe8393e2	-0.25698763
123	0xbf47ed00	-0.7809601
124	0x3f7c143f	0.98468393
125	0x3f789860	0.97107506
126	0x401a54e6	2.4114318
127	0xbfbcc649	-1.4748012
128	0x3fbb3887	1.4626626
129	0xbf17eb46	-0.59343374
130	0xc0082d1e	-2.1277537
131	0xc0a0efdf	-5.029281
132	0xbfc74997	-1.5569333
133	0xbf93636b	-1.1514715
134	0xbf6d3155	-0.926534
135	0xbe0b635d	-0.13612123
136	0xbf2b2712	-0.6685649
137	0x3fa2421d	1.2676426
138	0xbff9f00f	-1.9526385
139	0x3f99ffa9	1.2031146
140	0x4033ff97	2.812475
141	0x3e0b017d	0.13574786
142	0x400e19f6	2.2203345
143	0xbf5e7b6b	-0.8690707
144	0xbfcdf31d	-1.6089817
145	0xbfb9c340	-1.451271
146	0x3f8ee6d6	1.1164196
147	0xc055f75d	-3.3432229
148	0x3f262adc	0.6490915
149	0x4043a45f	3.0569074
150	0xbf5cbb0f	-0.8622293
151	0x3fff0c7f	1.9925689
152	0xbec8d045	-0.39221397
153	0xc016ca3c	-2.3560934
154	0xbf0f0749	-0.5587049
155	0x3fc2914b	1.520059
156	0xc05b74f6	-3.4290137
157	0x400d4537	2.2073495
158	0x40341868	2.8139896
159	0xbedc540b	-0.4303287
160	0x40605a57	3.505514
161	0xbf803cdf	-1.0018576
162	0x3f91c6ac	1.1388755
163	0xbf2c7343	-0.67363375
164	0x3ea847b5	0.32867208
165	0xbfe0a60e	-1.7550676
166	0xc071c889	-3.7778647
167	0xbd8d04fb	-0.068857156
168	0x3ecc0f00	0.39855194
169	0x40687009	3.631838
170	0x3f6096e9	0.8773027
171	0x3fe1331e	1.7593725
172	0x3e03afec	0.12860078
173	0xbe768c1a	-0.24076882
174	0xbfbde600	-1.4835815
175	0xc064b85e	-3.5737529
176	0xbe80fbdc	-0.25192153
177	0xbc1bcadc	-0.009508815
178	0x406ab39c	3.6672125
179	0x3d93b988	0.07213122
180	0x3f419db4	0.7563126
181	0xbd90c278	-0.07068342
182	0xbefb6caa	-0.49106342
183	0xbf96830c	-1.1758742
184	0xc034973d	-2.8217309
185	0x3ea9ba8b	0.33150133
186	0x3db244c7	0.087045245
187	0x402dea46	2.717424
188	0x3de6d179	0.112704225
189	0x40561d73	3.3455474
190	0xbe85c1b5	-0.2612435
191	0x3fab82eb	1.3399328
192	0x3e54f3b5	0.20796092
193	0xc02d5dac	-2.7088423
194	0xbf0c1cca	-0.5473143
195	0x3fbafecb	1.4609007
196	0xbf8a9375	-1.082625
197	0x3f091cf1	0.53559786
198	0xbf1c34b0	-0.61017895
199	0xbf8f7be0	-1.1209679
200	0xbfa88ffd	-1.3168942
201	0xbea94145	-0.3305761
202	0xbfbc36be	-1.4704206
203	0xbf5c39aa	-0.8602549
204	0xbf6cd80d	-0.9251717
205	0xbfa609a4	-1.2971692
206	0xbf443f0c	-0.766587
207	0xbfeefc49	-1.8670741
208	0x3fb64ebf	1.4242781
209	0xc02f0869	-2.7348883
210	0x4046af16	3.1044364
211	0x40acd5dd	5.4011064
212	0x3fc1310e	1.5093095
213	0x3f096cf0	0.5368185
214	0x404b140a	3.173098
215	0x3f09835f	0.5371608

conv1.bias f4 [8]
0	0x3f4d032d	0.8008297
1	0x3f6f72e6	0.93534696
2	0xbef62736	-0.4807679
3	0x3f46c257	0.7764029
4	0x3d9c18b2	0.07621898
5	0x3f244c51	0.6417895
6	0xbf636720	-0.8882923
7	0xbf46332a	-0.7742182

batch_norm_conv1.weight f4 [8]
0	0x400bc686	2.183992
1	0x4026605e	2.5996318
2	0x4041e94e	3.0298648
3	0x4037c840	2.8715973
4	0x4025b009	2.5888693
5	0x4022c142	2.5430455
6	0x403c65f2	2.9437222
7	0x3fc468bb	1.5344461

batch_norm_conv1.bias f4 [8]
0	0x3f8794a7	1.059224
1	0x3fa4c93c	1.2873912
2	0x3f64fd6e	0.89449203
3	0x3dfb6b0f	0.12276279
4	0x3f53922d	0.8264492
5	0x3f8ec676	1.1154315
6	0x3b4e9fa4	0.0031528259
7	0x3fed5a33	1.8543152

batch_norm_conv1.running_mean f4 [8]
0	0xbece9437	-0.40347454
1	0x3fa103c3	1.2579273
2	0xbef0316e	-0.46912712
3	0x3ef61b7c	0.48067844
4	0x3f97f2d7	1.1870984
5	0x3bb865e4	0.0056273807
6	0xbf3669c1	-0.7125512
7	0xbffece83	-1.9906772

batch_norm_conv1.running_var f4 [8]
0	0x41badd68	23.358109
1	0x40e0d3f0	7.0258713
2	0x412c8426	10.782263
3	0x413f1018	11.941429
4	0x417d0a91	15.81508
5	0x41dcf4ea	27.619587
6	0x4104f7d0	8.310501
7	0x413630ed	11.386945

conv2.weight f4 [16, 8, 3, 3]
0	0x3f6144f4	0.8799584
1	0x3f0d5533	0.5520813
2	0xc04f4218	-3.238409
3	0x4025a886	2.5884109
4	0x4084466f	4.133598
5	0xbf5f6b63	-0.87273234
6	0xbede74df	-0.4344854
7	0x40293b6c	2.6442518
8	0xbf6e061f	-0.9297809
9	0xbf6fd821	-0.9368916
10	0xc0c20c4f	-6.0640025
11	0x404dd911	3.2163737
12	0xc0d460df	-6.636825
13	0xc139a04c	-11.601635
14	0x3f56025c	0.8359735
15	0x3f80cdac	1.0062766
16	0xbf038151	-0.51369196
17	0x3ffb7636	1.964545
18	0xbf092d7e	-0.5358504
19	0x3f67b85e	0.90515697
20	0xbf020bff	-0.50799555
21	0x40024866	2.0356688
22	0x3f863952	1.0486243
23	0x3ebb38ba	0.36566716
24	0x3f692da9	0.91085297
25	0x3df9e560	0.12201953
26	0xbf894cf6	-1.0726612
27	0x3f80a56a	1.005048
28	0x3e32972c	0.1744048
29	0x40218b35	2.5241215
30	0xbe31900d	-0.17340107
31	0xbe8b7515	-0.27237764
32	0x3e9ae25d	0.30250826
33	0xbee41994	-0.44550765
34	0x3f7c3302	0.9851533
35	0xbf91d147	-1.1391991
36	0x3f8086a5	1.004109
37	0x3f88a405	1.0675055
38	0x3f74b893	0.9559414
39	0x3f2c5316	0.6731428
40	0x3e88d9af	0.2672858
41	0xbefbf79a	-0.49212343
42	0x3db7f5c4	0.08982423
43	0xbfdf8cad	-1.7464806
44	0xbf2bc3b0	-0.6709547
45	0xbcacaac4	-0.021077521
46	0xbf1b21d7	-0.6059851
47	0x3edb4032	0.42822415
48	0xbfb6d137	-1.4282597
49	0xc01dcd4b	-2.465655
50	0x3e7b0886	0.2451497
51	0x3d2b0968	0.041757017
52	0xbef3679c	-0.47539985
53	0x3f3b425a	0.7314812
54	0x3fbcc7f0	1.4748516
55	0xbfb33a33	-1.4002136
56	0xbc135528	-0.008992471
57	0x3f474841	0.77844626
58	0x3ebd4375	0.36965528
59	0xbf19dd21	-0.6010304
60	0x3e5dadb7	0.21648298
61	0x3ecb6480	0.39725113
62	0xbe5c987c	-0.21542543
63	0xbdd93115	-0.10605065
64	0xbfce419e	-1.6113775
65	0xbf3c4917	-0.73549026
66	0xc0a55c7f	-5.167541
67	0xc00a991f	-2.1655958
68	0xbac68062	-0.0015144462
69	0xbfb0740e	-1.3785417
70	0x400fe55a	2.2483735
71	0x3d620eec	0.05519001
72	0xbbea6082	-0.007152618
73	0xbe1138fe	-0.14181897
74	0xbf8de625	-1.108586
75	0xbef14b7b	-0.471279
76	0xc0190b34	-2.3913088
77	0x3d91f746	0.07127242
78	0x3db7b308	0.089696944
79	0x3e109c4c	0.14122123
80	0x4007e07e	2.123077
81	0xbf40c894	-0.7530606
82	0xbf888b8f	-1.066759
83	0x3fd22126	1.6416366
84	0xbf267158	-0.650167
85	0x3f144882	0.5792314
86	0x3f2bd8ce	0.6712769
87	0x4030683f	2.7563627
88	0x3fa3317f	1.274948
89	0xbfc5e772	-1.5461257
90	0xbe5df8c1	-0.21676923
91	0x3f3a0cf9	0.72676045
92	0x404149db	3.0201328
93	0x3e6b1f9d	0.22961278
94	0x3ff75b80	1.9324799
95	0x3f515e27	0.8178429
96	0x403e0742	2.969193
97	0x3f6af90a	0.91786253
98	0xbfa3c3f2	-1.2794173
99	0x3ec1c36a	0.37844402
100	0x3fb1fee2	1.3905909
101	0xbfe7656b	-1.8077825
102	0xbd3723a5	-0.044711728
103	0xc04aa462	-3.1662831
104	0xc0af8c5c	-5.4858837
105	0xbf019537	-0.5061831
106	0xc036f397	-2.8586175
107	0xbfd696c0	-1.6764755
108	0xbee2913d	-0.44251433
109	0xbec61d9e	-0.3869447
110	0x3e8b4abe	0.2720546
111	0xbfbc174b	-1.4694608
112	0xbf661cf8	-0.8988795
113	0x40016b0b	2.0221584
114	0xbf7d3820	-0.98913765
115	0x3fdd1094	1.7270684
116	0xbedd05b7	-0.43168423
117	0x3f4ef892	0.8084804
118	0x3f33d2de	0.7024363
119	0xbfebec06	-1.8431404
120	0x3f1f8215	0.62307864
121	0xbea27bc8	-0.31735063
122	0xbf28c079	-0.6591869
123	0xc0616a02	-3.5220952
124	0xc0a2bd03	-5.0855727
125	0x40a56761	5.1688695
126	0xbf13a49c	-0.5767305
127	0x3fd19257	1.6372784
128	0x3f3a5732	0.727893
129	0xbe086f6a	-0.13323751
130	0xc04b6452	-3.177998
131	0x40656873	3.5845
132	0xbf5d12fd	-0.863571
133	0xbea4b58d	-0.32169762
134	0x3fe51060	1.7895622
135	0x400340a7	2.050821
136	0x3f3da74b	0.74083394
137	0xbfec980e	-1.8483903
138	0x403d0860	2.9536362
139	0x3f91fafa	1.1404717
140	0xc080a5c8	-4.020237
141	0x3fea5d03	1.8309635
142	0xc0125df8	-2.2869854
143	0xc0bc6074	-5.886774
144	0xbf2af787	-0.66783947
145	0xbece8c57	-0.40341446
146	0x401ad84e	2.4194522
147	0x3ed718e6	0.42011184
148	0x3e612c15	0.21989472
149	0x3e2884b3	0.1645687
150	0x3f300662	0.6875974
151	0xbf1f2ba5	-0.6217597
152	0xc00318e1	-2.0483935
153	0x3f4e5083	0.805916
154	0x3f4bf23d	0.796665
155	0xbef99cc0	-0.48752403
156	0xbf7dcdf9	-0.99142414
157	0xbfdf1a5e	-1.7429922
158	0x3fb90279	1.445388
159	0x3f7b1c8e	0.98090446
160	0xbefaceaf	-0.48985812
161	0xbf3f03d2	-0.74615204
162	0x3f3e1b1e	0.7426013
163	0xbd238cb1	-0.039929096
164	0xc0225ab0	-2.5367851
165	0xbf38bd64	-0.7216399
166	0x3f45418b	0.77053136
167	0x3ce94028	0.028472975
168	0xbd9120ac	-0.0708631
169	0xc034df12	-2.8261151
170	0xbf09fd25	-0.5390189
171	0xc00e4175	-2.2227452
172	0xbecc2bd3	-0.39877185
173	0x40f568dc	7.66905
174	0x401228bf	2.283737
175	0x405158c9	3.271044
176	0x3f33f4a4	0.70295167
177	0xbcc7aa94	-0.02437333
178	0x4030cd5a	2.7625337
179	0x3f8ec183	1.1152805
180	0x409d2259	4.910443
181	0x3f584562	0.8448087
182	0xbfc6f367	-1.554303
183	0xbf54f555	-0.83186847
184	0x405f8974	3.4927645
185	0x3fdcc1df	1.7246665
186	0xc048bf96	-3.1366935
187	0xbfb8d4e5	-1.443997
188	0x409b6561	4.8561254
189	0x3bde0bab	0.0067762933
190	0xc0077e64	-2.1170893
191	0xbfdd21fb	-1.7275995
192	0xbfc58c9c	-1.5433536
193	0xbfe6bb42	-1.8025897
194	0xc01ffcc8	-2.4998035
195	0x3d3fc639	0.0468199
196	0xbf8fb885	-1.1228186
197	0xbfea6165	-1.8310972
198	0x3f7f94bb	0.9983632
199	0x3e17cbc2	0.14823821
200	0xbf38deaa	-0.7221476
201	0xc0196de6	-2.3973327
202	0x3e1af937	0.1513413
203	0x4007250c	2.1116362
204	0x3eb55319	0.3541496
205	0xbfaa47f3	-1.3303207
206	0x3ff84199	1.9395019
207	0xbf3745a8	-0.7159066
208	0xbfa8c293	-1.3184379
209	0x3f69affc	0.91284156
210	0x3e905e29	0.28196838
211	0x3fc7399a	1.5564454
212	0x3f85e757	1.0461224
213	0x3fbe92ee	1.4888589
214	0x3f9067db	1.1281694
215	0x40078e22	2.11805
216	0x40390191	2.8907206
217	0x3f2a38b9	0.664928
218	0xc03ed19c	-2.9815435
219	0x3fc5bd63	1.5448421
220	0x3f783f7a	0.9697186
221	0xbfc241c9	-1.5176326
222	0x3f02b683	0.5105974
223	0x3f586baa	0.8453928
224	0xbf261af9	-0.64884907
225	0x3fe79283	1.8091587
226	0xc00db0a2	-2.2139058
227	0x3f49b76f	0.7879552
228	0x3fbaf4a6	1.4605911
229	0xbf1af3cc	-0.60528255
230	0xc051b4dc	-3.2766638
231	0x3e775e53	0.24157076
232	0x3fa102e4	1.2579007
233	0x3f297eb5	0.66208965
234	0xbe96b3fe	-0.29434198
235	0xc0690faa	-3.641581
236	0x3b63915c	0.0034724092
237	0xbdac2da1	-0.084071405
238	0xc0eaf357	-7.3422046
239	0xc0105a6c	-2.255519
240	0x3e1bc14a	0.15210453
241	0x3da73456	0.08164279
242	0xbf00e6d3	-0.5035221
243	0xbf3c87a1	-0.73644453
244	0x3ff90221	1.9453775
245	0x3e09991f	0.13437317
246	0xbfef5bd4	-1.8699899
247	0x3f4cadda	0.79952776
248	0x3fe22ad0	1.7669315
249	0xbf489f57	-0.78368133
250	0xbeefd830	-0.46844625
251	0x3fd68ea0	1.6762276
252	0x3f98067b	1.1876978
253	0xc0677998	-3.6167965
254	0x3faff345	1.3746115
255	0x402719eb	2.610957

conv2.bias f4 [16]
0	0xbe56f3b7	-0.20991407
1	0x3e2c82b4	0.16846734
2	0x3e5dff50	0.21679425
3	0xbdff4310	-0.12463963
4	0x3db63a8e	0.08897887
5	0x3dd82316	0.10553567
6	0x3e0fc52a	0.14040056
7	0x3c65f839	0.014036232
8	0x3e29cbbd	0.16581626
9	0xbdf7c60d	-0.12098322
10	0x3e3dd7cd	0.18539353
11	0x3e39100d	0.18072529
12	0xbe17f623	-0.14839987
13	0xbe2d2a78	-0.16910732
14	0xbe8c8285	-0.27443328
15	0x3e40a114	0.18811446

batch_norm_conv2.weight f4 [16]
0	0x3fe75fd3	1.8076118
1	0x40096460	2.1467514
2	0x3fbd1c70	1.4774303
3	0x40597b16	3.3981376
4	0x3fe5c520	1.7950783
5	0x40060d3d	2.094558
6	0x3ff764a3	1.9327587
7	0x40435de8	3.0526066
8	0x4010cc01	2.2624514
9	0x40192f41	2.3935091
10	0x409ece28	4.9626656
11	0x4049988c	3.1499357
12	0x40421099	3.032263
13	0x40062598	2.0960445
14	0x3fb80abb	1.4378275
15	0x3fe41065	1.7817503

batch_norm_conv2.bias f4 [16]
0	0x3f045ed3	0.5170719
1	0xbe57a436	-0.21058735
2	0x3e8a2e00	0.2698822
3	0xbff18e04	-1.8871465
4	0xbe8f06d0	-0.27934885
5	0x3f17eb83	0.5934374
6	0xbf8e68e5	-1.1125761
7	0xbfd52db4	-1.6654572
8	0xbf92048a	-1.1407635
9	0xbfae9a1d	-1.3640782
10	0xc04a916f	-3.1651266
11	0xbfd46e4b	-1.6596159
12	0xc00a833d	-2.1642601
13	0xbf27b2c1	-0.6550713
14	0xbce600fe	-0.028076645
15	0x3e285c02	0.16441348

batch_norm_conv2.running_mean f4 [16]
0	0xc227eed5	-41.983234
1	0xc1907b89	-18.06032
2	0x41a25195	20.289835
3	0xc2aeb9f4	-87.36319
4	0x40b05d4a	5.511388
5	0xc2ad8df5	-86.77726
6	0xc209007c	-34.250473
7	0xc25c56d9	-55.084812
8	0xc238c16d	-46.188892
9	0xc165fadb	-14.373744
10	0xc2f91264	-124.53592
11	0xc2974961	-75.64332
12	0xc210fa56	-36.24447
13	0xc20c093d	-35.00902
14	0xc0ca6c2d	-6.325705
15	0xc12e95b1	-10.911546

batch_norm_conv2.running_var f4 [16]
0	0x44ba15e1	1488.6837
1	0x4507e91a	2174.5688
2	0x447b71bc	1005.7771
3	0x455c80da	3528.0532
4	0x44bf0055	1528.0104
5	0x4500e49e	2062.2886
6	0x44d82dcb	1729.431
7	0x44c38b68	1564.3564
8	0x448a7957	1107.7919
9	0x4515da12	2397.6294
10	0x45827128	4174.1445
11	0x4551baf6	3355.685
12	0x44bbba9d	1501.8317
13	0x44882115	1089.0338
14	0x443343e0	717.06055
15	0x44925c82	1170.8909

fc1.weight f4 [32, 1024]
0	0xc0915ec8	-4.54282
1	0x3f1cd280	0.612587
2	0xbfc0a0b9	-1.5049049
3	0xc01e1836	-2.4702277
4	0xbf68601f	-0.9077167
5	0x3c3083fc	0.010773655
6	0xbfb6c2a8	-1.4278154
7	0xbf8ae45a	-1.0850937
8	0xc02e4773	-2.723111
9	0xbee9ee26	-0.45689505
10	0xbfa22656	-1.2667949
11	0x3feff9ae	1.8748071
12	0x40331235	2.7979863
13	0x3f68fa38	0.91006804
14	0x3f143d64	0.57906175
15	0x3f1effb8	0.62108946
16	0xc07b4b81	-3.9264834
17	0xbd28cd65	-0.041211504
18	0x3f382143	0.71925753
19	0x405139a0	3.2691422
20	0x4019a2c8	2.4005604
21	0x40373981	2.8628848
22	0xbefe103d	-0.49621764
23	0xc0164c87	-2.3484209
24	0xbff5111d	-1.9145848
25	0x3e6a17cf	0.22860645
26	0x3ce83f9c	0.028350644
27	0x3fb547f9	1.4162589
28	0x3f04a8f2	0.5182029
29	0xbe270d51	-0.16313674
30	0x3fb9392c	1.4470572
31	0xbf5e3fc2	-0.86816037
32	0xbfc3bf28	-1.5292711
33	0x400ed760	2.2318954
34	0x3fc658cf	1.5495852
35	0xbfef6e8e	-1.8705614
36	0xbf24b62c	-0.6434047
37	0xbeed6c38	-0.46371627
38	0x403a9d89	2.9158652
39	0xbf2af59c	-0.6678102
40	0xc02428a3	-2.5649803
41	0x3fa917d2	1.3210394
42	0x3f6e986d	0.93201333
43	0xbfca2672	-1.5792983
44	0xbff3a71e	-1.9035375
45	0x3fe7ac43	1.8099445
46	0x3ffebada	1.9900773
47	0xbf7324a1	-0.94977766
48	0xbe4d038b	-0.20020883
49	0xbf14b3cb	-0.5808684
50	0xbf927c13	-1.1444114
51	0xbfd9fcaf	-1.7030238
52	0x3f439ba5	0.7640937
53	0x3f3d2110	0.73878574
54	0x3f336e23	0.7008993
55	0x3f4bf809	0.79675347
56	0xc0191154	-2.3916826
57	0xbf1df902	-0.6170808
58	0x3faf0651	1.3673803
59	0x3fb033bf	1.3765792
60	0xbec15d1c	-0.3776635
61	0x40231335	2.5480473
62	0x40249585	2.571626
63	0xbd9026d5	-0.070386566
64	0x40013798	2.0190182
65	0x3ecd7b3b	0.4013308
66	0xbf841d58	-1.0321455
67	0x3f6a8a48	0.9161725
68	0xbf8e988a	-1.1140301
69	0xbffb4354	-1.9629922
70	0xbef323ce	-0.47488254
71	0xbfe370f9	-1.7768852
72	0x403f0859	2.9848845
73	0x3eba185d	0.36346713
74	0x3f1683cd	0.5879486
75	0xbf9b5578	-1.2135458
76	0xc05a94b8	-3.415327
77	0xbfd3ff73	-1.6562332
78	0x3f23e14b	0.64015645
79	0xbf06d800	-0.5267334
80	0x3f1902b8	0.59769773
81	0x3fb4b9cb	1.41192
82	0xbf3ada2e	-0.72989166
83	0xc00f42ea	-2.238459
84	0xbfa1c691	-1.2638723
85	0x3f59a52a	0.85017645
86	0x3f66cf60	0.9016018
87	0x3f6619d8	0.89883184
88	0x3f921bfd	1.1414791
89	0x3d5d5051	0.054031674
90	0xbf12962e	-0.57260406
91	0xc00ea992	-2.2290998
92	0xc0066a97	-2.1002557
93	0x3fd22359	1.6417037
94	0xbea76ecb	-0.32701716
95	0xbfa7bce0	-1.3104515
96	0xbfa87ee1	-1.316372
97	0xbf0f3d04	-0.5595248
98	0xbf951fe3	-1.1650356
99	0xc0362adc	-2.846366
100	0x3ff8a925	1.9426619
101	0x40423175	3.0342686
102	0x40134975	2.3013585
103	0x3fb30600	1.3986206
104	0x3ff27f84	1.8945165
105	0xbe8fbaac	-0.28072107
106	0x3f96a5d4	1.1769357
107	0xbc9a802f	-0.01885995
108	0xbd9b015e	-0.0756862
109	0x3de08fe9	0.10964949
110	0x3e85ffdf	0.26171777
111	0x3e0147d9	0.12625064
112	0xc00b9bbe	-2.1813807
113	0xc0743b0a	-3.8161035
114	0xbff49b6c	-1.9109931
115	0xbf72fbc1	-0.94915396
116	0xc042b84c	-3.0424986
117	0x3fabe217	1.3428372
118	0x3f4bf5c5	0.7967189
119	0xc0324d72	-2.785977
120	0x3f46a9a5	0.77602607
121	0x3c307336	0.010769656
122	0xbed8d0d4	-0.42346823
123	0x3fc5dd14	1.5458093
124	0xbe99b78a	-0.30022842
125	0x3dabb906	0.083849
126	0xbf80fc5d	-1.0077015
127	0x3c7f8178	0.015594833
128	0x3ea2c806	0.3179323
129	0xc0716cf7	-3.7722757
130	0xc00f7e2c	-2.242076
131	0x400f7c55	2.2419636
132	0xbe9a89cf	-0.30183265
133	0xbf619b3d	-0.881275
134	0x3de5ebc1	0.11226607
135	0x4090aa7c	4.520811
136	0xbf8702fe	-1.0547788
137	0xc0378db6	-2.8680243
138	0xc062e72a	-3.5453591
139	0xbe0b1c54	-0.13585025
140	0xbf951414	-1.1646752
141	0x3f25d502	0.6477815
142	0xbdb63b32	-0.08898009
143	0xbfc76fe3	-1.558102
144	0xbf0c518d	-0.54811937
145	0xbe69f361	-0.22846748
146	0xbf9ac45f	-1.2091178
147	0xbbb3635f	-0.0054744924
148	0xbe398d3b	-0.18120281
149	0x3e2fa58d	0.17152996
150	0x3f7189f5	0.9435113
151	0xbfae3c7a	-1.3612206
152	0x3e0b01dd	0.1357493
153	0xbf7c5ea3	-0.98581904
154	0xbf964e08	-1.1742563
155	0xc0184835	-2.3794072
156	0x3eb2086a	0.34772044
157	0x3e9aefca	0.3026107
158	0x3eee7179	0.46570948
159	0xbf90bab6	-1.130698
160	0x3f1fc5fe	0.6241149
161	0x3f5597a4	0.8343451
162	0x3f848676	1.0353534
163	0xbff7dd13	-1.9364341
164	0xc0141302	-2.3136601
165	0xbf445045	-0.7668498
166	0xbeab8eb1	-0.33507302
167	0xc00c3205	-2.190553
168	0xc00c629f	-2.1935194
169	0xbe62a97c	-0.22134966
170	0x3eec42e4	0.46144783
171	0x3f92a99c	1.1458011
172	0xbfb539fe	-1.4158323
173	0xbf3961d3	-0.7241489
174	0xbde5ef3e	-0.112272725
175	0x3f65aaf3	0.8971397
176	0xc0552626	-3.3304534
177	0xbfe8e3bb	-1.8194498
178	0xc0088b87	-2.133516
179	0xc0318141	-2.773514
180	0x3d6c6ae9	0.057719145
181	0xc036c334	-2.8556643
182	0xbfdc0ca5	-1.7191359
183	0xbf99f021	-1.2026407
184	0xbf17a236	-0.5923189
185	0xbfc8dc2b	-1.569219
186	0xbeb82e57	-0.35972854
187	0xbf4d4ec9	-0.8019834
188	0xbe2c42b4	-0.1682232
189	0xbfd875c1	-1.6910936
190	0xbe826a0e	-0.25471538
191	0x3f30f3c9	0.69121987
192	0xbf4331dc	-0.76247954
193	0xc0528755	-3.28951
194	0xbebd67aa	-0.36993152
195	0xbe67c39c	-0.22633213
196	0xbfd966e0	-1.698452
197	0xc0047c89	-2.070101
198	0xc0854db2	-4.1657343
199	0xc002a84f	-2.0415227
200	0xbf5e6c11	-0.86883646
201	0x3f42fba4	0.76165223
202	0xc03ef792	-2.9838605
203	0xbc722bab	-0.014780919
204	0xbe12d581	-0.14339258
205	0xbfc15153	-1.5102943
206	0xc00240f4	-2.0352144
207	0x3f31c2fe	0.6943816
208	0x3fa2e8b4	1.2727265
209	0x3f9ab2ff	1.2085875
210	0xbdcc0e46	-0.0996366
211	0x400182b0	2.0236015
212	0x3ec5e81d	0.3865365
213	0x3fc4a870	1.5363903
214	0xbf64b67c	-0.8934095
215	0x40834515	4.102183
216	0x400d2127	2.2051485
217	0x40209825	2.5092862
218	0x4020e01d	2.5136788
219	0x3ef1710d	0.47156563
220	0x400ce7e4	2.2016535
221	0x3f0ac357	0.54204315
222	0x3f04eeae	0.51926696
223	0x3fd9b620	1.7008705
224	0x3f6d83ed	0.9277943
225	0x3f53cd89	0.82735497
226	0x4002e60d	2.0452912
227	0x3f4eb34a	0.80742323
228	0x3fbbfea3	1.4687084
229	0x3fbb82fc	1.4649348
230	0x3eb9d411	0.36294606
231	0x3f94a014	1.1611352
232	0x3fc05f1f	1.5029029
233	0x3f40b348	0.7527356
234	0x3f184c76	0.5949167
235	0x404811d3	3.126088
236	0x3fe8f84a	1.8200772
237	0x3f3493fc	0.70538306
238	0x3f5381a7	0.8261971
239	0x3fdbfaef	1.7185954
240	0x3f874336	1.0567386
241	0x400cd4d4	2.20049
242	0xbfa5588d	-1.2917649
243	0xbf0e5ca9	-0.5561014
244	0x3eb63513	0.35587367
245	0xbfd1675c	-1.6359668
246	0xbe07240d	-0.13197346
247	0x4012629a	2.2872682
248	0xbffbb823	-1.9665569
249	0xbf9abcef	-1.2088908
250	0xbfa05880	-1.2527008
251	0xc06e3af3	-3.722348
252	0x3e90c964	0.2827865
253	0xc015985e	-2.3374248
254	0xc0bc5d0e	-5.886359
255	0xbdb4eea1	-0.08834577

fc1.bias f4 [32]
0	0xbb82224b	-0.003971373
1	0x3c6388a5	0.013887559
2	0x3d81fd4f	0.06347143
3	0xbc570482	-0.013123633
4	0xbc74be9f	-0.014938026
5	0x3e07f851	0.13278319
6	0xbd20f02a	-0.03929154
7	0x3df211ee	0.11819826
8	0x3c907c67	0.017637445
9	0x3c5da924	0.013529096
10	0x3babe49f	0.0052457596
11	0xb8ca9208	-9.659311e-05
12	0xbc2d8a08	-0.010591991
13	0x3ce630d5	0.028099457
14	0x3d77d40b	0.060504954
15	0xbb27c37c	-0.0025598696
16	0xbb847006	-0.0040416745
17	0x3d967684	0.07346824
18	0x3c2f323b	0.010693128
19	0x3d1651d8	0.036699146
20	0x3d9357e7	0.071945004
21	0xbc46840b	-0.012116442
22	0xbb50b1e3	-0.003184431
23	0xb9a2cb77	-0.0003105064
24	0xba32fd11	-0.0006827871
25	0xbd206eba	-0.039168097
26	0x3d26bb7e	0.04070615
27	0xbc6d074f	-0.014467075
28	0x3c940ea8	0.018073395
29	0x3d7af738	0.061270922
30	0x3d502749	0.050818715
31	0x3d31c700	0.04340267

batch_norm_fc1.weight f4 [32]
0	0x3f3b765f	0.73227495
1	0x3f1eee53	0.62082404
2	0x3f448066	0.7675842
3	0x3f5462b0	0.82963085
4	0x3f429cf9	0.7602077
5	0x3f5beb7b	0.8590619
6	0x3ef77c34	0.48336947
7	0x3f83ebdc	1.0306354
8	0x3f3f1960	0.74648094
9	0x3f63fc73	0.8905708
10	0x3f332311	0.6997538
11	0x3ef6748d	0.48135796
12	0x3f34e54f	0.706624
13	0x3f5e2bb3	0.8678543
14	0x3f432a1d	0.76236135
15	0x3f3e1eac	0.7426555
16	0x3f284dbd	0.6574362
17	0x3f0ff9f3	0.5624077
18	0x3f4764d9	0.77888256
19	0x3ef3fba6	0.4765293
20	0x3f2cc202	0.6748353
21	0x3f05f476	0.5232614
22	0x3f1dd57d	0.6165388
23	0x3f517105	0.8181308
24	0x3edd716e	0.43250602
25	0x3f50ec05	0.8161014
26	0x3f776fcd	0.9665497
27	0x3f5d7262	0.8650266
28	0x3f619ea9	0.8813272
29	0x3f6e09dd	0.929838
30	0x3f9295f3	1.1452011
31	0x3f77e255	0.9682973

batch_norm_fc1.bias f4 [32]
0	0x3d20d27a	0.039263226
1	0xbdabe537	-0.08393329
2	0xbe5c595c	-0.21518463
3	0xbe83ce13	-0.2574316
4	0xbe9936cf	-0.29924628
5	0xbee3c19d	-0.44483653
6	0x3e778429	0.24171509
7	0xbf018188	-0.50588274
8	0xbedf584e	-0.4362206
9	0x3d61510f	0.055008944
10	0xbe516eaa	-0.20452371
11	0x3e99ae5b	0.30015835
12	0xbd9524f0	-0.07282436
13	0xbe219e38	-0.15783012
14	0xbe7253d8	-0.23664796
15	0xbdaec7b6	-0.085341856
16	0xbc7f5b20	-0.015585691
17	0xbd98566a	-0.07438357
18	0xbf01551d	-0.505205
19	0x3d583138	0.052781314
20	0x3e1c0713	0.15237074
21	0x3eaf37a4	0.34222138
22	0xbdbcaaba	-0.09212251
23	0xbecb10f8	-0.39661384
24	0x3e87096e	0.26374382
25	0x3d1672f3	0.036730718
26	0xbf025fee	-0.5092763
27	0xbe535592	-0.20638111
28	0xbe020637	-0.12697683
29	0xbf346929	-0.7047296
30	0xbe9537db	-0.29144177
31	0x3dafc64a	0.085827425

batch_norm_fc1.running_mean f4 [32]
0	0xc344949f	-196.58055
1	0xc306d10f	-134.81664
2	0xc1deb94c	-27.840477
3	0xc21e6801	-39.601566
4	0x41ccb84d	25.58999
5	0xc41b8c08	-622.188
6	0x424f8f99	51.890232
7	0xc30a4535	-138.27034
8	0xc3a02584	-320.2931
9	0xc35c77bd	-220.46773
10	0xc3f45a35	-488.70474
11	0x42414008	48.31253
12	0xc32af2ac	-170.94794
13	0xc3d4c8b9	-425.56815
14	0xc349879f	-201.52977
15	0xbfbfa206	-1.4971321
16	0x43512e01	209.1797
17	0xc3b2baaa	-357.4583
18	0xc3235a02	-163.3516
19	0xc4136783	-589.6174
20	0xc3240c52	-164.04813
21	0xc31a222e	-154.13351
22	0xc30d7965	-141.4742
23	0xc24f5bbf	-51.839596
24	0x43af180a	350.1878
25	0xc2f2e9e5	-121.456825
26	0x40e74dbd	7.2282395
27	0xc2405342	-48.081306
28	0xc318e616	-152.89877
29	0xc29889a9	-76.26887
30	0xc3a9083d	-338.06436
31	0xc36d0aa6	-237.0416

batch_norm_fc1.running_var f4 [32]
0	0x47019bab	33179.668
1	0x4664d477	14645.116
2	0x4689f029	17656.08
3	0x46ac92ca	22089.395
4	0x4695df7b	19183.74
5	0x4686c1b6	17248.855
6	0x4691e8b0	18676.344
7	0x4653f99b	13566.401
8	0x466853fc	14868.996
9	0x46a95b23	21677.568
10	0x46ca17e8	25867.953
11	0x4697f25c	19449.18
12	0x46c686eb	25411.459
13	0x4704a6fa	33958.977
14	0x46c57e6d	25279.213
15	0x469831af	19480.842
16	0x468bee33	17911.1
17	0x4692fc82	18814.254
18	0x46c57a69	25277.205
19	0x465bf664	14077.598
20	0x469d155e	20106.684
21	0x46c6ca03	25445.006
22	0x468ac459	17762.174
23	0x46fcefc5	32375.885
24	0x469019f5	18444.979
25	0x46dcffed	28287.963
26	0x469c2385	19985.76
27	0x46bf1fd1	24463.908
28	0x470ef279	36594.473
29	0x4608ebd6	8762.959
30	0x471f2f29	40751.16
31	0x46c3435c	24993.68

fc2.weight f4 [10, 32]
0	0xbde7aeb1	-0.113126166
1	0xbebc7ac1	-0.36812404
2	0xbed74d89	-0.42051342
3	0x3fc56140	1.5420303
4	0x3ef6dfdf	0.48217675
5	0x3f2d26e8	0.6763749
6	0x3f92b49f	1.1461371
7	0xbf15cf7e	-0.5851973
8	0xbf62b424	-0.8855612
9	0x3d177995	0.036981184
10	0xc000a7ad	-2.010234
11	0xbf72fa2c	-0.9491298
12	0x3f714b82	0.9425584
13	0xbf08f558	-0.53499365
14	0xbf8dc615	-1.1076075
15	0x3e8f5664	0.27995598
16	0x3fb8e0ce	1.4443605
17	0x3e7fc307	0.24976741
18	0x3f3830e5	0.7194961
19	0xbf0f634a	-0.5601088
20	0xbde04fac	-0.10952696
21	0xbf936d54	-1.1517739
22	0xbfde779c	-1.7380252
23	0x3f311301	0.6916962
24	0x3ec02bd0	0.37533426
25	0x3f8cff7b	1.1015466
26	0x3ec6f1fe	0.388565
27	0xbfc8a5a3	-1.5675548
28	0x3e8e6c73	0.27817115
29	0xbf72025a	-0.9453484
30	0x3eae54f9	0.34049204
31	0x3eaba21c	0.33522117
32	0xbe8a1cd6	-0.26975125
33	0xbf9110b6	-1.1333225
34	0x3fbc62d8	1.4717665
35	0xbf1009cc	-0.5626495
36	0xbfd24f70	-1.6430492
37	0xbf9850b2	-1.1899626
38	0x3f61b627	0.8816857
39	0xbf0646f6	-0.5245203
40	0x3eeac716	0.45855016
41	0x3ffec15b	1.9902757
42	0xc002aafb	-2.0416858
43	0x3e909885	0.28241363
44	0xbf8df2dd	-1.1089741
45	0x3d100a81	0.035166267
46	0x3f7b34b1	0.98127276
47	0x3f47961d	0.7796343
48	0xbe4cd9fb	-0.20005028
49	0xc00cae61	-2.1981432
50	0x3f6519fd	0.8949278
51	0xbf59f058	-0.8513236
52	0xbf82f468	-1.0230837
53	0xc006629c	-2.0997686
54	0xbf22474c	-0.6339004
55	0xbf1a65ee	-0.6031178
56	0x3f3333ad	0.70000726
57	0x3ecaaf50	0.39586878
58	0xbea3b7c2	-0.31976134
59	0xbfd540ae	-1.6660364
60	0xc00a430b	-2.160342
61	0x3fec8267	1.8477296
62	0x3f9cdbfa	1.2254632
63	0xbf53487d	-0.82532483
64	0x3f6ad67f	0.91733545
65	0xbf2b6338	-0.6694827
66	0xbf578b25	-0.8419669
67	0xbe8a1dc0	-0.26975822
68	0x3fa30ef4	1.2738938
69	0x3f58df36	0.8471559
70	0xbff865f6	-1.9406116
71	0xbd774996	-0.06037291
72	0x3ed1d12e	0.40979904
73	0xbf87e74f	-1.0617465
74	0xbd966358	-0.07343167
75	0xc00ab45a	-2.1672578
76	0x3f615e48	0.88034487
77	0xbe85dc4a	-0.2614463
78	0xbe2c21cf	-0.16809772
79	0xbdea9a03	-0.11455157
80	0x3de07b01	0.10960961
81	0xbd77bb11	-0.060481135
82	0x3dd3766f	0.10325324
83	0x3e9576e8	0.2919228
84	0xbf137b42	-0.5760995
85	0x3e15911c	0.14606136
86	0xbe8cb82d	-0.27484265
87	0x3eabe0f2	0.33570057
88	0x3ef25509	0.47330502
89	0x3de4ccde	0.11171888
90	0xbef6f2a7	-0.48232004
91	0x3f5ea8fd	0.86976606
92	0x3e729fb8	0.2369374
93	0xbe6e8efc	-0.23296732
94	0x3e3e30b6	0.18573269
95	0xbfad9c74	-1.3563371
96	0xbfa53652	-1.2907202
97	0x3ea6f46e	0.3260836
98	0xbf683d59	-0.9071861
99	0xbd764da8	-0.060132653
100	0xbe4efc9b	-0.20213549
101	0xbed2269a	-0.41045076
102	0xbead0748	-0.33794618
103	0xbef9b82b	-0.48773322
104	0x3e34ff69	0.17675556
105	0xbfa6b142	-1.3022845
106	0x3e56e5a9	0.20986046
107	0xbe789caa	-0.24278513
108	0xbed3d9b1	-0.41377023
109	0x3f2272bd	0.63456327
110	0xbf08b1bf	-0.5339622
111	0xbdea3b46	-0.11437087
112	0x3d89049e	0.06690334
113	0xbe5f0a3f	-0.21781252
114	0xbf71df89	-0.9448171
115	0x3f8d7d15	1.1053797
116	0x3fb04d7a	1.3773644
117	0x3e713ce9	0.23558392
118	0x3e821fca	0.25414878
119	0xbf70e395	-0.9409726
120	0x3f6cbe16	0.9247755
121	0xbf4a8974	-0.79115987
122	0xbf289e1a	-0.65866244
123	0x3f1c27e4	0.6099837
124	0x3f25b899	0.647348
125	0xbec7df15	-0.39037386
126	0xbfd650b2	-1.6743376
127	0xbf287986	-0.6581043
128	0x3f391a10	0.72305393
129	0xbe6cf8f2	-0.2314184
130	0xbf878563	-1.0587581
131	0x3f028271	0.5098029
132	0x3eb475fd	0.35246268
133	0x3ee581ed	0.44825688
134	0x3d40561b	0.046957117
135	0x3d127fa3	0.035766255
136	0xbf762093	-0.96143454
137	0x3e653507	0.2238351
138	0x3f8ce0c7	1.1006097
139	0x3e8082ec	0.25099885
140	0x3f62a8d4	0.8853886
141	0xbf3231c0	-0.6960716
142	0xbf882e35	-1.0639101
143	0xbf87a9b7	-1.0598668
144	0xbf0bb710	-0.54576206
145	0x3eef1ff2	0.4670406
146	0xbf6af84c	-0.9178512
147	0x3f9adfc4	1.2099538
148	0xbfc1107b	-1.5083154
149	0x3f0bfd64	0.5468352
150	0xbf897294	-1.0738091
151	0xbed74ac9	-0.42049244
152	0xbffd7de2	-1.9804041
153	0xbfc7327b	-1.556228
154	0xbd2d2660	-0.042272925
155	0xbf1a5385	-0.6028369
156	0x3f8e37c1	1.1110765
157	0xbf0298dd	-0.510145
158	0xbf9077c9	-1.1286556
159	0xbe798ec1	-0.24370863
160	0xbe336df3	-0.17522411
161	0x3fdffffb	1.7499994
162	0xbf490362	-0.78520787
163	0xbe6a8a4e	-0.22904322
164	0xbf11ff93	-0.570306
165	0xbf4616d4	-0.7737858
166	0xbf2555ba	-0.64583933
167	0xbf1fa9af	-0.6236829
168	0x3f508923	0.81459254
169	0xbf9eb5b2	-1.2399199
170	0xbe526070	-0.205446
171	0x3f420fce	0.75805366
172	0xbec87005	-0.39147964
173	0xbee87066	-0.45398253
174	0xbf1bcc55	-0.6085866
175	0xbf62786d	-0.88465005
176	0x3d0f0299	0.034914587
177	0xbe304ab3	-0.17215995
178	0xbfbfc8ad	-1.4983116
179	0xbec39843	-0.38202104
180	0x3fadff06	1.3593452
181	0x3e8d00b7	0.27539608
182	0x3dec2d58	0.11532086
183	0xbf8e642d	-1.1124321
184	0x3f3d71da	0.7400185
185	0xbfadce01	-1.3578492
186	0xbf0090df	-0.50221056
187	0x3fbbb906	1.466584
188	0x3ea9f856	0.33197278
189	0xbf26e3d0	-0.65191364
190	0xc00e6b55	-2.225301
191	0xbf6e6ff5	-0.9313958
192	0x3f3a729f	0.7283115
193	0xbe3a4b22	-0.18192723
194	0xbf06b5c9	-0.5262113
195	0x3f678803	0.9044191
196	0xbd1a62b6	-0.037691794
197	0x3f84dd45	1.0380026
198	0xbfe46a8b	-1.7845014
199	0xbeff2c55	-0.4983851
200	0x3f09d583	0.5384142
201	0xbfe169c4	-1.7610402
202	0x3f422d81	0.75850683
203	0x3f6b9f6e	0.92040145
204	0xbee4dbc7	-0.44698927
205	0x3fdb4549	1.7130519
206	0x3eae4aa4	0.3404132
207	0x3ff3c55e	1.9044607
208	0xbf43aacd	-0.76432496
209	0x3e351ed5	0.17687543
210	0x3e897bb7	0.268522
211	0xbc98e0b7	-0.01866184
212	0xbe087ef1	-0.13329674
213	0x3ee07ffb	0.4384764
214	0x3f62be12	0.88571274
215	0xbee8b90c	-0.4545368
216	0xbf594dbb	-0.8488423
217	0x3f25d8af	0.6478376
218	0xbf85da29	-1.0457202
219	0xbee8c917	-0.4546592
220	0x3ec43769	0.38323525
221	0x3ce6c3f4	0.02816961
222	0xbdd68f4c	-0.104765505
223	0xc00f6ac4	-2.2408915
224	0x3f13bd79	0.5771099
225	0x3c5c4071	0.013443098
226	0xbfa72b5d	-1.3060108
227	0xbf90c596	-1.1310298
228	0xbf46d481	-0.77668005
229	0xbf814cd8	-1.0101576
230	0x3f317250	0.6931505
231	0x3ff0bb9c	1.8807254
232	0xbfcda6d4	-1.6066537
233	0xbfbbf77c	-1.4684901
234	0xbd2f50b4	-0.042801574
235	0x3e8e0fb7	0.27746364
236	0xbf4e39f0	-0.80557156
237	0xbfbe6a54	-1.4876199
238	0xbfa6e0bd	-1.3037335
239	0xbfbc31ff	-1.4702758
240	0xbea3f597	-0.32023308
241	0xbef21cfa	-0.47287732
242	0xbfb37a4f	-1.4021701
243	0xbe903b86	-0.28170413
244	0xbf6e8d35	-0.93184215
245	0x3fc6959e	1.551441
246	0xbed9b0b5	-0.4251763
247	0xbf05820e	-0.5215157
248	0x3e96212c	0.29322183
249	0xbfba234a	-1.4542019
250	0x3fb903cb	1.4454283
251	0xbeff9f6a	-0.4992631
252	0x3edea0de	0.43482107
253	0xbeb8f313	-0.3612295
254	0xbfc2cc65	-1.5218626
255	0x3f6f22dd	0.9341257

fc2.bias f4 [10]
0	0xbfae4315	-1.3614222
1	0xbf2a9726	-0.66636884
2	0x3f5c7588	0.8611684
3	0x3ed75b52	0.4206186
4	0x3f0d7a8a	0.55265105
5	0x3ed79e03	0.4211274
6	0xbfc810f6	-1.5630176
7	0x3f18763b	0.59555405
8	0xbf35394e	-0.70790565
9	0x3fe8bc67	1.8182496
