CIFAR-con-da-2/epoch60-latest-ResNet18.pt (torch, 145696 bytes, 20 tensors)

conv1.weight f4 [8, 3, 3, 3]
000000 40 ca 05 3f 06 55 b1 3f 48 ab ba bf c7 0b 62 40
       0.52261734 1.3854072 -1.4583521 3.5319688
000010 27 4f 8c 40 0c e0 49 3f 8d a5 ea 3f 6a 10 d1 3f
       4.384662 0.78857493 1.8331772 1.6333134
000020 8f 78 c7 bf fd 6e 8d be a1 14 f1 bf c8 e7 a2 bf
       -1.5583667 -0.2762374 -1.883442 -1.2726984
000030 6f 3b a4 bf 6b 65 2e c0 68 cd 16 c0 5b bf d0 bf
       -1.2830638 -2.72494 -2.356287 -1.6308397
000040 e2 16 5d c0 e3 b4 56 bf 6c 9a 70 3e e1 ae 10 3f
       -3.4545217 -0.8386976 0.23496407 0.56516844
000050 b3 cd 65 40 5f dd 4f bf 00 ef a5 bf 06 0f 92 3f
       3.59068 -0.8119716 -1.2963562 1.1410835
000060 7f 23 17 bf 4a 7e fa bf c9 c3 dc 3f fb 7a 67 40
       -0.5903854 -1.956979 1.7247249 3.6168811
000070 7e 4b 02 40 0f 85 2c c0 aa 8f 88 3f 48 ec 93 40
       2.0358577 -2.6956213 1.0668843 4.622593
000080 11 46 bf 3e 1c d7 4f bf 46 a2 af 3f 94 5d d8 bd
       0.37358144 -0.81187606 1.3721397 -0.105647236
000090 da 09 b1 bf 6c 84 0d be 36 02 16 c0 15 12 08 c0
       -1.3831131 -0.13820046 -2.343885 -2.1261036
0000a0 ba ce 0c 40 f6 1d e4 3e 73 e0 fe bf 71 c6 cc 3f
       2.2001176 0.44554108 -1.9912246 1.599806
0000b0 9d b2 d3 3f d8 ba 4a 40 d5 de 87 40 05 92 15 3f
       1.6538883 3.167654 4.245951 0.58425933
0000c0 ae 66 95 bf 1a e1 14 40 9e 2c 4b bd e5 0d 5a c0
       -1.167196 2.326239 -0.049603097 -3.407098
0000d0 0f 8e 97 be d6 31 94 bf e0 92 15 bf 05 39 99 bf
       -0.2960057 -1.1577709 -0.5842724 -1.1970526
0000e0 4f 22 bf 3e 4d d1 04 bf ed 04 49 c0 ed 14 a8 bf
       0.37330863 -0.5188187 -3.1409256 -1.3131386
0000f0 f7 77 34 bf f1 df 1c c0 3d 86 39 bf f3 08 0b c0
       -0.7049555 -2.4511683 -0.72470456 -2.1724212
000100 04 2d 6c 3e c3 63 02 c0 ef b8 ea be 21 35 eb 3d
       0.23064047 -2.037339 -0.45844218 0.11484743
000110 66 b3 a3 be ad 3f c6 bf 4d 24 f0 3d 60 a2 51 bf
       -0.31972808 -1.5488182 0.11725674 -0.8188839
000120 24 53 d6 bf d6 59 71 40 5d 41 d2 3d bf 92 18 40
       -1.6744123 3.7711082 0.10266373 2.3839567
000130 39 29 92 40 25 3e a1 40 cc 97 97 bf 26 ed 5a 40
       4.567532 5.038836 -1.18432 3.4207244
000140 6d 01 16 40 47 19 00 c0 21 8e 17 bf 88 55 8f 3e
       2.343837 -2.0015428 -0.59201247 0.27994943
000150 10 ed 91 3e c5 ae 87 40 fe 45 a3 3c 5d ea 9f 3e
       0.28501177 4.240084 0.019930836 0.31233492
000160 5b 96 b8 be 37 45 22 c0 47 fa 00 c0 99 7a 30 bd
       -0.36052212 -2.5354745 -2.0152757 -0.04308567
000170 c6 cf 84 3f 6d 1c 69 3f 3f fc 9e 40 7f b6 95 3e
       1.0375907 0.91059 4.9682918 0.29240796
000180 38 fa 91 3e 03 da 78 bf 15 2d 5e c0 9c b9 e6 bf
       0.28511214 -0.9720766 -3.4715016 -1.8025393
000190 5b ec 7c bf 08 21 49 3e 4c dc 4b 3f 5a 58 6d 40
       -0.9879815 0.19641507 0.7963302 3.7085176
0001a0 60 53 31 3f f7 d1 7a 3e bd d4 85 bf 63 de fb bf
       0.69267845 0.24494158 -1.0455548 -1.9677242
0001b0 b2 54 cf 3f 16 b8 01 40 80 7b 80 40 89 95 bd be
       1.6197722 2.0268607 4.0150757 -0.3702815
0001c0 08 42 8b be 2c aa 9d 3f 18 9d 76 c0 f8 2f 94 c0
       -0.27198815 1.2317557 -3.8533382 -4.6308556
0001d0 92 f9 1e c0 ab 05 7e 3e 03 2c 91 3d 15 33 b9 3e
       -2.4839826 0.2480685 0.07088473 0.36171785
0001e0 5b d4 3a be b5 57 d6 3e 21 d0 cb 3e b4 43 3c c0
       -0.1824507 0.4186379 0.39807227 -2.9416323
0001f0 d1 ab 3d c0 e2 81 4b c0 df 61 6a 3e 2f 4d a9 bf
       -2.9636118 -3.1798024 0.22888897 -1.322668
000200 57 af 26 c0 fe dd c5 3f e5 ce f9 3f 7a a1 c1 3e
       -2.604452 1.5458372 1.9516264 0.3781851
000210 f4 58 a8 3f 13 65 13 40 b8 53 32 3e 21 6b 20 3f
       1.3152146 2.303044 0.17414749 0.62663466
000220 d7 26 2c c0 2c c1 01 40 42 1e 14 40 12 9c d0 bf
       -2.6898706 2.0274153 2.3143468 -1.6297629
000230 ea 73 9d bf 5f 16 31 be 9e 70 df 3f e0 70 bb bf
       -1.2300999 -0.1729369 1.7456243 -1.4643822
000240 7a e9 cc 3f 05 7c 57 c0 2a 26 c5 3f c9 7a 58 40
       1.6008751 -3.3669446 1.5402272 3.3824942
000250 87 dd ca bf d4 4d f3 bf 8d 2f ab bd fc b3 8f 3f
       -1.5848855 -1.9008126 -0.08358679 1.1226802
000260 b6 db 1d c0 0d eb a7 3f 1e 30 13 c0 dd 9f 28 3f
       -2.466535 1.3118607 -2.2998118 0.6586893
000270 a7 63 30 40 26 9e 9d bf 7a 6b fd bf 52 c4 a2 3f
       2.7560823 -1.2313888 -1.9798424 1.2716162
000280 38 d6 0f 40 76 1b e4 bf 1e 7d 75 3f ae ae 0d c0
       2.2474499 -1.782088 0.9589404 -2.2137866
000290 97 8b 4e 3f 1f 0f 02 c0 87 33 d0 bf ee af 05 40
       0.8068175 -2.032173 -1.6265725 2.088863
0002a0 06 27 05 c0 1e 22 f2 3f 68 12 61 3f 67 f3 96 3f
       -2.0805068 1.8916662 0.8791871 1.179303
0002b0 97 c0 dd bf 3f 07 b1 3f 8c 3a 25 c0 f6 80 d3 be
       -1.7324399 1.3830336 -2.5816984 -0.41309327
0002c0 9d ee 3a 40 3f 08 51 c0 b1 94 b0 3f 2b d6 5d 3f
       2.9208138 -3.2661283 1.3795377 0.8665492
0002d0 a9 59 83 be 1d b9 cc bf 07 19 92 3f cc c1 17 c0
       -0.25654343 -1.5993992 1.1413888 -2.3712034
0002e0 18 4d 67 bc c3 da 38 40 fa bf 43 c0 82 7a 15 40
       -0.014117502 2.8883522 -3.0585923 2.3356023
0002f0 a4 cc 8a 3f f7 49 c8 be 0b 8d a1 3f 6f 55 1c c0
       1.0843701 -0.3911893 1.2621168 -2.4427145
000300 b2 fb 9f bf ee ad 89 3f fe 59 4a 40 49 48 52 3f
       -1.2498686 1.0756204 3.1617427 0.8214155
000310 36 a5 56 c0 8f da 62 3e 54 29 19 be 91 b8 fa 3f
       -3.3538337 0.22153686 -0.14957172 1.9587575
000320 a6 be 0f c0 6c 0a b8 bf 1b 9f 0c 40 61 08 8f 40
       -2.2460113 -1.437818 2.197211 4.469773
000330 d6 a6 46 3e 33 41 50 c0 40 71 82 3e 96 bb 07 be
       0.1939958 -3.2539794 0.25477028 -0.13255152
000340 7f b6 c9 3f b8 22 a4 bf 51 f7 e8 bf 6f 70 20 3f
       1.5758818 -1.2823095 -1.8200475 0.6267156
000350 4e 17 38 40 73 6a f3 3e a5 ed 61 c0 78 be 40 bf
       2.8764224 0.47542152 -3.5301297 -0.7529063

conv1.bias f4 [8]
000000 9a 4e 94 bf 78 9f b2 bd c7 85 15 bf f3 22 02 3f
       -1.1586487 -0.087218225 -0.58407253 0.5083458
000010 7f d1 c6 3f 9f 39 76 3f 9f 44 c8 bd a1 eb c6 3e
       1.5532683 0.9618167 -0.097787134 0.38851646

batch_norm_conv1.weight f4 [8]
000000 82 8c 49 40 5c ef 1d 40 0c 47 ff 3f 4d 97 3c 40
       3.149201 2.4677343 1.9943557 2.9467347
000010 e5 82 24 40 23 64 63 40 26 cc 6f 40 42 7d 2e 40
       2.5704892 3.5529869 3.7468352 2.7263951

batch_norm_conv1.bias f4 [8]
000000 79 51 f2 3e 60 70 46 3f fe b9 02 3f 77 72 8b be
       0.47327784 0.7751522 0.5106505 -0.27235767
000010 80 8c 03 40 f1 ab 87 3f 1c 9e 8b 3e 48 5c b3 bd
       2.0554504 1.0599347 0.27269065 -0.087578356

batch_norm_conv1.running_mean f4 [8]
000000 f1 cb 75 bf 9b 07 60 bf ad 67 0f c0 11 52 ee 3e
       -0.96014315 -0.87511605 -2.2407029 0.46546987
000010 24 25 cd 3f 60 0f 79 3f 63 e4 65 bd e9 e9 09 3f
       1.602696 0.97289085 -0.05612601 0.53872544

batch_norm_conv1.running_var f4 [8]
000000 0e 5e fa 40 4f 5c 1c 42 12 38 de 41 8b c5 f9 40
       7.8239813 39.090145 27.777378 7.805364
000010 1e 3e a1 41 63 a2 35 41 61 02 8c 41 83 69 dc 40
       20.15533 11.352145 17.501162 6.88788

conv2.weight f4 [16, 8, 3, 3]
000000 02 c6 43 c0 d2 8a 8f 40 bc e8 e6 3f e4 8c 91 c0
       -3.0589604 4.485696 1.8039775 -4.5484486
000010 97 6b d9 40 37 d7 c5 3f fd 42 7e c0 40 b5 58 40
       6.7943835 1.5456303 -3.9728386 3.3860626
000020 75 42 35 c0 12 e6 c1 3f 21 d9 d8 3e 93 43 44 3f
       -2.8321812 1.5148337 0.42353156 0.7666561
000030 d1 87 1b bf 57 8b e1 bf 31 5a 52 c0 a2 7f 96 c0
       -0.60754114 -1.7620648 -3.2867548 -4.70308
000040 4e f1 a9 bf 39 4c b3 be 16 fe 98 3f 3a 28 7e 3f
       -1.3276765 -0.3501909 1.1952541 0.9928013
000050 32 af 56 3e 1f ec 79 bf b2 e3 70 3f c2 39 e1 bd
       0.20965269 -0.9762592 0.94097435 -0.109973446
000060 58 bd 97 3f 41 31 98 3f f1 ad 58 be 51 77 94 3e
       1.1854658 1.1890031 -0.21160103 0.2899728
000070 dc b3 37 bf 74 7b a8 bf cc 59 0a 3f 42 7d 21 3f
       -0.7175882 -1.3162675 0.5404327 0.63081753
000080 62 5f de 3f a8 8a 74 3f 67 41 50 3f 30 74 60 3e
       1.7372859 0.9552407 0.81349796 0.21919322
000090 7b 18 d1 3f ae 8e 31 c0 c2 1b 2b bf 97 3a b7 3f
       1.6335596 -2.7743335 -0.6683923 1.4314755
0000a0 dd da 4c 3f 10 32 75 3f c3 ab 0c 3f b7 1b dc 3f
       0.8002146 0.95779514 0.5494959 1.7195958
0000b0 86 1e 06 40 58 b0 91 3c fa a6 cb bf 84 a1 e6 bf
       2.095613 0.017784283 -1.5910332 -1.8018041
0000c0 15 36 0d 40 aa fb 1c c0 b0 23 4e c0 21 1e 2c 3f
       2.206426 -2.4528604 -3.2209282 0.67233473
0000d0 2d 10 8d 3f 78 8f 32 40 e3 9b a3 3f 31 1a f3 be
       1.1020561 2.7900066 1.2781948 -0.4748092
0000e0 e0 dd 00 c0 7b 3f 0f 3f 1c 55 e0 bf e7 34 51 c0
       -2.0135422 0.5595624 -1.7525973 -3.268854
0000f0 05 fc 4a 3f 42 b3 fe 3f e3 de c3 3f c0 00 09 be
       0.792908 1.9898455 1.5302395 -0.13379192
000100 50 96 68 3f 42 3b f4 3f d1 c4 9b bf bf 8e 52 3e
       0.9085436 1.9080584 -1.2169439 0.20562266
000110 0c 12 cd 3f d1 a6 15 3e ef 00 32 3f e7 bd c5 3c
       1.6021132 0.14614417 0.69532675 0.024138404
000120 e2 93 42 bf 45 39 db c0 aa 06 b3 c0 ee 89 92 c0
       -0.760069 -6.850741 -5.5945635 -4.579337
000130 3b 17 c2 c0 42 e6 da bf b2 ae ae 3f 2e 24 39 40
       -6.0653358 -1.7101519 1.3647063 2.8928332
000140 88 c4 e9 40 45 31 03 40 b4 38 1d c0 eb 6a f9 bf
       7.3052406 2.0498822 -2.456586 -1.9485754
000150 d1 d5 8c 3d 47 c4 51 c0 85 f6 02 c0 a4 03 5d 40
       0.0687672 -3.2776048 -2.0462964 3.4533472
000160 a6 e5 6b bf 8e e4 0f 3f 0b 1a 2f c0 a7 21 9d bf
       -0.9214729 0.5620812 -2.7359645 -1.2275895
000170 94 03 80 3f 8c 0e eb bf a8 98 11 40 e0 11 68 3e
       1.0001092 -1.8363814 2.2749424 0.22663069
000180 02 6d 13 bf e9 38 0b 40 5d f6 c6 bf 34 52 02 40
       -0.5758821 2.1753485 -1.5543934 2.0362673
000190 56 e8 84 3e f9 d5 fb 3e 3c 6b f3 3f 34 3b cd 3f
       0.25958508 0.49186686 1.90171 1.6033692
0001a0 4d c3 90 bf 91 63 07 3e 95 48 81 bf 9f 20 9f 3f
       -1.1309601 0.13221575 -1.0100275 1.243183
0001b0 e3 01 62 bf 2e 08 2d 40 bf aa 43 40 df d7 e6 3f
       -0.8828413 2.7036242 3.0572965 1.8034629
0001c0 57 c3 81 40 7e 51 f6 3e b9 92 57 bf 92 0e 62 bf
       4.055095 0.4810905 -0.84208256 -0.8830348
0001d0 ea ef 7c c0 d7 19 44 bf aa 3f 0f bf 63 85 2e 3e
       -3.9521432 -0.7660193 -0.5595652 0.1704307
0001e0 a1 24 c7 bf ea ea 5c 3f ea f5 2c bf 3e 1b 2b 3f
       -1.5558053 0.8629595 -0.67562735 0.66838443
0001f0 6f 7d 32 bf f6 48 95 3d ed 68 b8 3f a6 c6 76 bf
       -0.69722646 0.07289307 1.4407021 -0.96396863
000200 85 33 38 bf bb 77 8a bf d2 4c 70 3f 82 d2 b8 3f
       -0.7195361 -1.0817789 0.9386722 1.4439242
000210 81 53 d2 3f 4a ef 6b bf 6e b3 91 3f 02 70 64 bf
       1.6431733 -0.92162 1.1382883 -0.8923341
000220 87 85 25 bd 95 23 1a 3f 10 78 74 bf 69 96 7a 3f
       -0.040410545 0.60210544 -0.954957 0.9788576
000230 51 94 08 be 1e 2a 85 bf dd 69 39 bf 0b 8f 45 3f
       -0.13337828 -1.0403478 -0.7242716 0.7717139
000240 f0 0a 32 40 b3 1e 19 c0 4a fc 94 c0 5a c7 8f 3f
       2.7819176 -2.3924987 -4.655797 1.1232712
000250 4c 17 69 bf 1c 82 47 c0 33 ca 06 3f 6f fd a9 bf
       -0.91051173 -3.1173162 0.5265228 -1.3280467
000260 a5 95 52 bf f3 37 eb 3f 6f 41 09 c0 81 50 8b be
       -0.8225959 1.8376449 -2.1446187 -0.27209857
000270 fb 6e 74 bf 21 ca 29 c0 a0 8d ee bf d9 49 98 bf
       -0.9548184 -2.652962 -1.863697 -1.1897537
000280 a1 82 5b bf 7b ce 2f c0 cd eb 37 c0 91 47 80 40
       -0.857462 -2.7469776 -2.8737671 4.008736
000290 f6 af 35 40 18 f2 7f c0 2b b4 8d 40 b7 aa 43 40
       2.8388648 -3.9991512 4.428243 3.0572946
0002a0 d2 3c 56 bf b8 2e d4 3f 87 5f 23 40 0d 54 b6 3f
       -0.83686554 1.6576757 2.5527055 1.42444
0002b0 e0 c5 d5 be a7 68 25 3f 99 0e 12 c0 cf 2d 0c c0
       -0.4175253 0.6461281 -2.282141 -2.190296
0002c0 e8 11 4a c0 06 be ff bf 64 73 80 c0 ed 31 df 3f
       -3.157343 -1.9979866 -4.014086 1.7437111
0002d0 37 11 25 c0 a1 d3 ea bb 1f 69 05 3f 5f 76 7b bf
       -2.5791757 -0.0071663414 0.5211353 -0.98227495
0002e0 f4 e7 54 c0 0e 1b 3b 3f 74 0a 37 bf c8 b6 0f c0
       -3.3266573 0.7308816 -0.71500325 -2.245531
0002f0 4d d3 d6 3f d0 e3 41 bf 01 15 6f 3e 49 3e 87 bf
       1.6783234 -0.7573824 0.23347856 -1.0565883
000300 cc ac d2 bf 30 85 c7 bf b9 2f f2 3f 03 a1 1c 40
       -1.6458983 -1.5587521 1.8920814 2.4473274
000310 c2 9c ee 3f 77 be f0 3e 0a b8 22 3f f1 fa 40 be
       1.8641589 0.47020313 0.6356207 -0.18845727
000320 cd c9 28 bf ee 63 05 be 7b 29 9b 3e 1e 12 d1 bf
       -0.65932924 -0.13026401 0.30305085 -1.6333654
000330 d3 2c 54 c0 e5 33 3a c0 55 4f a8 3e 4b 27 cc 3e
       -3.3152359 -2.9094174 0.32873026 0.39873728
000340 a6 4a 3e 3f 8c 1b ee 3f ed ac ad 40 00 c5 f3 3f
       0.74332654 1.8602157 5.427359 1.9044495
000350 c3 66 06 40 0a 06 d2 3f 59 e8 78 40 49 15 68 3f
       2.100022 1.6408093 3.8891814 0.9065748
000360 0d 89 1b 3f 2e bd 04 bf ca 50 6f 3f 06 fb d3 bf
       0.60756 -0.51851165 0.9348265 -1.6560981
000370 4e 35 e8 bf e3 f5 38 bf a8 a0 07 be d9 1e 12 3f
       -1.8141267 -0.72250193 -0.13244879 0.5707832
000380 57 86 d6 3f 63 48 0a bf f7 bd 0b 40 e5 eb 0b 3f
       1.6759747 -0.54016703 2.1834695 0.5465682
000390 a4 a0 7a bf ba 30 b7 3f 4a 4d 11 bf 32 a2 1a c0
       -0.9790137 1.4311745 -0.5675856 -2.4161496
0003a0 54 b6 fe bf 1c a5 65 c0 74 b1 72 be 8c 33 80 3e
       -1.9899392 -3.5882025 -0.23700505 0.25039327
0003b0 41 bc ed 3f 3e b9 ee 3d 1d 50 06 be 30 ff 90 3e
       1.8573076 0.11656426 -0.13116498 0.28319693
0003c0 53 34 25 bf 17 64 a6 bf 79 ab 96 bf 15 54 db 3e
       -0.64532965 -1.2999295 -1.1771079 0.42837587
0003d0 c0 c0 b3 3f 67 4c 8e 3f 5e 90 ee bf 75 7b cb bf
       1.4043198 1.1117066 -1.8637807 -1.5897051
0003e0 59 88 eb bf a1 fc b8 bf f9 b8 16 c0 9e 9c dd bf
       -1.8400985 -1.4452096 -2.3550398 -1.7313421
0003f0 86 e8 c6 3f 64 6a 93 c0 a6 7d 8d bf 36 30 69 3c
       1.553971 -4.606737 -1.105397 0.014232686

conv2.bias f4 [16]
000000 e8 8a 19 be 2c 4f 75 be f5 db 3a 3e 2b 44 cb 3c
       -0.14994395 -0.23955983 0.1824797 0.024812778
000010 c1 0c 27 3e 41 3c 4e be ce 92 a9 be 68 f3 0c bd
       0.16313459 -0.20140173 -0.33119816 -0.034411818
000020 48 9d 54 3c 21 36 37 be 58 5d 5d be 68 44 11 bd
       0.012976952 -0.17891742 -0.21617639 -0.035465628
000030 91 81 5f 3e 86 50 20 3e 5b 41 0d 3d 90 a2 10 be
       0.2182677 0.15655717 0.034486156 -0.14124513

batch_norm_conv2.weight f4 [16]
000000 20 97 0b 40 0f 01 dd 3f 46 b7 eb 3f 80 6f 4f 40
       2.181099 1.7265948 1.8415306 3.2411804
000010 18 b7 3f 40 1e da 08 40 12 e1 85 40 3e 6b 0b 40
       2.9955502 2.1383128 4.1837244 2.1784205
000020 f0 f9 09 40 2f 3d 85 40 a1 78 cc 3f be dd d8 3f
       2.15588 4.1637187 1.5974313 1.694267
000030 57 8b 39 40 bd e8 19 40 21 e0 68 40 71 4f 44 40
       2.8991296 2.4048302 3.6386797 3.0673487

batch_norm_conv2.bias f4 [16]
000000 ca 18 b8 bf 7b 50 04 3f b2 4b 0f 3f b8 9d 0d c0
       -1.4382565 0.51685303 0.55974877 -2.2127514
000010 dd 40 93 bf 91 fa 10 3f 9b 26 05 c0 45 84 3f bf
       -1.150417 0.56632334 -2.0804813 -0.748112
000020 2c 23 4e bf 91 c3 3a c0 62 be cf be 6c 45 d5 3e
       -0.8052242 -2.9181864 -0.40574938 0.41654527
000030 01 5e 89 bf f2 6a 94 bf d8 bf f4 bf 47 cd fd bf
       -1.0731813 -1.1595137 -1.9121046 -1.9828271

batch_norm_conv2.running_mean f4 [16]
000000 6f e1 66 41 77 7d 80 c1 c9 de 27 c2 00 d0 aa c2
       14.4300375 -16.061262 -41.967564 -85.40625
000010 4c 73 5a c2 68 f8 b8 c2 f7 71 b7 c2 b4 56 50 c1
       -54.612595 -92.48517 -91.72259 -13.021168
000020 12 24 2a 41 24 bd d4 c2 87 4a 18 41 72 fc 31 c1
       10.633806 -106.369415 9.518195 -11.124132
000030 b0 f4 3b c2 e2 21 03 c2 da fd 61 c2 5c ad 82 c2
       -46.988953 -32.78309 -56.497902 -65.33859

batch_norm_conv2.running_var f4 [16]
000000 4c 72 a7 44 a4 d9 b7 44 02 a1 b8 44 36 f0 80 45
       1339.5718 1470.8013 1477.0315 4126.0264
000010 c8 0a 0c 45 a0 4b 32 45 72 f1 ac 45 8c 3a c9 44
       2240.6738 2852.7266 5534.1807 1609.8296
000020 50 3e ce 44 b3 74 78 45 18 1b c2 44 a1 23 0b 45
       1649.9473 3975.2937 1552.8467 2226.2268
000030 5a 38 36 45 5f 55 0e 45 54 42 5d 45 24 00 81 45
       2915.522 2277.3357 3540.1455 4128.0176

fc1.weight f4 [32, 1024]
000000 67 11 2a c0 70 f6 d3 bf 2f 8f 03 3f 80 49 fd bf
       -2.6573122 -1.6559582 0.51390356 -1.9788055
000010 96 31 cb bd f5 6f 0f c0 b7 d0 b8 be 09 4a 4a c0
       -0.09921567 -2.2412083 -0.36096737 -3.1607687
000020 bc fa 5b c0 ec 93 fe be 22 22 16 bf 45 13 44 be
       -3.4371786 -0.4972223 -0.5864583 -0.19147976
000030 81 2f 76 c0 e7 0e c5 bf 78 b1 8e c0 32 1d 8d c0
       -3.8466494 -1.5395173 -4.4591637 -4.409814
000040 8b 42 31 bf f5 0d 0a bf b7 f8 98 bf af b4 ce bf
       -0.6924216 -0.53927547 -1.1950902 -1.614889
000050 df 55 fb 3f 5e 73 1c bf e9 81 36 c0 d6 5a 54 c0
       1.9635581 -0.61113536 -2.851679 -3.3180442
000060 cd 3f bd bf ae b0 91 bf e9 1c 18 bf ea cf 30 c0
       -1.4785095 -1.1382043 -0.59419113 -2.76269
000070 05 e0 28 3f ed 18 e6 bf f9 e9 4d bf 4e 8b b3 bf
       0.65966827 -1.7976357 -0.8043514 -1.4026887
000080 ff fb 16 c0 26 ca bb 3f 46 ef 32 40 3f d1 07 40
       -2.3591306 1.4671066 2.795854 2.1221464
000090 86 14 1b 40 90 68 2b 40 d5 40 89 bf 16 8d 02 c0
       2.4231277 2.678257 -1.072291 -2.0398612
0000a0 20 9b 53 c0 ab 33 59 40 41 9a 1e bf 12 f9 17 40
       -3.306343 3.3937786 -0.6195412 2.374577
0000b0 80 b4 8b 40 8b f0 12 40 f4 c2 d6 bf 2b 57 6f 3f
       4.3657837 2.2959316 -1.6778245 0.9349238
0000c0 58 be 26 3f 9b f0 c0 bf 4b fa 6e c0 a6 f4 2b bf
       0.6513419 -1.5073427 -3.7340267 -0.6717018
0000d0 ce 56 7b bf dd c3 06 c0 32 54 68 3f ad bb 3c 3f
       -0.9817933 -2.1057045 0.9075347 0.7372387
0000e0 3b b5 83 c0 92 60 24 c0 89 7d 78 c0 c2 f2 e7 bf
       -4.115873 -2.5683942 -3.882662 -1.8120959
0000f0 7a 99 9c c0 1e e9 b4 be 42 ca a9 3e 73 37 06 c0
       -4.893735 -0.35334104 0.33162123 -2.0971344
000100 4a 44 15 bf ee ac 7a 3f 9c a2 39 40 63 2a 9c 3f
       -0.58307326 0.9792012 2.90055 1.2200435
000110 36 a2 75 40 40 aa 11 3f e7 ed ab 3e 1f 95 df 40
       3.8380256 0.56900406 0.33579943 6.9869533
000120 ce 19 2c 40 e4 46 10 40 7b 77 50 40 31 d4 2d 40
       2.689075 2.2543268 3.2572925 2.7160761
000130 60 14 b2 be 18 dc 73 40 f6 2f 13 40 8f 6e 41 40
       -0.3478117 3.8103085 2.2998023 3.022373
000140 2d 38 60 40 f0 d6 bb 3e 61 63 f4 3f 99 6a 38 c0
       3.5034287 0.36687422 1.9092828 -2.8815062
000150 fb 7c e1 bf c7 a6 76 bf e7 b2 4e 3f 63 23 18 40
       -1.7616266 -0.9634823 0.80741733 2.3771598
000160 84 28 29 3e 73 64 6f 40 55 36 a4 3f 22 ed 69 c0
       0.16519362 3.740506 1.2829081 -3.6550984
000170 db d2 e7 c0 a6 67 e8 be c6 51 88 3f 67 7b 27 40
       -7.244489 -0.45391577 1.0649955 2.616907
000180 49 55 62 bf 38 c7 fb 3f b8 fd 73 be d6 48 8e c0
       -0.88411385 1.9670172 -0.23827255 -4.446391
000190 cd 78 ba c0 7f 61 67 3e 39 64 89 bd f2 e6 ec bf
       -5.827246 0.22595786 -0.06708569 -1.8507979
0001a0 67 70 e5 bf 15 4d 88 40 51 c3 20 3f 7c b3 62 be
       -1.7924927 4.2594094 0.6279803 -0.2213878
0001b0 7a 99 c4 3e f0 2a 07 bf e9 58 63 3f e2 92 01 c0
       0.38398343 -0.5279989 0.8880754 -2.02459
0001c0 78 4a 9e c0 a3 bf 14 c0 ed 34 1d 40 12 04 34 bf
       -4.9465904 -2.3241966 2.4563553 -0.7031871
0001d0 ac 8b 36 3f 65 78 7e bf 4b aa f8 bf 0f d9 ae bf
       0.7130687 -0.9940246 -1.9426969 -1.3659991
0001e0 f8 6f b0 c0 3f 2d e6 3e 73 54 dd be 4e df 2a c0
       -5.513668 0.44956395 -0.43228492 -2.6698794
0001f0 46 cd 30 c0 16 6e 2a c0 50 3d 10 c0 31 d7 f3 c0
       -2.762529 -2.662969 -2.2537422 -7.6200185
000200 29 4b 2e 40 af bb 07 3f ca e3 d1 3f 2d e0 19 40
       2.7233374 0.5302076 1.6397641 2.4043076
000210 9b 73 8a bf 96 d1 6a be 15 27 e0 3e 2c 72 1c 40
       -1.081653 -0.22931513 0.43779817 2.4444685
000220 3a 98 f6 3f 65 ae bf bf 9a 71 1a 40 c7 2e 65 40
       1.9265206 -1.4975096 2.4131837 3.58098
000230 47 94 34 bf bb 34 f7 3f ee b3 a9 3f ef 93 de 3e
       -0.70538753 1.9312967 1.3258035 0.4347224
000240 08 a4 da 3e 97 01 27 c0 42 ef d4 bf ec 57 32 bf
       0.4270327 -2.609472 -1.6635516 -0.6966541
000250 b0 d4 60 3f 19 37 6c bf be b2 d0 3f 95 7c 96 3f
       0.87824535 -0.9227157 1.6304548 1.175677
000260 c9 1b eb bf 92 24 bf be 03 0e 92 be 71 03 75 bf
       -1.8367854 -0.37332588 -0.28526315 -0.95708376
000270 46 a9 02 3f e2 ea a4 3f ab 77 ef 3f c4 36 5a bf
       0.5103954 1.288418 1.8708395 -0.85239816
000280 90 a1 88 c0 cb eb 16 c0 c8 f4 ed 3e 4d 88 1b 40
       -4.269722 -2.3581417 0.46475816 2.4301941
000290 5b 8b 9a 3f 6f 91 a2 3e 90 c0 d0 3f ad 9d b8 bf
       1.2073778 0.31751582 1.6308765 -1.4423119
0002a0 4f 0e b0 bf a4 08 c6 be c1 e4 47 be 98 13 1d 40
       -1.3754367 -0.38678467 -0.19520856 2.454321
0002b0 d3 fc f1 3f 2b bb 14 40 99 5e 09 bf 2e cc 15 c0
       1.8905281 2.3239238 -0.5365997 -2.3405871
0002c0 6a f1 40 c0 f1 3b 34 c0 01 0f 3b 40 d3 1d 53 40
       -3.0147347 -2.8161585 2.9227908 3.2986953
0002d0 df 70 91 40 a2 f9 20 c0 5f f8 2b c0 6e 16 f0 c0
       4.545028 -2.5152364 -2.6870344 -7.502738
0002e0 dc f5 1a c0 99 cd 52 c0 df b2 f5 bf 64 8f 79 3f
       -2.421256 -3.2937987 -1.9195212 0.9748442
0002f0 66 7b 35 bf ac 5e 17 c0 49 de c9 c0 92 18 21 c1
       -0.70891416 -2.3651533 -6.3083844 -10.068499
000300 6d d9 73 3f 51 8a 76 40 ff 6b 1c bf e1 ef 9d 3f
       0.9525364 3.8521922 -0.6110229 1.233883
000310 35 8d 15 c0 57 3d f9 bf cb ef b8 3e d1 bf 72 40
       -2.3367436 -1.9471844 0.36120448 3.7929575
000320 dd d3 f7 bc 68 6e 82 bf 72 7d db bd 15 0a 86 bf
       -0.030252391 -1.0189943 -0.10717286 -1.0471827
000330 df 31 cb 3e c7 87 1c c0 5e 4f 3c c0 77 26 4c 3e
       0.39686486 -2.4457872 -2.9423442 0.19936548
000340 15 70 c4 bf a9 9d 09 c0 f2 0d e6 3d 8a 2e a4 bf
       -1.5346705 -2.1502478 0.112331286 -1.2826703
000350 22 44 bc be 39 42 1c c0 a6 95 db be 63 89 a4 3f
       -0.3677073 -2.441542 -0.4288761 1.2854427
000360 c8 03 a6 bf 89 f7 c7 3d cb 46 ec 3f 23 2a 38 40
       -1.2969904 0.097640105 1.8459104 2.8775718
000370 c1 bc 1b 3f 81 c6 ac 3f 19 05 49 3f 1a 12 db 3c
       0.6083489 1.3498079 0.78523403 0.02674203
000380 f0 d0 c8 bf d5 9d dc bf 20 0b 0e c0 10 c0 e5 be
       -1.5688763 -1.7235667 -2.219429 -0.44873095
000390 14 a1 9b bf be 70 b9 bd 7f 8e 81 3e f3 aa 01 3e
       -1.2158532 -0.09054707 0.25304028 0.12662868
0003a0 72 65 20 bf 88 92 91 bf 4f 60 98 bf 2c 62 4a bc
       -0.62654793 -1.1372843 -1.1904391 -0.012352508
0003b0 5a c2 2f 3e fd 1c e0 3f d2 46 cd 3f f4 47 7f 3f
       0.17163983 1.7508847 1.6037238 0.99719167
0003c0 7f 23 28 3f ec 90 8f bf 77 e3 92 3c 10 1b 2a bd
       0.6567916 -1.1216102 0.01793073 -0.041529715
0003d0 ba cc 2e 40 91 24 1f 40 1e bf d3 bf 0a cc 9b bf
       2.7312455 2.4866068 -1.6542699 -1.2171643
0003e0 ac 40 14 c0 f4 db b1 3e 8c b6 3c 40 2a a9 25 3f
       -2.3164473 0.34738123 2.9486418 0.6471125
0003f0 b8 6b d7 3f 27 da e5 3f 7a 55 43 40 67 40 f9 bf
       1.6829748 1.79572 3.052092 -1.9472779

fc1.bias f4 [32]
000000 00 fb 94 3d e2 19 1b 3d c5 9b 28 3d 65 c6 0d 3d
       0.07274437 0.03786648 0.04116418 0.034613032
000010 48 88 81 3c d9 42 e2 bc 06 de e3 bb b8 be 29 3d
       0.015812054 -0.027619766 -0.0069539575 0.04144165
000020 76 ef 39 bc 1d 1c 4d 3d 8a 60 2b 3d f9 3b d2 3c
       -0.011348596 0.05007564 0.041840114 0.025663363
000030 cd 2d ac 3d 38 1a 69 bc 1e a0 a5 bc da af da bc
       0.08407173 -0.014227442 -0.020217951 -0.02669518
000040 95 3d e2 bc b6 e2 00 3d 39 c0 1b 3c 4f 01 2a 3d
       -0.027617255 0.03146621 0.009506279 0.041505154
000050 1a 18 b5 3d b6 57 6b 3d 1c 44 aa 3c dc c6 8c 3d
       0.08842488 0.057456695 0.02078443 0.06873867
000060 f5 89 95 3d 97 3f d2 bc a9 96 f7 3b 59 56 59 bd
       0.07301704 -0.025665088 0.007555802 -0.053060863
000070 6e 17 c3 3b 70 f4 ab 3d 51 62 2b 3c 44 75 7f 3d
       0.005953721 0.08396232 0.010460452 0.062367693

batch_norm_fc1.weight f4 [32]
000000 c9 a9 55 3f c0 ff 65 3f 2e ad 58 3f ee f7 16 3f
       0.83462197 0.8984337 0.8463925 0.5897206
000010 98 80 93 3f 9d 1c 18 3f a6 e0 47 3f d0 64 7a 3f
       1.1523619 0.5941866 0.7807716 0.9781008
000020 cd d8 fb 3e 52 13 bb 3f ee 99 37 3f c5 f8 83 3f
       0.49188843 1.4615271 0.71719253 1.0310293
000030 03 62 2c 3f 46 8e f4 3e a3 ef 65 3f 64 01 7b 3f
       0.67337054 0.47764796 0.8981878 0.98048997
000040 1a ca 23 3f f7 63 21 3f 34 3b 68 3f c5 a9 5d 3f
       0.6398026 0.6304316 0.90715337 0.8658717
000050 8b 3b 2b 3f 10 b4 60 3f ce a1 3c 3f 04 f0 88 3f
       0.6688773 0.87774754 0.73684394 1.0698247
000060 eb d7 58 3f ed 20 56 3f fe b1 6f 3f 76 7c 3f 3f
       0.84704465 0.8364399 0.9363097 0.7479929
000070 a8 89 2f 3f 03 dc 83 3f a7 15 91 3f d1 43 81 3f
       0.6856942 1.0301517 1.1334733 1.0098821

batch_norm_fc1.bias f4 [32]
000000 79 47 83 bd 29 a4 bb be fe c4 33 be c4 a5 9c 3e
       -0.06410117 -0.36648682 -0.17555615 0.3059522
000010 e9 81 24 bf 01 07 01 bd b7 c8 b8 bd 4f 84 7f bc
       -0.6426073 -0.03150082 -0.09022658 -0.01559551
000020 9f 7c bb 3e 8d 83 5a bf aa 10 8e be 9b a9 ab be
       0.36618516 -0.8535698 -0.2774709 -0.33527836
000030 ca d8 8c 3d 91 32 14 3f 07 8a 8d be ab fd 6f be
       0.06877287 0.5788966 -0.2764437 -0.2343661
000040 80 fd 4c 3d c9 7d a8 bd a2 51 c0 be 8f 2a 81 be
       0.050046444 -0.082271166 -0.3756228 -0.25227782
000050 db 3a b8 3e 2c 64 f0 be c9 40 a0 be 71 53 2e 3e
       0.35982403 -0.46951425 -0.31299427 0.17024018
000060 05 63 4e be b2 f6 b3 bd a8 ad 92 be 69 0b 57 bd
       -0.2015496 -0.08787288 -0.28648114 -0.052501116
000070 41 e4 19 be 4a fc 62 be d2 d8 de be 34 80 68 be
       -0.15028478 -0.22166553 -0.43524796 -0.22705156

batch_norm_fc1.running_mean f4 [32]
000000 76 77 d5 c2 5e 30 5f c3 8f 2a 2e c3 69 cc 08 c3
       -106.73332 -223.18893 -174.16624 -136.79848
000010 db 8e 30 c3 33 b5 82 43 48 d7 ae c2 5a 9e 61 c2
       -176.55803 261.41562 -87.42047 -56.40464
000020 8b 64 5a c2 ba a9 3c c3 3e 7d 3e 43 1f f3 76 c3
       -54.598186 -188.663 190.48923 -246.94969
000030 83 8f 33 c3 3a 54 39 43 0b 38 84 40 a2 7d 7f c3
       -179.5606 185.32901 4.131841 -255.49075
000040 fe 08 e8 c2 6d 2c 90 c3 3f 29 c4 c2 93 7d 5c c3
       -116.01756 -288.34708 -98.08056 -220.49052
000050 e0 96 01 c4 45 27 09 c3 62 42 3b c3 5b 53 62 c3
       -518.3574 -137.1534 -187.25931 -226.3256
000060 f8 57 83 c3 d2 2a 4c c3 fd 13 2d c3 47 44 94 43
       -262.68726 -204.16727 -173.07808 296.53342
000070 e6 a7 9b c0 e5 54 36 c3 49 e6 ca c3 5d 08 08 c3
       -4.8642454 -182.33162 -405.7991 -136.03267

batch_norm_fc1.running_var f4 [32]
000000 d0 75 8c 46 ff ec 6a 46 f8 73 84 46 41 9d a2 46
       17978.906 15035.249 16953.984 20814.627
000010 c4 1c 5a 46 a3 99 6a 46 4e e3 a2 46 64 b8 96 46
       13959.191 15014.409 20849.652 19292.195
000020 46 ad 89 46 b8 ff b3 46 1e bd 86 46 04 f6 c0 46
       17622.637 23039.86 17246.559 24699.008
000030 82 50 8e 46 38 2f 6f 46 2d 02 7f 46 20 50 af 46
       18216.254 15307.805 16320.544 22440.062
000040 d3 41 a9 46 17 fb 7d 46 c1 65 6e 46 42 cb 85 46
       21664.912 16254.772 15257.438 17125.629
000050 8e a8 d6 46 1a 4e 28 46 5c cf 3b 46 6a b4 c6 46
       27476.277 10771.525 12019.84 25434.207
000060 91 d9 6e 46 35 44 ae 46 0f b2 7e 46 46 69 90 46
       15286.392 22306.104 16300.515 18484.637
000070 d8 f3 75 46 32 d3 ce 46 96 0e b6 46 8b b9 bc 46
       15740.961 26473.598 23303.293 24156.771

fc2.weight f4 [10, 32]
000000 12 d7 fd bd 3f 2b 74 3e 95 45 14 c0 5d 32 37 c0
       -0.12394537 0.23844622 -2.316747 -2.862449
000010 61 78 41 bf f4 a7 a3 3f df 62 5c 3f 5e d3 b5 3e
       -0.7557431 1.278563 0.86088365 0.35512823
000020 b1 bd 82 bf d5 20 b5 be 3b 1d 71 3f 67 38 17 bd
       -1.0214139 -0.3537661 0.9418523 -0.036919024
000030 ed 8f 9d 3f 9a 28 4e bf 0e 03 93 3f f0 76 a1 bf
       1.2309548 -0.80530703 1.1485307 -1.2614422
000040 72 d2 81 bf b3 9c 27 3e 26 f7 90 3f 97 66 ff be
       -1.0142348 0.1636837 1.1325424 -0.49882957
000050 fc 46 aa bf 95 90 9b bf 56 1a 89 bf 27 5a a9 3d
       -1.3302913 -1.2153498 -1.0711162 0.08269148
000060 ef 85 d3 be 9a 8c 95 3e eb 7b 86 bd df 83 00 3f
       -0.4131312 0.29208833 -0.06566604 0.5020122
000070 f2 40 ba bf dc a2 b5 3d b1 50 de 3f 03 74 2f 3e
       -1.455107 0.088689536 1.7368375 0.17134099
000080 6e a1 42 bf 07 8d 4d bf 69 93 29 bf e9 a6 d5 3f
       -0.7602757 -0.80293316 -0.66240555 1.6691562
000090 cb 32 da 3f a7 97 c9 3d 2d 15 d1 bf 68 d0 9f 3f
       1.7046751 0.098433785 -1.6334587 1.2485476
0000a0 d3 6d 02 bf 25 e5 bc bd 05 f1 38 c0 09 0b 2c 3f
       -0.5094883 -0.09223393 -2.8897107 0.6720434
0000b0 4b 3f 6b 3f 65 1d 4d bf c5 a4 7b bf 17 12 8c bf
       0.9189345 -0.8012298 -0.98298293 -1.094302
0000c0 4f 1b a9 bf 5f 33 86 bf be 01 35 bf e8 7c f5 bf
       -1.3211459 -1.0484427 -0.70705783 -1.9178743
0000d0 c2 71 d7 bf eb 2b bd 3e f2 b1 53 bf e6 cc a0 3f
       -1.6831591 0.3694757 -0.826934 1.256253
0000e0 e3 be a5 be 7a 2d 36 c0 bb 88 06 c0 ed e7 c2 3f
       -0.32372198 -2.8465257 -2.1020954 1.5227028
0000f0 13 0f d5 bf 16 99 93 3f 3f 4c 02 c0 ef 21 bc 3f
       -1.6645225 1.1531093 -2.0359037 1.4697856
000100 0e 8a 52 be e8 be 8b 3f 6c 54 a0 3f 3c bc dd 3e
       -0.20560476 1.0917635 1.2525764 0.43307674
000110 da 6d af bf ef a8 8e bf f1 58 b0 3f 35 92 8a bf
       -1.3705399 -1.1145304 1.3777143 -1.0825869
000120 d9 54 03 c0 1c d2 1b bf e3 50 b6 3f c6 5e f0 be
       -2.0520537 -0.60867476 1.4243435 -0.46947306
000130 03 2a c2 be e9 3c f2 be 77 78 e0 be 5e 79 0a bf
       -0.37922677 -0.47312096 -0.43841907 -0.5409144
000140 33 83 8d 3f b3 19 af bf 1e 64 42 3f e6 03 84 be
       1.1055664 -1.3679718 0.75934017 -0.25784224
000150 73 d6 00 bd 47 72 12 bf 19 c3 a2 bd e7 a9 c6 bf
       -0.031454515 -0.57205623 -0.07947368 -1.55206
000160 06 b9 72 bf 9c 66 04 3f a1 d6 6d 3e ed 62 82 3e
       -0.94813573 0.5171907 0.23226406 0.254661
000170 a4 79 9f 3e 6b c3 4a be 50 57 fc 3e b6 f3 b5 be
       0.31147492 -0.19801109 0.49285364 -0.355375
000180 e6 93 52 bf ae fc b8 3d b2 4e 54 be d9 82 b2 bd
       -0.82256925 0.0903257 -0.20733145 -0.087163635
000190 26 16 15 bf 23 3e fe 3e 6a 85 de be 3a 5a 99 bf
       -0.5823692 0.49656782 -0.43461162 -1.198066
0001a0 79 70 e2 be cf 66 2d bf 22 86 e2 bc 0b f9 53 bf
       -0.44226435 -0.67735 -0.02765185 -0.82801884
0001b0 d9 81 52 bf ef 60 ba 3f 76 3a 6f 3c 19 4d 7a bc
       -0.8222938 1.4560832 0.0146013405 -0.015277171
0001c0 44 f0 55 bf 7d 6c e4 3e 81 c2 10 be d1 f2 ac 3e
       -0.8356974 0.4461402 -0.14136697 0.33779004
0001d0 31 7e aa 3f 84 15 d5 be 01 f6 07 3f 0f 70 ba bf
       1.331976 -0.41617978 0.5310975 -1.4565448
0001e0 f8 28 4c 3f 98 47 38 bf d3 f1 6d be 0b 99 a1 be
       0.79750013 -0.71984243 -0.2323678 -0.31562075
0001f0 38 b1 0e be 23 cd ef bf ef 97 b1 3d d0 ca c3 bf
       -0.13934791 -1.8734478 0.08671557 -1.5296268
000200 2a fb 2d 3d 92 52 e5 bf a6 c2 61 3e 7d 9c c9 bf
       0.042475857 -1.7915823 0.22046909 -1.5750881
000210 29 84 c0 bf 44 41 b9 bf 90 85 42 3f e1 90 9c bf
       -1.5040332 -1.4473042 0.7598505 -1.2231714
000220 d3 8d e0 3e 38 2d 8c 3e 86 16 23 be 48 17 26 bf
       0.43858203 0.2737825 -0.15926561 -0.64879274
000230 ba 9e 02 3f 2f fa 21 bf a8 84 2a 3e 89 4f 74 3f
       0.5102345 -0.63272375 0.16652167 0.9543386
000240 95 73 e4 3e 49 74 af bf 02 98 1b bf c6 e2 44 3e
       0.44619432 -1.3707362 -0.6077882 0.19227132
000250 4a a9 96 3f 44 c8 e0 3f 81 74 e4 bf 5f b8 80 bf
       1.1770413 1.7561116 -1.7848054 -1.0056266
000260 c4 3c c9 bf 19 b6 26 3f 27 39 2d bf 9f 53 4b bf
       -1.5721669 0.6512161 -0.6766533 -0.7942447
000270 a6 a7 23 3e 1b e1 cb bf 06 f6 23 3f 2a b2 85 bf
       0.15981922 -1.5928072 0.64047277 -1.0444996
000280 bf c4 28 bf 7a 32 63 bd bb bd 5c 3f 86 16 bb bd
       -0.6592521 -0.05546806 0.86227006 -0.091351554
000290 a2 90 22 bf db b9 e8 3e d6 b5 59 bf 72 20 7d bf
       -0.6350194 0.45454296 -0.85043085 -0.9887763
0002a0 d1 31 50 3f 47 ae d3 be 21 75 57 be 2d c8 f5 be
       0.81326014 -0.413439 -0.21040775 -0.48004285
0002b0 a5 2a a2 bf 3c 7b ce 3f 83 2c 60 be 89 14 64 3e
       -1.2669264 1.6131358 -0.2189198 0.22273459
0002c0 f8 18 4d 3f 54 83 8a 3f 34 19 7a bf e1 d2 a0 3f
       0.80116224 1.0821328 -0.97694707 1.2564355
0002d0 e2 72 2c bf c8 55 3d bf 01 bc 8b 3e e9 8a f7 bf
       -0.673628 -0.73959017 0.27291873 -1.9339267
0002e0 c7 a2 2f 3e aa 64 16 be b9 e2 2a 3e 0c 7b 89 bf
       0.17151938 -0.14686838 0.1668805 -1.0740676
0002f0 92 49 e3 be c8 1c 11 c0 a1 c0 8e bf 66 74 04 c0
       -0.44392067 -2.2673817 -1.1152536 -2.0696044
000300 0d 33 2f bf e6 98 41 3d 66 21 0e 3f 76 e0 ea bd
       -0.6843727 0.047264956 0.5551971 -0.11468594
000310 de b4 f9 3d 8e ed 53 bf f5 45 97 be 63 0b 77 bf
       0.12192701 -0.82784355 -0.2954556 -0.9650175
000320 3c f9 81 3f 3f 13 aa bf 6a 92 81 bc cd 60 d9 3f
       1.0154185 -1.3287123 -0.015816886 1.6982666
000330 cb 31 d1 bf c3 4b e0 bf da b7 b4 bf 0d 27 e7 bf
       -1.6343321 -1.7523121 -1.4118607 -1.8058792
000340 5d 9c 73 3f 10 b7 9c bf 97 1b 6e 3e ae 90 81 3f
       0.95160466 -1.2243366 0.23252712 1.0122278
000350 4c 86 89 3f 09 f3 40 bf 0e 06 2a 3f 94 1e f6 bf
       1.0744109 -0.7537084 0.6641549 -1.9228082
000360 91 02 cd 3f c8 da 19 3f 3a 9f 95 bf 87 39 c2 3f
       1.6016408 0.6009946 -1.1689217 1.5173806
000370 9d 5b 64 3f 3c dd 72 3e 1a 9b 21 3f fc f4 f9 be
       0.8920229 0.23717207 0.6312729 -0.4881972
000380 66 75 0a 40 77 54 c6 bf a4 bd 58 bf 49 73 e7 be
       2.1634154 -1.5494527 -0.8466437 -0.45205143
000390 75 5c ef bf f3 ca ca be 34 d8 7b be 27 5a c2 bf
       -1.8700091 -0.39607963 -0.24594194 -1.5183762
0003a0 80 e1 91 3e f1 7b 19 40 a7 e3 e2 be fd 60 5a bf
       0.28492355 2.3981898 -0.4431431 -0.8530424
0003b0 47 5a 86 bf ab 17 49 3f 5d 04 e3 3f fa 6b 8c 3f
       -1.04963 0.7855174 1.7735707 1.0970452
0003c0 2f 9e 22 bf 7e 80 32 be de 08 a9 3f f9 96 24 bf
       -0.6352262 -0.17431828 1.3205831 -0.64292866
0003d0 25 96 9b bf 42 b7 01 3e 02 21 4a bf c1 c5 af bf
       -1.2155195 0.12667564 -0.78956616 -1.3732225
0003e0 32 1e a8 bf 65 37 27 bf 79 eb 72 be f3 f1 0c c0
       -1.3134215 -0.653189 -0.23722638 -2.2022674
0003f0 8a 29 be 3f 95 cf bd bf 9c 41 a4 bf 3f cb be bf
       1.4856427 -1.4828974 -1.2832522 -1.4905776

fc2.bias f4 [10]
000000 2b 59 d3 3e 40 39 75 bf 16 2a 72 3e e1 0b a3 3d
       0.41278967 -0.9579048 0.23648867 0.0796125
000010 b7 d7 19 3f 53 9f 54 be ed ca ca bf 07 7d bb 3e
       0.6009478 -0.20763902 -1.5843178 0.36618826
000020 4f 36 24 3d df 12 27 3f
       0.040090855 0.6526317
